…
snapshot: 0
snapshot_prefix: "vgg16_rpn"
average_loss: 100
I0430 23:53:19.461843  5798 solver.cpp:81] Creating training net from train_net file: models/pascal_voc/VGG16/faster_rcnn_alt_opt/stage1_rpn_train.pt
I0430 23:53:19.462172  5798 net.cpp:49] Initializing net from parameters: 
name: "VGG_ILSVRC_16_layers"
state {
  phase: TRAIN
}
layer {
  name: "input-data"
  type: "Python"
  top: "data"
  top: "im_info"
  top: "gt_boxes"
  python_param {
    module: "roi_data_layer.layer"
    layer: "RoIDataLayer"
    param_str: "\'num_classes\': 6"
  }
}
layer {
  name: "conv1_1"
  type: "Convolution"
  bottom: "data"
  top: "conv1_1"
  param {
    lr_mult: 0
    decay_mult: 0
  }
  param {
    lr_mult: 0
    decay_mult: 0
  }
  convolution_param {
    num_output: 64
    pad: 1
    kernel_size: 3
  }
}
layer {
  name: "relu1_1"
  type: "ReLU"
  bottom: "conv1_1"
  top: "conv1_1"
}
layer {
  name: "conv1_2"
  type: "Convolution"
  bottom: "conv1_1"
  top: "conv1_2"
  param {
    lr_mult: 0
    decay_mult: 0
  }
  param {
    lr_mult: 0
    decay_mult: 0
  }
  convolution_param {
    num_output: 64
    pad: 1
    kernel_size: 3
  }
}
layer {
  name: "relu1_2"
  type: "ReLU"
  bottom: "conv1_2"
  top: "conv1_2"
}
layer {
  name: "pool1"
  type: "Pooling"
  bottom: "conv1_2"
  top: "pool1"
  pooling_param {
    pool: MAX
    kernel_size: 2
    stride: 2
  }
}
layer {
  name: "conv2_1"
  type: "Convolution"
  bottom: "pool1"
  top: "conv2_1"
  param {
    lr_mult: 0
    decay_mult: 0
  }
  param {
    lr_mult: 0
    decay_mult: 0
  }
  convolution_param {
    num_output: 128
    pad: 1
    kernel_size: 3
  }
}
layer {
  name: "relu2_1"
  type: "ReLU"
  bottom: "conv2_1"
  top: "conv2_1"
}
layer {
  name: "conv2_2"
  type: "Convolution"
  bottom: "conv2_1"
  top: "conv2_2"
  param {
    lr_mult: 0
    decay_mult: 0
  }
  param {
    lr_mult: 0
    decay_mult: 0
  }
  convolution_param {
    num_output: 128
    pad: 1
    kernel_size: 3
  }
}
layer {
  name: "relu2_2"
  type: "ReLU"
  bottom: "conv2_2"
  top: "conv2_2"
}
layer {
  name: "pool2"
  type: "Pooling"
  bottom: "conv2_2"
  top: "pool2"
  pooling_param {
    pool: MAX
    kernel_size: 2
    stride: 2
  }
}
layer {
  name: "conv3_1"
  type: "Convolution"
  bottom: "pool2"
  top: "conv3_1"
  param {
    lr_mult: 1
  }
  param {
    lr_mult: 2
  }
  convolution_param {
    num_output: 256
    pad: 1
    kernel_size: 3
  }
}
layer {
  name: "relu3_1"
  type: "ReLU"
  bottom: "conv3_1"
  top: "conv3_1"
}
layer {
  name: "conv3_2"
  type: "Convolution"
  bottom: "conv3_1"
  top: "conv3_2"
  param {
    lr_mult: 1
  }
  param {
    lr_mult: 2
  }
  convolution_param {
    num_output: 256
    pad: 1
    kernel_size: 3
  }
}
layer {
  name: "relu3_2"
  type: "ReLU"
  bottom: "conv3_2"
  top: "conv3_2"
}
layer {
  name: "conv3_3"
  type: "Convolution"
  bottom: "conv3_2"
  top: "conv3_3"
  param {
    lr_mult: 1
  }
  param {
    lr_mult: 2
  }
  convolution_param {
    num_output: 256
    pad: 1
    kernel_size: 3
  }
}
layer {
  name: "relu3_3"
  type: "ReLU"
  bottom: "conv3_3"
  top: "conv3_3"
}
layer {
  name: "pool3"
  type: "Pooling"
  bottom: "conv3_3"
  top: "pool3"
  pooling_param {
    pool: MAX
    kernel_size: 2
    stride: 2
  }
}
layer {
  name: "conv4_1"
  type: "Convolution"
  bottom: "pool3"
  top: "conv4_1"
  param {
    lr_mult: 1
  }
  param {
    lr_mult: 2
  }
  convolution_param {
    num_output: 512
    pad: 1
    kernel_size: 3
  }
}
layer {
  name: "relu4_1"
  type: "ReLU"
  bottom: "conv4_1"
  top: "conv4_1"
}
layer {
  name: "conv4_2"
  type: "Convolution"
  bottom: "conv4_1"
  top: "conv4_2"
  param {
    lr_mult: 1
  }
  param {
    lr_mult: 2
  }
  convolution_param {
    num_output: 512
    pad: 1
    kernel_size: 3
  }
}
layer {
  name: "relu4_2"
  type: "ReLU"
  bottom: "conv4_2"
  top: "conv4_2"
}
layer {
  name: "conv4_3"
  type: "Convolution"
  bottom: "conv4_2"
  top: "conv4_3"
  param {
    lr_mult: 1
  }
  param {
    lr_mult: 2
  }
  convolution_param {
    num_output: 512
    pad: 1
    kernel_size: 3
  }
}
layer {
  name: "relu4_3"
  type: "ReLU"
  bottom: "conv4_3"
  top: "conv4_3"
}
layer {
  name: "pool4"
  type: "Pooling"
  bottom: "conv4_3"
  top: "pool4"
  pooling_param {
    pool: MAX
    kernel_size: 2
    stride: 2
  }
}
layer {
  name: "conv5_1"
  type: "Convolution"
  bottom: "pool4"
  top: "conv5_1"
  param {
    lr_mult: 1
  }
  param {
    lr_mult: 2
  }
  convolution_param {
    num_output: 512
    pad: 1
    kernel_size: 3
  }
}
layer {
  name: "relu5_1"
  type: "ReLU"
  bottom: "conv5_1"
  top: "conv5_1"
}
layer {
  name: "conv5_2"
  type: "Convolution"
  bottom: "conv5_1"
  top: "conv5_2"
  param {
    lr_mult: 1
  }
  param {
    lr_mult: 2
  }
  convolution_param {
    num_output: 512
    pad: 1
    kernel_size: 3
  }
}
layer {
  name: "relu5_2"
  type: "ReLU"
  bottom: "conv5_2"
  top: "conv5_2"
}
layer {
  name: "conv5_3"
  type: "Convolution"
  bottom: "conv5_2"
  top: "conv5_3"
  param {
    lr_mult: 1
  }
  param {
    lr_mult: 2
  }
  convolution_param {
    num_output: 512
    pad: 1
    kernel_size: 3
  }
}
layer {
  name: "relu5_3"
  type: "ReLU"
  bottom: "conv5_3"
  top: "conv5_3"
}
layer {
  name: "rpn_conv/3x3"
  type: "Convolution"
  bottom: "conv5_3"
  top: "rpn/output"
  param {
    lr_mult: 1
  }
  param {
    lr_mult: 2
  }
  convolution_param {
    num_output: 512
    pad: 1
    kernel_size: 3
    stride: 1
    weight_filler {
      type: "gaussian"
      std: 0.01
    }
    bias_filler {
      type: "constant"
      value: 0
    }
  }
}
layer {
  name: "rpn_relu/3x3"
  type: "ReLU"
  bottom: "rpn/output"
  top: "rpn/output"
}
layer {
  name: "rpn_cls_score"
  type: "Convolution"
  bottom: "rpn/output"
  top: "rpn_cls_score"
  param {
    lr_mult: 1
  }
  param {
    lr_mult: 2
  }
  convolution_param {
    num_output: 18
    pad: 0
    kernel_size: 1
    stride: 1
    weight_filler {
      type: "gaussian"
      std: 0.01
    }
    bias_filler {
      type: "constant"
      value: 0
    }
  }
}
layer {
  name: "rpn_bbox_pred"
  type: "Convolution"
  bottom: "rpn/output"
  top: "rpn_bbox_pred"
  param {
    lr_mult: 1
  }
  param {
    lr_mult: 2
  }
  convolution_param {
    num_output: 36
    pad: 0
    kernel_size: 1
    stride: 1
    weight_filler {
      type: "gaussian"
      std: 0.01
    }
    bias_filler {
      type: "constant"
      value: 0
    }
  }
}
layer {
  name: "rpn_cls_score_reshape"
  type: "Reshape"
  bottom: "rpn_cls_score"
  top: "rpn_cls_score_reshape"
  reshape_param {
    shape {
      dim: 0
      dim: 2
      dim: -1
      dim: 0
    }
  }
}
layer {
  name: "rpn-data"
  type: "Python"
  bottom: "rpn_cls_score"
  bottom: "gt_boxes"
  bottom: "im_info"
  bottom: "data"
  top: "rpn_labels"
  top: "rpn_bbox_targets"
  top: "rpn_bbox_inside_weights"
  top: "rpn_bbox_outside_weights"
  python_param {
    module: "rpn.anchor_target_layer"
    layer: "AnchorTargetLayer"
    param_str: "\'feat_stride\': 16"
  }
}
layer {
  name: "rpn_loss_cls"
  type: "SoftmaxWithLoss"
  bottom: "rpn_cls_score_reshape"
  bottom: "rpn_labels"
  top: "rpn_cls_loss"
  loss_weight: 1
  propagate_down: true
  propagate_down: false
  loss_param {
    ignore_label: -1
    normalize: true
  }
}
layer {
  name: "rpn_loss_bbox"
  type: "SmoothL1Loss"
  bottom: "rpn_bbox_pred"
  bottom: "rpn_bbox_targets"
  bottom: "rpn_bbox_inside_weights"
  bottom: "rpn_bbox_outside_weights"
  top: "rpn_loss_bbox"
  loss_weight: 1
  smooth_l1_loss_param {
    sigma: 3
  }
}
layer {
  name: "dummy_roi_pool_conv5"
  type: "DummyData"
  top: "dummy_roi_pool_conv5"
  dummy_data_param {
    data_filler {
      type: "constant"
      value: 0
    }
    shape {
      dim: 1
      dim: 25088
    }
  }
}
layer {
  name: "fc6"
  type: "InnerProduct"
  bottom: "dummy_roi_pool_conv5"
  top: "fc6"
  param {
    lr_mult: 0
    decay_mult: 0
  }
  param {
    lr_mult: 0
    decay_mult: 0
  }
  inner_product_param {
    num_output: 4096
  }
}
layer {
  name: "relu6"
  type: "ReLU"
  bottom: "fc6"
  top: "fc6"
}
layer {
  name: "drop6"
  type: "Dropout"
  bottom: "fc6"
  top: "fc6"
  dropout_param {
    dropout_ratio: 0.5
  }
}
layer {
  name: "fc7"
  type: "InnerProduct"
  bottom: "fc6"
  top: "fc7"
  param {
    lr_mult: 0
    decay_mult: 0
  }
  param {
    lr_mult: 0
    decay_mult: 0
  }
  inner_product_param {
    num_output: 4096
  }
}
layer {
  name: "silence_fc7"
  type: "Silence"
  bottom: "fc7"
}
I0430 23:53:19.462287  5798 layer_factory.hpp:77] Creating layer input-data
I0430 23:53:19.462564  5798 net.cpp:106] Creating Layer input-data
I0430 23:53:19.462571  5798 net.cpp:411] input-data -> data
I0430 23:53:19.462579  5798 net.cpp:411] input-data -> im_info
I0430 23:53:19.462584  5798 net.cpp:411] input-data -> gt_boxes
RoiDataLayer: name_to_top: {'gt_boxes': 2, 'data': 0, 'im_info': 1}
I0430 23:53:19.471498  5798 net.cpp:150] Setting up input-data
I0430 23:53:19.471510  5798 net.cpp:157] Top shape: 1 3 600 1000 (1800000)
I0430 23:53:19.471514  5798 net.cpp:157] Top shape: 1 3 (3)
I0430 23:53:19.471518  5798 net.cpp:157] Top shape: 1 4 (4)
I0430 23:53:19.471520  5798 net.cpp:165] Memory required for data: 7200028
I0430 23:53:19.471525  5798 layer_factory.hpp:77] Creating layer data_input-data_0_split
I0430 23:53:19.471539  5798 net.cpp:106] Creating Layer data_input-data_0_split
I0430 23:53:19.471540  5798 net.cpp:454] data_input-data_0_split <- data
I0430 23:53:19.471546  5798 net.cpp:411] data_input-data_0_split -> data_input-data_0_split_0
I0430 23:53:19.471554  5798 net.cpp:411] data_input-data_0_split -> data_input-data_0_split_1
I0430 23:53:19.471580  5798 net.cpp:150] Setting up data_input-data_0_split
I0430 23:53:19.471583  5798 net.cpp:157] Top shape: 1 3 600 1000 (1800000)
I0430 23:53:19.471586  5798 net.cpp:157] Top shape: 1 3 600 1000 (1800000)
I0430 23:53:19.471590  5798 net.cpp:165] Memory required for data: 21600028
I0430 23:53:19.471591  5798 layer_factory.hpp:77] Creating layer conv1_1
I0430 23:53:19.471598  5798 net.cpp:106] Creating Layer conv1_1
I0430 23:53:19.471601  5798 net.cpp:454] conv1_1 <- data_input-data_0_split_0
I0430 23:53:19.471606  5798 net.cpp:411] conv1_1 -> conv1_1
I0430 23:53:19.472839  5798 net.cpp:150] Setting up conv1_1
I0430 23:53:19.472847  5798 net.cpp:157] Top shape: 1 64 600 1000 (38400000)
I0430 23:53:19.472849  5798 net.cpp:165] Memory required for data: 175200028
I0430 23:53:19.472858  5798 layer_factory.hpp:77] Creating layer relu1_1
I0430 23:53:19.472863  5798 net.cpp:106] Creating Layer relu1_1
I0430 23:53:19.472867  5798 net.cpp:454] relu1_1 <- conv1_1
I0430 23:53:19.472872  5798 net.cpp:397] relu1_1 -> conv1_1 (in-place)
I0430 23:53:19.472878  5798 net.cpp:150] Setting up relu1_1
I0430 23:53:19.472882  5798 net.cpp:157] Top shape: 1 64 600 1000 (38400000)
I0430 23:53:19.472884  5798 net.cpp:165] Memory required for data: 328800028
I0430 23:53:19.472887  5798 layer_factory.hpp:77] Creating layer conv1_2
I0430 23:53:19.472893  5798 net.cpp:106] Creating Layer conv1_2
I0430 23:53:19.472896  5798 net.cpp:454] conv1_2 <- conv1_1
I0430 23:53:19.472900  5798 net.cpp:411] conv1_2 -> conv1_2
I0430 23:53:19.474160  5798 net.cpp:150] Setting up conv1_2
I0430 23:53:19.474170  5798 net.cpp:157] Top shape: 1 64 600 1000 (38400000)
I0430 23:53:19.474172  5798 net.cpp:165] Memory required for data: 482400028
I0430 23:53:19.474180  5798 layer_factory.hpp:77] Creating layer relu1_2
I0430 23:53:19.474187  5798 net.cpp:106] Creating Layer relu1_2
I0430 23:53:19.474190  5798 net.cpp:454] relu1_2 <- conv1_2
I0430 23:53:19.474195  5798 net.cpp:397] relu1_2 -> conv1_2 (in-place)
I0430 23:53:19.474200  5798 net.cpp:150] Setting up relu1_2
I0430 23:53:19.474203  5798 net.cpp:157] Top shape: 1 64 600 1000 (38400000)
I0430 23:53:19.474206  5798 net.cpp:165] Memory required for data: 636000028
I0430 23:53:19.474208  5798 layer_factory.hpp:77] Creating layer pool1
I0430 23:53:19.474212  5798 net.cpp:106] Creating Layer pool1
I0430 23:53:19.474215  5798 net.cpp:454] pool1 <- conv1_2
I0430 23:53:19.474220  5798 net.cpp:411] pool1 -> pool1
I0430 23:53:19.474251  5798 net.cpp:150] Setting up pool1
I0430 23:53:19.474256  5798 net.cpp:157] Top shape: 1 64 300 500 (9600000)
I0430 23:53:19.474258  5798 net.cpp:165] Memory required for data: 674400028
I0430 23:53:19.474261  5798 layer_factory.hpp:77] Creating layer conv2_1
I0430 23:53:19.474267  5798 net.cpp:106] Creating Layer conv2_1
I0430 23:53:19.474269  5798 net.cpp:454] conv2_1 <- pool1
I0430 23:53:19.474274  5798 net.cpp:411] conv2_1 -> conv2_1
I0430 23:53:19.474905  5798 net.cpp:150] Setting up conv2_1
I0430 23:53:19.474912  5798 net.cpp:157] Top shape: 1 128 300 500 (19200000)
I0430 23:53:19.474915  5798 net.cpp:165] Memory required for data: 751200028
I0430 23:53:19.474921  5798 layer_factory.hpp:77] Creating layer relu2_1
I0430 23:53:19.474927  5798 net.cpp:106] Creating Layer relu2_1
I0430 23:53:19.474931  5798 net.cpp:454] relu2_1 <- conv2_1
I0430 23:53:19.474936  5798 net.cpp:397] relu2_1 -> conv2_1 (in-place)
I0430 23:53:19.474941  5798 net.cpp:150] Setting up relu2_1
I0430 23:53:19.474944  5798 net.cpp:157] Top shape: 1 128 300 500 (19200000)
I0430 23:53:19.474947  5798 net.cpp:165] Memory required for data: 828000028
I0430 23:53:19.474951  5798 layer_factory.hpp:77] Creating layer conv2_2
I0430 23:53:19.474956  5798 net.cpp:106] Creating Layer conv2_2
I0430 23:53:19.474958  5798 net.cpp:454] conv2_2 <- conv2_1
I0430 23:53:19.474962  5798 net.cpp:411] conv2_2 -> conv2_2
I0430 23:53:19.475188  5798 net.cpp:150] Setting up conv2_2
I0430 23:53:19.475191  5798 net.cpp:157] Top shape: 1 128 300 500 (19200000)
I0430 23:53:19.475194  5798 net.cpp:165] Memory required for data: 904800028
I0430 23:53:19.475199  5798 layer_factory.hpp:77] Creating layer relu2_2
I0430 23:53:19.475203  5798 net.cpp:106] Creating Layer relu2_2
I0430 23:53:19.475206  5798 net.cpp:454] relu2_2 <- conv2_2
I0430 23:53:19.475209  5798 net.cpp:397] relu2_2 -> conv2_2 (in-place)
I0430 23:53:19.475215  5798 net.cpp:150] Setting up relu2_2
I0430 23:53:19.475219  5798 net.cpp:157] Top shape: 1 128 300 500 (19200000)
I0430 23:53:19.475221  5798 net.cpp:165] Memory required for data: 981600028
I0430 23:53:19.475224  5798 layer_factory.hpp:77] Creating layer pool2
I0430 23:53:19.475229  5798 net.cpp:106] Creating Layer pool2
I0430 23:53:19.475231  5798 net.cpp:454] pool2 <- conv2_2
I0430 23:53:19.475234  5798 net.cpp:411] pool2 -> pool2
I0430 23:53:19.475256  5798 net.cpp:150] Setting up pool2
I0430 23:53:19.475260  5798 net.cpp:157] Top shape: 1 128 150 250 (4800000)
I0430 23:53:19.475262  5798 net.cpp:165] Memory required for data: 1000800028
I0430 23:53:19.475265  5798 layer_factory.hpp:77] Creating layer conv3_1
I0430 23:53:19.475271  5798 net.cpp:106] Creating Layer conv3_1
I0430 23:53:19.475273  5798 net.cpp:454] conv3_1 <- pool2
I0430 23:53:19.475277  5798 net.cpp:411] conv3_1 -> conv3_1
I0430 23:53:19.475944  5798 net.cpp:150] Setting up conv3_1
I0430 23:53:19.475950  5798 net.cpp:157] Top shape: 1 256 150 250 (9600000)
I0430 23:53:19.475952  5798 net.cpp:165] Memory required for data: 1039200028
I0430 23:53:19.475960  5798 layer_factory.hpp:77] Creating layer relu3_1
I0430 23:53:19.475965  5798 net.cpp:106] Creating Layer relu3_1
I0430 23:53:19.475967  5798 net.cpp:454] relu3_1 <- conv3_1
I0430 23:53:19.475971  5798 net.cpp:397] relu3_1 -> conv3_1 (in-place)
I0430 23:53:19.475976  5798 net.cpp:150] Setting up relu3_1
I0430 23:53:19.475980  5798 net.cpp:157] Top shape: 1 256 150 250 (9600000)
I0430 23:53:19.475983  5798 net.cpp:165] Memory required for data: 1077600028
I0430 23:53:19.475986  5798 layer_factory.hpp:77] Creating layer conv3_2
I0430 23:53:19.475991  5798 net.cpp:106] Creating Layer conv3_2
I0430 23:53:19.475993  5798 net.cpp:454] conv3_2 <- conv3_1
I0430 23:53:19.475998  5798 net.cpp:411] conv3_2 -> conv3_2
I0430 23:53:19.476821  5798 net.cpp:150] Setting up conv3_2
I0430 23:53:19.476828  5798 net.cpp:157] Top shape: 1 256 150 250 (9600000)
I0430 23:53:19.476830  5798 net.cpp:165] Memory required for data: 1116000028
I0430 23:53:19.476835  5798 layer_factory.hpp:77] Creating layer relu3_2
I0430 23:53:19.476840  5798 net.cpp:106] Creating Layer relu3_2
I0430 23:53:19.476843  5798 net.cpp:454] relu3_2 <- conv3_2
I0430 23:53:19.476848  5798 net.cpp:397] relu3_2 -> conv3_2 (in-place)
I0430 23:53:19.476853  5798 net.cpp:150] Setting up relu3_2
I0430 23:53:19.476857  5798 net.cpp:157] Top shape: 1 256 150 250 (9600000)
I0430 23:53:19.476861  5798 net.cpp:165] Memory required for data: 1154400028
I0430 23:53:19.476862  5798 layer_factory.hpp:77] Creating layer conv3_3
I0430 23:53:19.476871  5798 net.cpp:106] Creating Layer conv3_3
I0430 23:53:19.476872  5798 net.cpp:454] conv3_3 <- conv3_2
I0430 23:53:19.476877  5798 net.cpp:411] conv3_3 -> conv3_3
I0430 23:53:19.477736  5798 net.cpp:150] Setting up conv3_3
I0430 23:53:19.477744  5798 net.cpp:157] Top shape: 1 256 150 250 (9600000)
I0430 23:53:19.477746  5798 net.cpp:165] Memory required for data: 1192800028
I0430 23:53:19.477751  5798 layer_factory.hpp:77] Creating layer relu3_3
I0430 23:53:19.477757  5798 net.cpp:106] Creating Layer relu3_3
I0430 23:53:19.477761  5798 net.cpp:454] relu3_3 <- conv3_3
I0430 23:53:19.477764  5798 net.cpp:397] relu3_3 -> conv3_3 (in-place)
I0430 23:53:19.477769  5798 net.cpp:150] Setting up relu3_3
I0430 23:53:19.477773  5798 net.cpp:157] Top shape: 1 256 150 250 (9600000)
I0430 23:53:19.477776  5798 net.cpp:165] Memory required for data: 1231200028
I0430 23:53:19.477778  5798 layer_factory.hpp:77] Creating layer pool3
I0430 23:53:19.477782  5798 net.cpp:106] Creating Layer pool3
I0430 23:53:19.477784  5798 net.cpp:454] pool3 <- conv3_3
I0430 23:53:19.477789  5798 net.cpp:411] pool3 -> pool3
I0430 23:53:19.477813  5798 net.cpp:150] Setting up pool3
I0430 23:53:19.477818  5798 net.cpp:157] Top shape: 1 256 75 125 (2400000)
I0430 23:53:19.477819  5798 net.cpp:165] Memory required for data: 1240800028
I0430 23:53:19.477823  5798 layer_factory.hpp:77] Creating layer conv4_1
I0430 23:53:19.477828  5798 net.cpp:106] Creating Layer conv4_1
I0430 23:53:19.477831  5798 net.cpp:454] conv4_1 <- pool3
I0430 23:53:19.477835  5798 net.cpp:411] conv4_1 -> conv4_1
I0430 23:53:19.480113  5798 net.cpp:150] Setting up conv4_1
I0430 23:53:19.480129  5798 net.cpp:157] Top shape: 1 512 75 125 (4800000)
I0430 23:53:19.480131  5798 net.cpp:165] Memory required for data: 1260000028
I0430 23:53:19.480139  5798 layer_factory.hpp:77] Creating layer relu4_1
I0430 23:53:19.480145  5798 net.cpp:106] Creating Layer relu4_1
I0430 23:53:19.480149  5798 net.cpp:454] relu4_1 <- conv4_1
I0430 23:53:19.480155  5798 net.cpp:397] relu4_1 -> conv4_1 (in-place)
I0430 23:53:19.480162  5798 net.cpp:150] Setting up relu4_1
I0430 23:53:19.480166  5798 net.cpp:157] Top shape: 1 512 75 125 (4800000)
I0430 23:53:19.480168  5798 net.cpp:165] Memory required for data: 1279200028
I0430 23:53:19.480170  5798 layer_factory.hpp:77] Creating layer conv4_2
I0430 23:53:19.480177  5798 net.cpp:106] Creating Layer conv4_2
I0430 23:53:19.480180  5798 net.cpp:454] conv4_2 <- conv4_1
I0430 23:53:19.480185  5798 net.cpp:411] conv4_2 -> conv4_2
I0430 23:53:19.482816  5798 net.cpp:150] Setting up conv4_2
I0430 23:53:19.482833  5798 net.cpp:157] Top shape: 1 512 75 125 (4800000)
I0430 23:53:19.482836  5798 net.cpp:165] Memory required for data: 1298400028
I0430 23:53:19.482846  5798 layer_factory.hpp:77] Creating layer relu4_2
I0430 23:53:19.482854  5798 net.cpp:106] Creating Layer relu4_2
I0430 23:53:19.482858  5798 net.cpp:454] relu4_2 <- conv4_2
I0430 23:53:19.482864  5798 net.cpp:397] relu4_2 -> conv4_2 (in-place)
I0430 23:53:19.482872  5798 net.cpp:150] Setting up relu4_2
I0430 23:53:19.482874  5798 net.cpp:157] Top shape: 1 512 75 125 (4800000)
I0430 23:53:19.482877  5798 net.cpp:165] Memory required for data: 1317600028
I0430 23:53:19.482879  5798 layer_factory.hpp:77] Creating layer conv4_3
I0430 23:53:19.482885  5798 net.cpp:106] Creating Layer conv4_3
I0430 23:53:19.482887  5798 net.cpp:454] conv4_3 <- conv4_2
I0430 23:53:19.482892  5798 net.cpp:411] conv4_3 -> conv4_3
I0430 23:53:19.485585  5798 net.cpp:150] Setting up conv4_3
I0430 23:53:19.485617  5798 net.cpp:157] Top shape: 1 512 75 125 (4800000)
I0430 23:53:19.485620  5798 net.cpp:165] Memory required for data: 1336800028
I0430 23:53:19.485626  5798 layer_factory.hpp:77] Creating layer relu4_3
I0430 23:53:19.485633  5798 net.cpp:106] Creating Layer relu4_3
I0430 23:53:19.485637  5798 net.cpp:454] relu4_3 <- conv4_3
I0430 23:53:19.485656  5798 net.cpp:397] relu4_3 -> conv4_3 (in-place)
I0430 23:53:19.485664  5798 net.cpp:150] Setting up relu4_3
I0430 23:53:19.485667  5798 net.cpp:157] Top shape: 1 512 75 125 (4800000)
I0430 23:53:19.485669  5798 net.cpp:165] Memory required for data: 1356000028
I0430 23:53:19.485671  5798 layer_factory.hpp:77] Creating layer pool4
I0430 23:53:19.485677  5798 net.cpp:106] Creating Layer pool4
I0430 23:53:19.485679  5798 net.cpp:454] pool4 <- conv4_3
I0430 23:53:19.485683  5798 net.cpp:411] pool4 -> pool4
I0430 23:53:19.485713  5798 net.cpp:150] Setting up pool4
I0430 23:53:19.485718  5798 net.cpp:157] Top shape: 1 512 38 63 (1225728)
I0430 23:53:19.485719  5798 net.cpp:165] Memory required for data: 1360902940
I0430 23:53:19.485721  5798 layer_factory.hpp:77] Creating layer conv5_1
I0430 23:53:19.485730  5798 net.cpp:106] Creating Layer conv5_1
I0430 23:53:19.485733  5798 net.cpp:454] conv5_1 <- pool4
I0430 23:53:19.485738  5798 net.cpp:411] conv5_1 -> conv5_1
I0430 23:53:19.488375  5798 net.cpp:150] Setting up conv5_1
I0430 23:53:19.488395  5798 net.cpp:157] Top shape: 1 512 38 63 (1225728)
I0430 23:53:19.488397  5798 net.cpp:165] Memory required for data: 1365805852
I0430 23:53:19.488405  5798 layer_factory.hpp:77] Creating layer relu5_1
I0430 23:53:19.488412  5798 net.cpp:106] Creating Layer relu5_1
I0430 23:53:19.488417  5798 net.cpp:454] relu5_1 <- conv5_1
I0430 23:53:19.488422  5798 net.cpp:397] relu5_1 -> conv5_1 (in-place)
I0430 23:53:19.488430  5798 net.cpp:150] Setting up relu5_1
I0430 23:53:19.488433  5798 net.cpp:157] Top shape: 1 512 38 63 (1225728)
I0430 23:53:19.488435  5798 net.cpp:165] Memory required for data: 1370708764
I0430 23:53:19.488438  5798 layer_factory.hpp:77] Creating layer conv5_2
I0430 23:53:19.488446  5798 net.cpp:106] Creating Layer conv5_2
I0430 23:53:19.488448  5798 net.cpp:454] conv5_2 <- conv5_1
I0430 23:53:19.488453  5798 net.cpp:411] conv5_2 -> conv5_2
I0430 23:53:19.491150  5798 net.cpp:150] Setting up conv5_2
I0430 23:53:19.491169  5798 net.cpp:157] Top shape: 1 512 38 63 (1225728)
I0430 23:53:19.491171  5798 net.cpp:165] Memory required for data: 1375611676
I0430 23:53:19.491178  5798 layer_factory.hpp:77] Creating layer relu5_2
I0430 23:53:19.491186  5798 net.cpp:106] Creating Layer relu5_2
I0430 23:53:19.491192  5798 net.cpp:454] relu5_2 <- conv5_2
I0430 23:53:19.491199  5798 net.cpp:397] relu5_2 -> conv5_2 (in-place)
I0430 23:53:19.491205  5798 net.cpp:150] Setting up relu5_2
I0430 23:53:19.491209  5798 net.cpp:157] Top shape: 1 512 38 63 (1225728)
I0430 23:53:19.491211  5798 net.cpp:165] Memory required for data: 1380514588
I0430 23:53:19.491214  5798 layer_factory.hpp:77] Creating layer conv5_3
I0430 23:53:19.491220  5798 net.cpp:106] Creating Layer conv5_3
I0430 23:53:19.491224  5798 net.cpp:454] conv5_3 <- conv5_2
I0430 23:53:19.491227  5798 net.cpp:411] conv5_3 -> conv5_3
I0430 23:53:19.493918  5798 net.cpp:150] Setting up conv5_3
I0430 23:53:19.493935  5798 net.cpp:157] Top shape: 1 512 38 63 (1225728)
I0430 23:53:19.493937  5798 net.cpp:165] Memory required for data: 1385417500
I0430 23:53:19.493943  5798 layer_factory.hpp:77] Creating layer relu5_3
I0430 23:53:19.493952  5798 net.cpp:106] Creating Layer relu5_3
I0430 23:53:19.493955  5798 net.cpp:454] relu5_3 <- conv5_3
I0430 23:53:19.493960  5798 net.cpp:397] relu5_3 -> conv5_3 (in-place)
I0430 23:53:19.493968  5798 net.cpp:150] Setting up relu5_3
I0430 23:53:19.493970  5798 net.cpp:157] Top shape: 1 512 38 63 (1225728)
I0430 23:53:19.493973  5798 net.cpp:165] Memory required for data: 1390320412
I0430 23:53:19.493975  5798 layer_factory.hpp:77] Creating layer rpn_conv/3x3
I0430 23:53:19.493988  5798 net.cpp:106] Creating Layer rpn_conv/3x3
I0430 23:53:19.493990  5798 net.cpp:454] rpn_conv/3x3 <- conv5_3
I0430 23:53:19.493995  5798 net.cpp:411] rpn_conv/3x3 -> rpn/output
I0430 23:53:19.510182  5798 net.cpp:150] Setting up rpn_conv/3x3
I0430 23:53:19.510198  5798 net.cpp:157] Top shape: 1 512 38 63 (1225728)
I0430 23:53:19.510200  5798 net.cpp:165] Memory required for data: 1395223324
I0430 23:53:19.510207  5798 layer_factory.hpp:77] Creating layer rpn_relu/3x3
I0430 23:53:19.510213  5798 net.cpp:106] Creating Layer rpn_relu/3x3
I0430 23:53:19.510216  5798 net.cpp:454] rpn_relu/3x3 <- rpn/output
I0430 23:53:19.510222  5798 net.cpp:397] rpn_relu/3x3 -> rpn/output (in-place)
I0430 23:53:19.510229  5798 net.cpp:150] Setting up rpn_relu/3x3
I0430 23:53:19.510233  5798 net.cpp:157] Top shape: 1 512 38 63 (1225728)
I0430 23:53:19.510236  5798 net.cpp:165] Memory required for data: 1400126236
I0430 23:53:19.510237  5798 layer_factory.hpp:77] Creating layer rpn/output_rpn_relu/3x3_0_split
I0430 23:53:19.510242  5798 net.cpp:106] Creating Layer rpn/output_rpn_relu/3x3_0_split
I0430 23:53:19.510246  5798 net.cpp:454] rpn/output_rpn_relu/3x3_0_split <- rpn/output
I0430 23:53:19.510251  5798 net.cpp:411] rpn/output_rpn_relu/3x3_0_split -> rpn/output_rpn_relu/3x3_0_split_0
I0430 23:53:19.510257  5798 net.cpp:411] rpn/output_rpn_relu/3x3_0_split -> rpn/output_rpn_relu/3x3_0_split_1
I0430 23:53:19.510282  5798 net.cpp:150] Setting up rpn/output_rpn_relu/3x3_0_split
I0430 23:53:19.510288  5798 net.cpp:157] Top shape: 1 512 38 63 (1225728)
I0430 23:53:19.510293  5798 net.cpp:157] Top shape: 1 512 38 63 (1225728)
I0430 23:53:19.510295  5798 net.cpp:165] Memory required for data: 1409932060
I0430 23:53:19.510298  5798 layer_factory.hpp:77] Creating layer rpn_cls_score
I0430 23:53:19.510304  5798 net.cpp:106] Creating Layer rpn_cls_score
I0430 23:53:19.510308  5798 net.cpp:454] rpn_cls_score <- rpn/output_rpn_relu/3x3_0_split_0
I0430 23:53:19.510313  5798 net.cpp:411] rpn_cls_score -> rpn_cls_score
I0430 23:53:19.510502  5798 net.cpp:150] Setting up rpn_cls_score
I0430 23:53:19.510506  5798 net.cpp:157] Top shape: 1 18 38 63 (43092)
I0430 23:53:19.510509  5798 net.cpp:165] Memory required for data: 1410104428
I0430 23:53:19.510514  5798 layer_factory.hpp:77] Creating layer rpn_cls_score_rpn_cls_score_0_split
I0430 23:53:19.510519  5798 net.cpp:106] Creating Layer rpn_cls_score_rpn_cls_score_0_split
I0430 23:53:19.510521  5798 net.cpp:454] rpn_cls_score_rpn_cls_score_0_split <- rpn_cls_score
I0430 23:53:19.510526  5798 net.cpp:411] rpn_cls_score_rpn_cls_score_0_split -> rpn_cls_score_rpn_cls_score_0_split_0
I0430 23:53:19.510531  5798 net.cpp:411] rpn_cls_score_rpn_cls_score_0_split -> rpn_cls_score_rpn_cls_score_0_split_1
I0430 23:53:19.510553  5798 net.cpp:150] Setting up rpn_cls_score_rpn_cls_score_0_split
I0430 23:53:19.510557  5798 net.cpp:157] Top shape: 1 18 38 63 (43092)
I0430 23:53:19.510560  5798 net.cpp:157] Top shape: 1 18 38 63 (43092)
I0430 23:53:19.510562  5798 net.cpp:165] Memory required for data: 1410449164
I0430 23:53:19.510565  5798 layer_factory.hpp:77] Creating layer rpn_bbox_pred
I0430 23:53:19.510571  5798 net.cpp:106] Creating Layer rpn_bbox_pred
I0430 23:53:19.510573  5798 net.cpp:454] rpn_bbox_pred <- rpn/output_rpn_relu/3x3_0_split_1
I0430 23:53:19.510579  5798 net.cpp:411] rpn_bbox_pred -> rpn_bbox_pred
I0430 23:53:19.510821  5798 net.cpp:150] Setting up rpn_bbox_pred
I0430 23:53:19.510825  5798 net.cpp:157] Top shape: 1 36 38 63 (86184)
I0430 23:53:19.510828  5798 net.cpp:165] Memory required for data: 1410793900
I0430 23:53:19.510833  5798 layer_factory.hpp:77] Creating layer rpn_cls_score_reshape
I0430 23:53:19.510843  5798 net.cpp:106] Creating Layer rpn_cls_score_reshape
I0430 23:53:19.510846  5798 net.cpp:454] rpn_cls_score_reshape <- rpn_cls_score_rpn_cls_score_0_split_0
I0430 23:53:19.510852  5798 net.cpp:411] rpn_cls_score_reshape -> rpn_cls_score_reshape
I0430 23:53:19.510869  5798 net.cpp:150] Setting up rpn_cls_score_reshape
I0430 23:53:19.510872  5798 net.cpp:157] Top shape: 1 2 342 63 (43092)
I0430 23:53:19.510874  5798 net.cpp:165] Memory required for data: 1410966268
I0430 23:53:19.510877  5798 layer_factory.hpp:77] Creating layer rpn-data
I0430 23:53:19.511142  5798 net.cpp:106] Creating Layer rpn-data
I0430 23:53:19.511147  5798 net.cpp:454] rpn-data <- rpn_cls_score_rpn_cls_score_0_split_1
I0430 23:53:19.511150  5798 net.cpp:454] rpn-data <- gt_boxes
I0430 23:53:19.511154  5798 net.cpp:454] rpn-data <- im_info
I0430 23:53:19.511158  5798 net.cpp:454] rpn-data <- data_input-data_0_split_1
I0430 23:53:19.511163  5798 net.cpp:411] rpn-data -> rpn_labels
I0430 23:53:19.511170  5798 net.cpp:411] rpn-data -> rpn_bbox_targets
I0430 23:53:19.511178  5798 net.cpp:411] rpn-data -> rpn_bbox_inside_weights
I0430 23:53:19.511185  5798 net.cpp:411] rpn-data -> rpn_bbox_outside_weights
I0430 23:53:19.511634  5798 net.cpp:150] Setting up rpn-data
I0430 23:53:19.511641  5798 net.cpp:157] Top shape: 1 1 342 63 (21546)
I0430 23:53:19.511646  5798 net.cpp:157] Top shape: 1 36 38 63 (86184)
I0430 23:53:19.511648  5798 net.cpp:157] Top shape: 1 36 38 63 (86184)
I0430 23:53:19.511651  5798 net.cpp:157] Top shape: 1 36 38 63 (86184)
I0430 23:53:19.511654  5798 net.cpp:165] Memory required for data: 1412086660
I0430 23:53:19.511657  5798 layer_factory.hpp:77] Creating layer rpn_loss_cls
I0430 23:53:19.511667  5798 net.cpp:106] Creating Layer rpn_loss_cls
I0430 23:53:19.511669  5798 net.cpp:454] rpn_loss_cls <- rpn_cls_score_reshape
I0430 23:53:19.511673  5798 net.cpp:454] rpn_loss_cls <- rpn_labels
I0430 23:53:19.511678  5798 net.cpp:411] rpn_loss_cls -> rpn_cls_loss
…
I0430 23:53:19.512127  5798 net.cpp:150] Setting up rpn_loss_bbox
I0430 23:53:19.512131  5798 net.cpp:157] Top shape: (1)
I0430 23:53:19.512133  5798 net.cpp:160]     with loss weight 1
I0430 23:53:19.512138  5798 net.cpp:165] Memory required for data: 1412086668
I0430 23:53:19.512140  5798 layer_factory.hpp:77] Creating layer dummy_roi_pool_conv5
I0430 23:53:19.512148  5798 net.cpp:106] Creating Layer dummy_roi_pool_conv5
I0430 23:53:19.512153  5798 net.cpp:411] dummy_roi_pool_conv5 -> dummy_roi_pool_conv5
I0430 23:53:19.512192  5798 net.cpp:150] Setting up dummy_roi_pool_conv5
I0430 23:53:19.512195  5798 net.cpp:157] Top shape: 1 25088 (25088)
I0430 23:53:19.512197  5798 net.cpp:165] Memory required for data: 1412187020
I0430 23:53:19.512200  5798 layer_factory.hpp:77] Creating layer fc6
I0430 23:53:19.512205  5798 net.cpp:106] Creating Layer fc6
I0430 23:53:19.512207  5798 net.cpp:454] fc6 <- dummy_roi_pool_conv5
I0430 23:53:19.512212  5798 net.cpp:411] fc6 -> fc6
I0430 23:53:19.612977  5798 net.cpp:150] Setting up fc6
I0430 23:53:19.612995  5798 net.cpp:157] Top shape: 1 4096 (4096)
I0430 23:53:19.612998  5798 net.cpp:165] Memory required for data: 1412203404
I0430 23:53:19.613013  5798 layer_factory.hpp:77] Creating layer relu6
I0430 23:53:19.613021  5798 net.cpp:106] Creating Layer relu6
I0430 23:53:19.613025  5798 net.cpp:454] relu6 <- fc6
I0430 23:53:19.613030  5798 net.cpp:397] relu6 -> fc6 (in-place)
I0430 23:53:19.613037  5798 net.cpp:150] Setting up relu6
I0430 23:53:19.613040  5798 net.cpp:157] Top shape: 1 4096 (4096)
I0430 23:53:19.613044  5798 net.cpp:165] Memory required for data: 1412219788
I0430 23:53:19.613045  5798 layer_factory.hpp:77] Creating layer drop6
I0430 23:53:19.613050  5798 net.cpp:106] Creating Layer drop6
I0430 23:53:19.613052  5798 net.cpp:454] drop6 <- fc6
I0430 23:53:19.613056  5798 net.cpp:397] drop6 -> fc6 (in-place)
I0430 23:53:19.613076  5798 net.cpp:150] Setting up drop6
I0430 23:53:19.613080  5798 net.cpp:157] Top shape: 1 4096 (4096)
I0430 23:53:19.613082  5798 net.cpp:165] Memory required for data: 1412236172
I0430 23:53:19.613085  5798 layer_factory.hpp:77] Creating layer fc7
I0430 23:53:19.613090  5798 net.cpp:106] Creating Layer fc7
I0430 23:53:19.613091  5798 net.cpp:454] fc7 <- fc6
I0430 23:53:19.613095  5798 net.cpp:411] fc7 -> fc7
I0430 23:53:19.629974  5798 net.cpp:150] Setting up fc7
I0430 23:53:19.629992  5798 net.cpp:157] Top shape: 1 4096 (4096)
I0430 23:53:19.629994  5798 net.cpp:165] Memory required for data: 1412252556
I0430 23:53:19.630002  5798 layer_factory.hpp:77] Creating layer silence_fc7
I0430 23:53:19.630010  5798 net.cpp:106] Creating Layer silence_fc7
I0430 23:53:19.630013  5798 net.cpp:454] silence_fc7 <- fc7
I0430 23:53:19.630019  5798 net.cpp:150] Setting up silence_fc7
I0430 23:53:19.630022  5798 net.cpp:165] Memory required for data: 1412252556
…
           'SCALES': [600],
           'SNAPSHOT_INFIX': 'stage1',
           'SNAPSHOT_ITERS': 10000,
           'USE_FLIPPED': True,
           'USE_PREFETCH': False},
 'USE_GPU_NMS': True}
Loaded dataset `voc_2007_trainval` for proposal generation
WARNING: Logging before InitGoogleLogging() is written to STDERR
I0501 03:07:50.534955  6906 net.cpp:49] Initializing net from parameters: 
name: "VGG_ILSVRC_16_layers"
input: "data"
input: "im_info"
state {
  phase: TEST
}
input_shape {
  dim: 1
  dim: 3
  dim: 224
  dim: 224
}
input_shape {
  dim: 1
  dim: 3
}
layer {
  name: "conv1_1"
  type: "Convolution"
  bottom: "data"
  top: "conv1_1"
  convolution_param {
    num_output: 64
    pad: 1
    kernel_size: 3
  }
}
layer {
  name: "relu1_1"
  type: "ReLU"
  bottom: "conv1_1"
  top: "conv1_1"
}
layer {
  name: "conv1_2"
  type: "Convolution"
  bottom: "conv1_1"
  top: "conv1_2"
  convolution_param {
    num_output: 64
    pad: 1
    kernel_size: 3
  }
}
layer {
  name: "relu1_2"
  type: "ReLU"
  bottom: "conv1_2"
  top: "conv1_2"
}
layer {
  name: "pool1"
  type: "Pooling"
  bottom: "conv1_2"
  top: "pool1"
  pooling_param {
    pool: MAX
    kernel_size: 2
    stride: 2
  }
}
layer {
  name: "conv2_1"
  type: "Convolution"
  bottom: "pool1"
  top: "conv2_1"
  convolution_param {
    num_output: 128
    pad: 1
    kernel_size: 3
  }
}
layer {
  name: "relu2_1"
  type: "ReLU"
  bottom: "conv2_1"
  top: "conv2_1"
}
layer {
  name: "conv2_2"
  type: "Convolution"
  bottom: "conv2_1"
  top: "conv2_2"
  convolution_param {
    num_output: 128
    pad: 1
    kernel_size: 3
  }
}
layer {
  name: "relu2_2"
  type: "ReLU"
  bottom: "conv2_2"
  top: "conv2_2"
}
layer {
  name: "pool2"
  type: "Pooling"
  bottom: "conv2_2"
  top: "pool2"
  pooling_param {
    pool: MAX
    kernel_size: 2
    stride: 2
  }
}
layer {
  name: "conv3_1"
  type: "Convolution"
  bottom: "pool2"
  top: "conv3_1"
  convolution_param {
    num_output: 256
    pad: 1
    kernel_size: 3
  }
}
layer {
  name: "relu3_1"
  type: "ReLU"
  bottom: "conv3_1"
  top: "conv3_1"
}
layer {
  name: "conv3_2"
  type: "Convolution"
  bottom: "conv3_1"
  top: "conv3_2"
  convolution_param {
    num_output: 256
    pad: 1
    kernel_size: 3
  }
}
layer {
  name: "relu3_2"
  type: "ReLU"
  bottom: "conv3_2"
  top: "conv3_2"
}
layer {
  name: "conv3_3"
  type: "Convolution"
  bottom: "conv3_2"
  top: "conv3_3"
  convolution_param {
    num_output: 256
    pad: 1
    kernel_size: 3
  }
}
layer {
  name: "relu3_3"
  type: "ReLU"
  bottom: "conv3_3"
  top: "conv3_3"
}
layer {
  name: "pool3"
  type: "Pooling"
  bottom: "conv3_3"
  top: "pool3"
  pooling_param {
    pool: MAX
    kernel_size: 2
    stride: 2
  }
}
layer {
  name: "conv4_1"
  type: "Convolution"
  bottom: "pool3"
  top: "conv4_1"
  convolution_param {
    num_output: 512
    pad: 1
    kernel_size: 3
  }
}
layer {
  name: "relu4_1"
  type: "ReLU"
  bottom: "conv4_1"
  top: "conv4_1"
}
layer {
  name: "conv4_2"
  type: "Convolution"
  bottom: "conv4_1"
  top: "conv4_2"
  convolution_param {
    num_output: 512
    pad: 1
    kernel_size: 3
  }
}
layer {
  name: "relu4_2"
  type: "ReLU"
  bottom: "conv4_2"
  top: "conv4_2"
}
layer {
  name: "conv4_3"
  type: "Convolution"
  bottom: "conv4_2"
  top: "conv4_3"
  convolution_param {
    num_output: 512
    pad: 1
    kernel_size: 3
  }
}
layer {
  name: "relu4_3"
  type: "ReLU"
  bottom: "conv4_3"
  top: "conv4_3"
}
layer {
  name: "pool4"
  type: "Pooling"
  bottom: "conv4_3"
  top: "pool4"
  pooling_param {
    pool: MAX
    kernel_size: 2
    stride: 2
  }
}
layer {
  name: "conv5_1"
  type: "Convolution"
  bottom: "pool4"
  top: "conv5_1"
  convolution_param {
    num_output: 512
    pad: 1
    kernel_size: 3
  }
}
layer {
  name: "relu5_1"
  type: "ReLU"
  bottom: "conv5_1"
  top: "conv5_1"
}
layer {
  name: "conv5_2"
  type: "Convolution"
  bottom: "conv5_1"
  top: "conv5_2"
  convolution_param {
    num_output: 512
    pad: 1
    kernel_size: 3
  }
}
layer {
  name: "relu5_2"
  type: "ReLU"
  bottom: "conv5_2"
  top: "conv5_2"
}
layer {
  name: "conv5_3"
  type: "Convolution"
  bottom: "conv5_2"
  top: "conv5_3"
  convolution_param {
    num_output: 512
    pad: 1
    kernel_size: 3
  }
}
layer {
  name: "relu5_3"
  type: "ReLU"
  bottom: "conv5_3"
  top: "conv5_3"
}
layer {
  name: "rpn_conv/3x3"
  type: "Convolution"
  bottom: "conv5_3"
  top: "rpn/output"
  convolution_param {
    num_output: 512
    pad: 1
    kernel_size: 3
    stride: 1
  }
}
layer {
  name: "rpn_relu/3x3"
  type: "ReLU"
  bottom: "rpn/output"
  top: "rpn/output"
}
layer {
  name: "rpn_cls_score"
  type: "Convolution"
  bottom: "rpn/output"
  top: "rpn_cls_score"
  convolution_param {
    num_output: 18
    pad: 0
    kernel_size: 1
    stride: 1
  }
}
layer {
  name: "rpn_bbox_pred"
  type: "Convolution"
  bottom: "rpn/output"
  top: "rpn_bbox_pred"
  convolution_param {
    num_output: 36
    pad: 0
    kernel_size: 1
    stride: 1
  }
}
layer {
  name: "rpn_cls_score_reshape"
  type: "Reshape"
  bottom: "rpn_cls_score"
  top: "rpn_cls_score_reshape"
  reshape_param {
    shape {
      dim: 0
      dim: 2
      dim: -1
      dim: 0
    }
  }
}
layer {
  name: "rpn_cls_prob"
  type: "Softmax"
  bottom: "rpn_cls_score_reshape"
  top: "rpn_cls_prob"
}
layer {
  name: "rpn_cls_prob_reshape"
  type: "Reshape"
  bottom: "rpn_cls_prob"
  top: "rpn_cls_prob_reshape"
  reshape_param {
    shape {
      dim: 0
      dim: 18
      dim: -1
      dim: 0
    }
  }
}
layer {
  name: "proposal"
  type: "Python"
  bottom: "rpn_cls_prob_reshape"
  bottom: "rpn_bbox_pred"
  bottom: "im_info"
  top: "rois"
  top: "scores"
  python_param {
    module: "rpn.proposal_layer"
    layer: "ProposalLayer"
    param_str: "\'feat_stride\': 16"
  }
}
I0501 03:07:50.535048  6906 net.cpp:413] Input 0 -> data
I0501 03:07:50.543818  6906 net.cpp:413] Input 1 -> im_info
I0501 03:07:50.543850  6906 layer_factory.hpp:77] Creating layer conv1_1
I0501 03:07:50.543862  6906 net.cpp:106] Creating Layer conv1_1
I0501 03:07:50.543865  6906 net.cpp:454] conv1_1 <- data
I0501 03:07:50.543869  6906 net.cpp:411] conv1_1 -> conv1_1
I0501 03:07:50.544890  6906 net.cpp:150] Setting up conv1_1
I0501 03:07:50.544912  6906 net.cpp:157] Top shape: 1 64 224 224 (3211264)
I0501 03:07:50.544914  6906 net.cpp:165] Memory required for data: 12845056
I0501 03:07:50.544921  6906 layer_factory.hpp:77] Creating layer relu1_1
I0501 03:07:50.544926  6906 net.cpp:106] Creating Layer relu1_1
I0501 03:07:50.544929  6906 net.cpp:454] relu1_1 <- conv1_1
I0501 03:07:50.544931  6906 net.cpp:397] relu1_1 -> conv1_1 (in-place)
I0501 03:07:50.544935  6906 net.cpp:150] Setting up relu1_1
I0501 03:07:50.544939  6906 net.cpp:157] Top shape: 1 64 224 224 (3211264)
I0501 03:07:50.544939  6906 net.cpp:165] Memory required for data: 25690112
I0501 03:07:50.544941  6906 layer_factory.hpp:77] Creating layer conv1_2
I0501 03:07:50.544945  6906 net.cpp:106] Creating Layer conv1_2
I0501 03:07:50.544947  6906 net.cpp:454] conv1_2 <- conv1_1
I0501 03:07:50.544950  6906 net.cpp:411] conv1_2 -> conv1_2
I0501 03:07:50.545119  6906 net.cpp:150] Setting up conv1_2
I0501 03:07:50.545122  6906 net.cpp:157] Top shape: 1 64 224 224 (3211264)
I0501 03:07:50.545138  6906 net.cpp:165] Memory required for data: 38535168
I0501 03:07:50.545142  6906 layer_factory.hpp:77] Creating layer relu1_2
I0501 03:07:50.545145  6906 net.cpp:106] Creating Layer relu1_2
I0501 03:07:50.545147  6906 net.cpp:454] relu1_2 <- conv1_2
I0501 03:07:50.545150  6906 net.cpp:397] relu1_2 -> conv1_2 (in-place)
I0501 03:07:50.545152  6906 net.cpp:150] Setting up relu1_2
I0501 03:07:50.545156  6906 net.cpp:157] Top shape: 1 64 224 224 (3211264)
I0501 03:07:50.545157  6906 net.cpp:165] Memory required for data: 51380224
I0501 03:07:50.545158  6906 layer_factory.hpp:77] Creating layer pool1
I0501 03:07:50.545162  6906 net.cpp:106] Creating Layer pool1
I0501 03:07:50.545166  6906 net.cpp:454] pool1 <- conv1_2
I0501 03:07:50.545168  6906 net.cpp:411] pool1 -> pool1
I0501 03:07:50.545192  6906 net.cpp:150] Setting up pool1
I0501 03:07:50.545194  6906 net.cpp:157] Top shape: 1 64 112 112 (802816)
I0501 03:07:50.545195  6906 net.cpp:165] Memory required for data: 54591488
I0501 03:07:50.545197  6906 layer_factory.hpp:77] Creating layer conv2_1
I0501 03:07:50.545202  6906 net.cpp:106] Creating Layer conv2_1
I0501 03:07:50.545202  6906 net.cpp:454] conv2_1 <- pool1
I0501 03:07:50.545205  6906 net.cpp:411] conv2_1 -> conv2_1
I0501 03:07:50.546241  6906 net.cpp:150] Setting up conv2_1
I0501 03:07:50.546247  6906 net.cpp:157] Top shape: 1 128 112 112 (1605632)
I0501 03:07:50.546262  6906 net.cpp:165] Memory required for data: 61014016
I0501 03:07:50.546267  6906 layer_factory.hpp:77] Creating layer relu2_1
I0501 03:07:50.546272  6906 net.cpp:106] Creating Layer relu2_1
I0501 03:07:50.546273  6906 net.cpp:454] relu2_1 <- conv2_1
I0501 03:07:50.546277  6906 net.cpp:397] relu2_1 -> conv2_1 (in-place)
I0501 03:07:50.546280  6906 net.cpp:150] Setting up relu2_1
I0501 03:07:50.546283  6906 net.cpp:157] Top shape: 1 128 112 112 (1605632)
I0501 03:07:50.546285  6906 net.cpp:165] Memory required for data: 67436544
I0501 03:07:50.546286  6906 layer_factory.hpp:77] Creating layer conv2_2
I0501 03:07:50.546289  6906 net.cpp:106] Creating Layer conv2_2
I0501 03:07:50.546291  6906 net.cpp:454] conv2_2 <- conv2_1
I0501 03:07:50.546294  6906 net.cpp:411] conv2_2 -> conv2_2
I0501 03:07:50.546484  6906 net.cpp:150] Setting up conv2_2
I0501 03:07:50.546489  6906 net.cpp:157] Top shape: 1 128 112 112 (1605632)
I0501 03:07:50.546505  6906 net.cpp:165] Memory required for data: 73859072
I0501 03:07:50.546509  6906 layer_factory.hpp:77] Creating layer relu2_2
I0501 03:07:50.546511  6906 net.cpp:106] Creating Layer relu2_2
I0501 03:07:50.546512  6906 net.cpp:454] relu2_2 <- conv2_2
I0501 03:07:50.546515  6906 net.cpp:397] relu2_2 -> conv2_2 (in-place)
I0501 03:07:50.546519  6906 net.cpp:150] Setting up relu2_2
I0501 03:07:50.546521  6906 net.cpp:157] Top shape: 1 128 112 112 (1605632)
I0501 03:07:50.546522  6906 net.cpp:165] Memory required for data: 80281600
I0501 03:07:50.546524  6906 layer_factory.hpp:77] Creating layer pool2
I0501 03:07:50.546526  6906 net.cpp:106] Creating Layer pool2
I0501 03:07:50.546527  6906 net.cpp:454] pool2 <- conv2_2
I0501 03:07:50.546530  6906 net.cpp:411] pool2 -> pool2
I0501 03:07:50.546550  6906 net.cpp:150] Setting up pool2
I0501 03:07:50.546555  6906 net.cpp:157] Top shape: 1 128 56 56 (401408)
I0501 03:07:50.546556  6906 net.cpp:165] Memory required for data: 81887232
I0501 03:07:50.546558  6906 layer_factory.hpp:77] Creating layer conv3_1
I0501 03:07:50.546566  6906 net.cpp:106] Creating Layer conv3_1
I0501 03:07:50.546569  6906 net.cpp:454] conv3_1 <- pool2
I0501 03:07:50.546573  6906 net.cpp:411] conv3_1 -> conv3_1
I0501 03:07:50.546807  6906 net.cpp:150] Setting up conv3_1
I0501 03:07:50.546811  6906 net.cpp:157] Top shape: 1 256 56 56 (802816)
I0501 03:07:50.546813  6906 net.cpp:165] Memory required for data: 85098496
I0501 03:07:50.546818  6906 layer_factory.hpp:77] Creating layer relu3_1
I0501 03:07:50.546821  6906 net.cpp:106] Creating Layer relu3_1
I0501 03:07:50.546823  6906 net.cpp:454] relu3_1 <- conv3_1
I0501 03:07:50.546825  6906 net.cpp:397] relu3_1 -> conv3_1 (in-place)
I0501 03:07:50.546828  6906 net.cpp:150] Setting up relu3_1
I0501 03:07:50.546830  6906 net.cpp:157] Top shape: 1 256 56 56 (802816)
I0501 03:07:50.546833  6906 net.cpp:165] Memory required for data: 88309760
I0501 03:07:50.546834  6906 layer_factory.hpp:77] Creating layer conv3_2
I0501 03:07:50.546838  6906 net.cpp:106] Creating Layer conv3_2
I0501 03:07:50.546839  6906 net.cpp:454] conv3_2 <- conv3_1
I0501 03:07:50.546842  6906 net.cpp:411] conv3_2 -> conv3_2
I0501 03:07:50.547672  6906 net.cpp:150] Setting up conv3_2
I0501 03:07:50.547678  6906 net.cpp:157] Top shape: 1 256 56 56 (802816)
I0501 03:07:50.547679  6906 net.cpp:165] Memory required for data: 91521024
I0501 03:07:50.547683  6906 layer_factory.hpp:77] Creating layer relu3_2
I0501 03:07:50.547686  6906 net.cpp:106] Creating Layer relu3_2
I0501 03:07:50.547688  6906 net.cpp:454] relu3_2 <- conv3_2
I0501 03:07:50.547691  6906 net.cpp:397] relu3_2 -> conv3_2 (in-place)
I0501 03:07:50.547695  6906 net.cpp:150] Setting up relu3_2
I0501 03:07:50.547698  6906 net.cpp:157] Top shape: 1 256 56 56 (802816)
I0501 03:07:50.547699  6906 net.cpp:165] Memory required for data: 94732288
I0501 03:07:50.547700  6906 layer_factory.hpp:77] Creating layer conv3_3
I0501 03:07:50.547704  6906 net.cpp:106] Creating Layer conv3_3
I0501 03:07:50.547706  6906 net.cpp:454] conv3_3 <- conv3_2
I0501 03:07:50.547709  6906 net.cpp:411] conv3_3 -> conv3_3
I0501 03:07:50.548537  6906 net.cpp:150] Setting up conv3_3
I0501 03:07:50.548544  6906 net.cpp:157] Top shape: 1 256 56 56 (802816)
I0501 03:07:50.548547  6906 net.cpp:165] Memory required for data: 97943552
I0501 03:07:50.548549  6906 layer_factory.hpp:77] Creating layer relu3_3
I0501 03:07:50.548553  6906 net.cpp:106] Creating Layer relu3_3
I0501 03:07:50.548555  6906 net.cpp:454] relu3_3 <- conv3_3
I0501 03:07:50.548558  6906 net.cpp:397] relu3_3 -> conv3_3 (in-place)
I0501 03:07:50.548562  6906 net.cpp:150] Setting up relu3_3
I0501 03:07:50.548563  6906 net.cpp:157] Top shape: 1 256 56 56 (802816)
I0501 03:07:50.548566  6906 net.cpp:165] Memory required for data: 101154816
I0501 03:07:50.548568  6906 layer_factory.hpp:77] Creating layer pool3
I0501 03:07:50.548573  6906 net.cpp:106] Creating Layer pool3
I0501 03:07:50.548574  6906 net.cpp:454] pool3 <- conv3_3
I0501 03:07:50.548578  6906 net.cpp:411] pool3 -> pool3
I0501 03:07:50.548604  6906 net.cpp:150] Setting up pool3
I0501 03:07:50.548609  6906 net.cpp:157] Top shape: 1 256 28 28 (200704)
I0501 03:07:50.548609  6906 net.cpp:165] Memory required for data: 101957632
I0501 03:07:50.548611  6906 layer_factory.hpp:77] Creating layer conv4_1
I0501 03:07:50.548614  6906 net.cpp:106] Creating Layer conv4_1
I0501 03:07:50.548617  6906 net.cpp:454] conv4_1 <- pool3
I0501 03:07:50.548620  6906 net.cpp:411] conv4_1 -> conv4_1
I0501 03:07:50.550509  6906 net.cpp:150] Setting up conv4_1
I0501 03:07:50.550524  6906 net.cpp:157] Top shape: 1 512 28 28 (401408)
I0501 03:07:50.550525  6906 net.cpp:165] Memory required for data: 103563264
I0501 03:07:50.550531  6906 layer_factory.hpp:77] Creating layer relu4_1
I0501 03:07:50.550539  6906 net.cpp:106] Creating Layer relu4_1
I0501 03:07:50.550542  6906 net.cpp:454] relu4_1 <- conv4_1
I0501 03:07:50.550545  6906 net.cpp:397] relu4_1 -> conv4_1 (in-place)
I0501 03:07:50.550550  6906 net.cpp:150] Setting up relu4_1
I0501 03:07:50.550554  6906 net.cpp:157] Top shape: 1 512 28 28 (401408)
I0501 03:07:50.550554  6906 net.cpp:165] Memory required for data: 105168896
I0501 03:07:50.550555  6906 layer_factory.hpp:77] Creating layer conv4_2
I0501 03:07:50.550560  6906 net.cpp:106] Creating Layer conv4_2
I0501 03:07:50.550562  6906 net.cpp:454] conv4_2 <- conv4_1
I0501 03:07:50.550565  6906 net.cpp:411] conv4_2 -> conv4_2
I0501 03:07:50.553228  6906 net.cpp:150] Setting up conv4_2
I0501 03:07:50.553246  6906 net.cpp:157] Top shape: 1 512 28 28 (401408)
I0501 03:07:50.553247  6906 net.cpp:165] Memory required for data: 106774528
I0501 03:07:50.553257  6906 layer_factory.hpp:77] Creating layer relu4_2
I0501 03:07:50.553266  6906 net.cpp:106] Creating Layer relu4_2
I0501 03:07:50.553268  6906 net.cpp:454] relu4_2 <- conv4_2
I0501 03:07:50.553273  6906 net.cpp:397] relu4_2 -> conv4_2 (in-place)
I0501 03:07:50.553280  6906 net.cpp:150] Setting up relu4_2
I0501 03:07:50.553283  6906 net.cpp:157] Top shape: 1 512 28 28 (401408)
I0501 03:07:50.553285  6906 net.cpp:165] Memory required for data: 108380160
I0501 03:07:50.553287  6906 layer_factory.hpp:77] Creating layer conv4_3
I0501 03:07:50.553293  6906 net.cpp:106] Creating Layer conv4_3
I0501 03:07:50.553297  6906 net.cpp:454] conv4_3 <- conv4_2
I0501 03:07:50.553302  6906 net.cpp:411] conv4_3 -> conv4_3
I0501 03:07:50.556037  6906 net.cpp:150] Setting up conv4_3
I0501 03:07:50.556056  6906 net.cpp:157] Top shape: 1 512 28 28 (401408)
I0501 03:07:50.556058  6906 net.cpp:165] Memory required for data: 109985792
I0501 03:07:50.556064  6906 layer_factory.hpp:77] Creating layer relu4_3
I0501 03:07:50.556071  6906 net.cpp:106] Creating Layer relu4_3
I0501 03:07:50.556074  6906 net.cpp:454] relu4_3 <- conv4_3
I0501 03:07:50.556079  6906 net.cpp:397] relu4_3 -> conv4_3 (in-place)
I0501 03:07:50.556087  6906 net.cpp:150] Setting up relu4_3
I0501 03:07:50.556090  6906 net.cpp:157] Top shape: 1 512 28 28 (401408)
I0501 03:07:50.556092  6906 net.cpp:165] Memory required for data: 111591424
I0501 03:07:50.556098  6906 layer_factory.hpp:77] Creating layer pool4
I0501 03:07:50.556103  6906 net.cpp:106] Creating Layer pool4
I0501 03:07:50.556107  6906 net.cpp:454] pool4 <- conv4_3
I0501 03:07:50.556109  6906 net.cpp:411] pool4 -> pool4
I0501 03:07:50.556143  6906 net.cpp:150] Setting up pool4
I0501 03:07:50.556146  6906 net.cpp:157] Top shape: 1 512 14 14 (100352)
I0501 03:07:50.556149  6906 net.cpp:165] Memory required for data: 111992832
I0501 03:07:50.556149  6906 layer_factory.hpp:77] Creating layer conv5_1
I0501 03:07:50.556156  6906 net.cpp:106] Creating Layer conv5_1
I0501 03:07:50.556160  6906 net.cpp:454] conv5_1 <- pool4
I0501 03:07:50.556164  6906 net.cpp:411] conv5_1 -> conv5_1
I0501 03:07:50.558881  6906 net.cpp:150] Setting up conv5_1
I0501 03:07:50.558897  6906 net.cpp:157] Top shape: 1 512 14 14 (100352)
I0501 03:07:50.558899  6906 net.cpp:165] Memory required for data: 112394240
I0501 03:07:50.558904  6906 layer_factory.hpp:77] Creating layer relu5_1
I0501 03:07:50.558912  6906 net.cpp:106] Creating Layer relu5_1
I0501 03:07:50.558914  6906 net.cpp:454] relu5_1 <- conv5_1
I0501 03:07:50.558919  6906 net.cpp:397] relu5_1 -> conv5_1 (in-place)
I0501 03:07:50.558925  6906 net.cpp:150] Setting up relu5_1
I0501 03:07:50.558929  6906 net.cpp:157] Top shape: 1 512 14 14 (100352)
I0501 03:07:50.558931  6906 net.cpp:165] Memory required for data: 112795648
I0501 03:07:50.558933  6906 layer_factory.hpp:77] Creating layer conv5_2
I0501 03:07:50.558939  6906 net.cpp:106] Creating Layer conv5_2
I0501 03:07:50.558943  6906 net.cpp:454] conv5_2 <- conv5_1
I0501 03:07:50.558948  6906 net.cpp:411] conv5_2 -> conv5_2
I0501 03:07:50.561691  6906 net.cpp:150] Setting up conv5_2
I0501 03:07:50.561707  6906 net.cpp:157] Top shape: 1 512 14 14 (100352)
I0501 03:07:50.561709  6906 net.cpp:165] Memory required for data: 113197056
I0501 03:07:50.561715  6906 layer_factory.hpp:77] Creating layer relu5_2
I0501 03:07:50.561722  6906 net.cpp:106] Creating Layer relu5_2
I0501 03:07:50.561725  6906 net.cpp:454] relu5_2 <- conv5_2
I0501 03:07:50.561729  6906 net.cpp:397] relu5_2 -> conv5_2 (in-place)
I0501 03:07:50.561738  6906 net.cpp:150] Setting up relu5_2
I0501 03:07:50.561740  6906 net.cpp:157] Top shape: 1 512 14 14 (100352)
I0501 03:07:50.561743  6906 net.cpp:165] Memory required for data: 113598464
I0501 03:07:50.561744  6906 layer_factory.hpp:77] Creating layer conv5_3
I0501 03:07:50.561751  6906 net.cpp:106] Creating Layer conv5_3
I0501 03:07:50.561754  6906 net.cpp:454] conv5_3 <- conv5_2
I0501 03:07:50.561758  6906 net.cpp:411] conv5_3 -> conv5_3
I0501 03:07:50.564458  6906 net.cpp:150] Setting up conv5_3
I0501 03:07:50.564477  6906 net.cpp:157] Top shape: 1 512 14 14 (100352)
I0501 03:07:50.564478  6906 net.cpp:165] Memory required for data: 113999872
I0501 03:07:50.564484  6906 layer_factory.hpp:77] Creating layer relu5_3
I0501 03:07:50.564491  6906 net.cpp:106] Creating Layer relu5_3
I0501 03:07:50.564494  6906 net.cpp:454] relu5_3 <- conv5_3
I0501 03:07:50.564499  6906 net.cpp:397] relu5_3 -> conv5_3 (in-place)
I0501 03:07:50.564507  6906 net.cpp:150] Setting up relu5_3
I0501 03:07:50.564509  6906 net.cpp:157] Top shape: 1 512 14 14 (100352)
I0501 03:07:50.564512  6906 net.cpp:165] Memory required for data: 114401280
I0501 03:07:50.564513  6906 layer_factory.hpp:77] Creating layer rpn_conv/3x3
I0501 03:07:50.564520  6906 net.cpp:106] Creating Layer rpn_conv/3x3
I0501 03:07:50.564523  6906 net.cpp:454] rpn_conv/3x3 <- conv5_3
I0501 03:07:50.564527  6906 net.cpp:411] rpn_conv/3x3 -> rpn/output
I0501 03:07:50.567284  6906 net.cpp:150] Setting up rpn_conv/3x3
I0501 03:07:50.567303  6906 net.cpp:157] Top shape: 1 512 14 14 (100352)
I0501 03:07:50.567306  6906 net.cpp:165] Memory required for data: 114802688
I0501 03:07:50.567311  6906 layer_factory.hpp:77] Creating layer rpn_relu/3x3
I0501 03:07:50.567317  6906 net.cpp:106] Creating Layer rpn_relu/3x3
I0501 03:07:50.567320  6906 net.cpp:454] rpn_relu/3x3 <- rpn/output
I0501 03:07:50.567327  6906 net.cpp:397] rpn_relu/3x3 -> rpn/output (in-place)
I0501 03:07:50.567334  6906 net.cpp:150] Setting up rpn_relu/3x3
I0501 03:07:50.567338  6906 net.cpp:157] Top shape: 1 512 14 14 (100352)
I0501 03:07:50.567340  6906 net.cpp:165] Memory required for data: 115204096
I0501 03:07:50.567342  6906 layer_factory.hpp:77] Creating layer rpn/output_rpn_relu/3x3_0_split
I0501 03:07:50.567358  6906 net.cpp:106] Creating Layer rpn/output_rpn_relu/3x3_0_split
I0501 03:07:50.567361  6906 net.cpp:454] rpn/output_rpn_relu/3x3_0_split <- rpn/output
I0501 03:07:50.567366  6906 net.cpp:411] rpn/output_rpn_relu/3x3_0_split -> rpn/output_rpn_relu/3x3_0_split_0
I0501 03:07:50.567373  6906 net.cpp:411] rpn/output_rpn_relu/3x3_0_split -> rpn/output_rpn_relu/3x3_0_split_1
I0501 03:07:50.567405  6906 net.cpp:150] Setting up rpn/output_rpn_relu/3x3_0_split
I0501 03:07:50.567411  6906 net.cpp:157] Top shape: 1 512 14 14 (100352)
I0501 03:07:50.567414  6906 net.cpp:157] Top shape: 1 512 14 14 (100352)
I0501 03:07:50.567415  6906 net.cpp:165] Memory required for data: 116006912
I0501 03:07:50.567418  6906 layer_factory.hpp:77] Creating layer rpn_cls_score
I0501 03:07:50.567425  6906 net.cpp:106] Creating Layer rpn_cls_score
I0501 03:07:50.567428  6906 net.cpp:454] rpn_cls_score <- rpn/output_rpn_relu/3x3_0_split_0
I0501 03:07:50.567435  6906 net.cpp:411] rpn_cls_score -> rpn_cls_score
I0501 03:07:50.567572  6906 net.cpp:150] Setting up rpn_cls_score
I0501 03:07:50.567576  6906 net.cpp:157] Top shape: 1 18 14 14 (3528)
I0501 03:07:50.567579  6906 net.cpp:165] Memory required for data: 116021024
I0501 03:07:50.567581  6906 layer_factory.hpp:77] Creating layer rpn_bbox_pred
I0501 03:07:50.567585  6906 net.cpp:106] Creating Layer rpn_bbox_pred
I0501 03:07:50.567589  6906 net.cpp:454] rpn_bbox_pred <- rpn/output_rpn_relu/3x3_0_split_1
I0501 03:07:50.567595  6906 net.cpp:411] rpn_bbox_pred -> rpn_bbox_pred
I0501 03:07:50.567737  6906 net.cpp:150] Setting up rpn_bbox_pred
I0501 03:07:50.567741  6906 net.cpp:157] Top shape: 1 36 14 14 (7056)
I0501 03:07:50.567744  6906 net.cpp:165] Memory required for data: 116049248
I0501 03:07:50.567746  6906 layer_factory.hpp:77] Creating layer rpn_cls_score_reshape
I0501 03:07:50.567755  6906 net.cpp:106] Creating Layer rpn_cls_score_reshape
I0501 03:07:50.567759  6906 net.cpp:454] rpn_cls_score_reshape <- rpn_cls_score
I0501 03:07:50.567764  6906 net.cpp:411] rpn_cls_score_reshape -> rpn_cls_score_reshape
I0501 03:07:50.567785  6906 net.cpp:150] Setting up rpn_cls_score_reshape
I0501 03:07:50.567790  6906 net.cpp:157] Top shape: 1 2 126 14 (3528)
I0501 03:07:50.567791  6906 net.cpp:165] Memory required for data: 116063360
I0501 03:07:50.567792  6906 layer_factory.hpp:77] Creating layer rpn_cls_prob
I0501 03:07:50.567796  6906 net.cpp:106] Creating Layer rpn_cls_prob
I0501 03:07:50.567798  6906 net.cpp:454] rpn_cls_prob <- rpn_cls_score_reshape
I0501 03:07:50.567802  6906 net.cpp:411] rpn_cls_prob -> rpn_cls_prob
I0501 03:07:50.567844  6906 net.cpp:150] Setting up rpn_cls_prob
I0501 03:07:50.567847  6906 net.cpp:157] Top shape: 1 2 126 14 (3528)
I0501 03:07:50.567849  6906 net.cpp:165] Memory required for data: 116077472
I0501 03:07:50.567852  6906 layer_factory.hpp:77] Creating layer rpn_cls_prob_reshape
I0501 03:07:50.567853  6906 net.cpp:106] Creating Layer rpn_cls_prob_reshape
I0501 03:07:50.567855  6906 net.cpp:454] rpn_cls_prob_reshape <- rpn_cls_prob
I0501 03:07:50.567858  6906 net.cpp:411] rpn_cls_prob_reshape -> rpn_cls_prob_reshape
I0501 03:07:50.567872  6906 net.cpp:150] Setting up rpn_cls_prob_reshape
I0501 03:07:50.567874  6906 net.cpp:157] Top shape: 1 18 14 14 (3528)
I0501 03:07:50.567876  6906 net.cpp:165] Memory required for data: 116091584
I0501 03:07:50.567878  6906 layer_factory.hpp:77] Creating layer proposal
I0501 03:07:50.568655  6906 net.cpp:106] Creating Layer proposal
I0501 03:07:50.568661  6906 net.cpp:454] proposal <- rpn_cls_prob_reshape
I0501 03:07:50.568663  6906 net.cpp:454] proposal <- rpn_bbox_pred
I0501 03:07:50.568666  6906 net.cpp:454] proposal <- im_info
I0501 03:07:50.568670  6906 net.cpp:411] proposal -> rois
I0501 03:07:50.568675  6906 net.cpp:411] proposal -> scores
I0501 03:07:50.569396  6906 net.cpp:150] Setting up proposal
I0501 03:07:50.569403  6906 net.cpp:157] Top shape: 1 5 (5)
I0501 03:07:50.569406  6906 net.cpp:157] Top shape: 1 1 1 1 (1)
I0501 03:07:50.569407  6906 net.cpp:165] Memory required for data: 116091608
I0501 03:07:50.569409  6906 net.cpp:228] proposal does not need backward computation.
I0501 03:07:50.569412  6906 net.cpp:228] rpn_cls_prob_reshape does not need backward computation.
I0501 03:07:50.569414  6906 net.cpp:228] rpn_cls_prob does not need backward computation.
I0501 03:07:50.569416  6906 net.cpp:228] rpn_cls_score_reshape does not need backward computation.
…
I0501 03:27:44.818660  7037 solver.cpp:81] Creating training net from train_net file: models/pascal_voc/VGG16/faster_rcnn_alt_opt/stage1_fast_rcnn_train.pt
I0501 03:27:44.819037  7037 net.cpp:49] Initializing net from parameters: 
name: "VGG_ILSVRC_16_layers"
state {
  phase: TRAIN
}
layer {
  name: "data"
  type: "Python"
  top: "data"
  top: "rois"
  top: "labels"
  top: "bbox_targets"
  top: "bbox_inside_weights"
  top: "bbox_outside_weights"
  python_param {
    module: "roi_data_layer.layer"
    layer: "RoIDataLayer"
    param_str: "\'num_classes\': 6"
  }
}
layer {
  name: "conv1_1"
  type: "Convolution"
  bottom: "data"
  top: "conv1_1"
  param {
    lr_mult: 0
    decay_mult: 0
  }
  param {
    lr_mult: 0
    decay_mult: 0
  }
  convolution_param {
    num_output: 64
    pad: 1
    kernel_size: 3
  }
}
layer {
  name: "relu1_1"
  type: "ReLU"
  bottom: "conv1_1"
  top: "conv1_1"
}
layer {
  name: "conv1_2"
  type: "Convolution"
  bottom: "conv1_1"
  top: "conv1_2"
  param {
    lr_mult: 0
    decay_mult: 0
  }
  param {
    lr_mult: 0
    decay_mult: 0
  }
  convolution_param {
    num_output: 64
    pad: 1
    kernel_size: 3
  }
}
layer {
  name: "relu1_2"
  type: "ReLU"
  bottom: "conv1_2"
  top: "conv1_2"
}
layer {
  name: "pool1"
  type: "Pooling"
  bottom: "conv1_2"
  top: "pool1"
  pooling_param {
    pool: MAX
    kernel_size: 2
    stride: 2
  }
}
layer {
  name: "conv2_1"
  type: "Convolution"
  bottom: "pool1"
  top: "conv2_1"
  param {
    lr_mult: 0
    decay_mult: 0
  }
  param {
    lr_mult: 0
    decay_mult: 0
  }
  convolution_param {
    num_output: 128
    pad: 1
    kernel_size: 3
  }
}
layer {
  name: "relu2_1"
  type: "ReLU"
  bottom: "conv2_1"
  top: "conv2_1"
}
layer {
  name: "conv2_2"
  type: "Convolution"
  bottom: "conv2_1"
  top: "conv2_2"
  param {
    lr_mult: 0
    decay_mult: 0
  }
  param {
    lr_mult: 0
    decay_mult: 0
  }
  convolution_param {
    num_output: 128
    pad: 1
    kernel_size: 3
  }
}
layer {
  name: "relu2_2"
  type: "ReLU"
  bottom: "conv2_2"
  top: "conv2_2"
}
layer {
  name: "pool2"
  type: "Pooling"
  bottom: "conv2_2"
  top: "pool2"
  pooling_param {
    pool: MAX
    kernel_size: 2
    stride: 2
  }
}
layer {
  name: "conv3_1"
  type: "Convolution"
  bottom: "pool2"
  top: "conv3_1"
  param {
    lr_mult: 1
  }
  param {
    lr_mult: 2
  }
  convolution_param {
    num_output: 256
    pad: 1
    kernel_size: 3
  }
}
layer {
  name: "relu3_1"
  type: "ReLU"
  bottom: "conv3_1"
  top: "conv3_1"
}
layer {
  name: "conv3_2"
  type: "Convolution"
  bottom: "conv3_1"
  top: "conv3_2"
  param {
    lr_mult: 1
  }
  param {
    lr_mult: 2
  }
  convolution_param {
    num_output: 256
    pad: 1
    kernel_size: 3
  }
}
layer {
  name: "relu3_2"
  type: "ReLU"
  bottom: "conv3_2"
  top: "conv3_2"
}
layer {
  name: "conv3_3"
  type: "Convolution"
  bottom: "conv3_2"
  top: "conv3_3"
  param {
    lr_mult: 1
  }
  param {
    lr_mult: 2
  }
  convolution_param {
    num_output: 256
    pad: 1
    kernel_size: 3
  }
}
layer {
  name: "relu3_3"
  type: "ReLU"
  bottom: "conv3_3"
  top: "conv3_3"
}
layer {
  name: "pool3"
  type: "Pooling"
  bottom: "conv3_3"
  top: "pool3"
  pooling_param {
    pool: MAX
    kernel_size: 2
    stride: 2
  }
}
layer {
  name: "conv4_1"
  type: "Convolution"
  bottom: "pool3"
  top: "conv4_1"
  param {
    lr_mult: 1
  }
  param {
    lr_mult: 2
  }
  convolution_param {
    num_output: 512
    pad: 1
    kernel_size: 3
  }
}
layer {
  name: "relu4_1"
  type: "ReLU"
  bottom: "conv4_1"
  top: "conv4_1"
}
layer {
  name: "conv4_2"
  type: "Convolution"
  bottom: "conv4_1"
  top: "conv4_2"
  param {
    lr_mult: 1
  }
  param {
    lr_mult: 2
  }
  convolution_param {
    num_output: 512
    pad: 1
    kernel_size: 3
  }
}
layer {
  name: "relu4_2"
  type: "ReLU"
  bottom: "conv4_2"
  top: "conv4_2"
}
layer {
  name: "conv4_3"
  type: "Convolution"
  bottom: "conv4_2"
  top: "conv4_3"
  param {
    lr_mult: 1
  }
  param {
    lr_mult: 2
  }
  convolution_param {
    num_output: 512
    pad: 1
    kernel_size: 3
  }
}
layer {
  name: "relu4_3"
  type: "ReLU"
  bottom: "conv4_3"
  top: "conv4_3"
}
layer {
  name: "pool4"
  type: "Pooling"
  bottom: "conv4_3"
  top: "pool4"
  pooling_param {
    pool: MAX
    kernel_size: 2
    stride: 2
  }
}
layer {
  name: "conv5_1"
  type: "Convolution"
  bottom: "pool4"
  top: "conv5_1"
  param {
    lr_mult: 1
  }
  param {
    lr_mult: 2
  }
  convolution_param {
    num_output: 512
    pad: 1
    kernel_size: 3
  }
}
layer {
  name: "relu5_1"
  type: "ReLU"
  bottom: "conv5_1"
  top: "conv5_1"
}
layer {
  name: "conv5_2"
  type: "Convolution"
  bottom: "conv5_1"
  top: "conv5_2"
  param {
    lr_mult: 1
  }
  param {
    lr_mult: 2
  }
  convolution_param {
    num_output: 512
    pad: 1
    kernel_size: 3
  }
}
layer {
  name: "relu5_2"
  type: "ReLU"
  bottom: "conv5_2"
  top: "conv5_2"
}
layer {
  name: "conv5_3"
  type: "Convolution"
  bottom: "conv5_2"
  top: "conv5_3"
  param {
    lr_mult: 1
  }
  param {
    lr_mult: 2
  }
  convolution_param {
    num_output: 512
    pad: 1
    kernel_size: 3
  }
}
layer {
  name: "relu5_3"
  type: "ReLU"
  bottom: "conv5_3"
  top: "conv5_3"
}
layer {
  name: "roi_pool5"
  type: "ROIPooling"
  bottom: "conv5_3"
  bottom: "rois"
  top: "pool5"
  roi_pooling_param {
    pooled_h: 7
    pooled_w: 7
    spatial_scale: 0.0625
  }
}
layer {
  name: "fc6"
  type: "InnerProduct"
  bottom: "pool5"
  top: "fc6"
  param {
    lr_mult: 1
  }
  param {
    lr_mult: 2
  }
  inner_product_param {
    num_output: 4096
  }
}
layer {
  name: "relu6"
  type: "ReLU"
  bottom: "fc6"
  top: "fc6"
}
layer {
  name: "drop6"
  type: "Dropout"
  bottom: "fc6"
  top: "fc6"
  dropout_param {
    dropout_ratio: 0.5
  }
}
layer {
  name: "fc7"
  type: "InnerProduct"
  bottom: "fc6"
  top: "fc7"
  param {
    lr_mult: 1
  }
  param {
    lr_mult: 2
  }
  inner_product_param {
    num_output: 4096
  }
}
layer {
  name: "relu7"
  type: "ReLU"
  bottom: "fc7"
  top: "fc7"
}
layer {
  name: "drop7"
  type: "Dropout"
  bottom: "fc7"
  top: "fc7"
  dropout_param {
    dropout_ratio: 0.5
  }
}
layer {
  name: "cls_score"
  type: "InnerProduct"
  bottom: "fc7"
  top: "cls_score"
  param {
    lr_mult: 1
  }
  param {
    lr_mult: 2
  }
  inner_product_param {
    num_output: 6
    weight_filler {
      type: "gaussian"
      std: 0.01
    }
    bias_filler {
      type: "constant"
      value: 0
    }
  }
}
layer {
  name: "bbox_pred"
  type: "InnerProduct"
  bottom: "fc7"
  top: "bbox_pred"
  param {
    lr_mult: 1
  }
  param {
    lr_mult: 2
  }
  inner_product_param {
    num_output: 24
    weight_filler {
      type: "gaussian"
      std: 0.001
    }
    bias_filler {
      type: "constant"
      value: 0
    }
  }
}
layer {
  name: "loss_cls"
  type: "SoftmaxWithLoss"
  bottom: "cls_score"
  bottom: "labels"
  top: "loss_cls"
  loss_weight: 1
}
layer {
  name: "loss_bbox"
  type: "SmoothL1Loss"
  bottom: "bbox_pred"
  bottom: "bbox_targets"
  bottom: "bbox_inside_weights"
  bottom: "bbox_outside_weights"
  top: "loss_bbox"
  loss_weight: 1
}
layer {
  name: "rpn_conv/3x3"
  type: "Convolution"
  bottom: "conv5_3"
  top: "rpn/output"
  param {
    lr_mult: 0
    decay_mult: 0
  }
  param {
    lr_mult: 0
    decay_mult: 0
  }
  convolution_param {
    num_output: 512
    pad: 1
    kernel_size: 3
    stride: 1
    weight_filler {
      type: "gaussian"
      std: 0.01
    }
    bias_filler {
      type: "constant"
      value: 0
    }
  }
}
layer {
  name: "rpn_relu/3x3"
  type: "ReLU"
  bottom: "rpn/output"
  top: "rpn/output"
}
layer {
  name: "rpn_cls_score"
  type: "Convolution"
  bottom: "rpn/output"
  top: "rpn_cls_score"
  param {
    lr_mult: 0
    decay_mult: 0
  }
  param {
    lr_mult: 0
    decay_mult: 0
  }
  convolution_param {
    num_output: 18
    pad: 0
    kernel_size: 1
    stride: 1
    weight_filler {
      type: "gaussian"
      std: 0.01
    }
    bias_filler {
      type: "constant"
      value: 0
    }
  }
}
layer {
  name: "rpn_bbox_pred"
  type: "Convolution"
  bottom: "rpn/output"
  top: "rpn_bbox_pred"
  param {
    lr_mult: 0
    decay_mult: 0
  }
  param {
    lr_mult: 0
    decay_mult: 0
  }
  convolution_param {
    num_output: 36
    pad: 0
    kernel_size: 1
    stride: 1
    weight_filler {
      type: "gaussian"
      std: 0.01
    }
    bias_filler {
      type: "constant"
      value: 0
    }
  }
}
layer {
  name: "silence_rpn_cls_score"
  type: "Silence"
  bottom: "rpn_cls_score"
}
layer {
  name: "silence_rpn_bbox_pred"
  type: "Silence"
  bottom: "rpn_bbox_pred"
}
I0501 03:27:44.819176  7037 layer_factory.hpp:77] Creating layer data
I0501 03:27:44.819496  7037 net.cpp:106] Creating Layer data
I0501 03:27:44.819504  7037 net.cpp:411] data -> data
I0501 03:27:44.819512  7037 net.cpp:411] data -> rois
I0501 03:27:44.819519  7037 net.cpp:411] data -> labels
I0501 03:27:44.819525  7037 net.cpp:411] data -> bbox_targets
I0501 03:27:44.819531  7037 net.cpp:411] data -> bbox_inside_weights
I0501 03:27:44.819538  7037 net.cpp:411] data -> bbox_outside_weights
RoiDataLayer: name_to_top: {'bbox_inside_weights': 4, 'labels': 2, 'rois': 1, 'bbox_targets': 3, 'bbox_outside_weights': 5, 'data': 0}
I0501 03:27:44.829341  7037 net.cpp:150] Setting up data
I0501 03:27:44.829355  7037 net.cpp:157] Top shape: 2 3 600 1000 (3600000)
I0501 03:27:44.829360  7037 net.cpp:157] Top shape: 1 5 (5)
I0501 03:27:44.829363  7037 net.cpp:157] Top shape: 1 (1)
I0501 03:27:44.829366  7037 net.cpp:157] Top shape: 1 24 (24)
I0501 03:27:44.829370  7037 net.cpp:157] Top shape: 1 24 (24)
I0501 03:27:44.829375  7037 net.cpp:157] Top shape: 1 24 (24)
I0501 03:27:44.829376  7037 net.cpp:165] Memory required for data: 14400312
I0501 03:27:44.829381  7037 layer_factory.hpp:77] Creating layer conv1_1
I0501 03:27:44.829396  7037 net.cpp:106] Creating Layer conv1_1
I0501 03:27:44.829399  7037 net.cpp:454] conv1_1 <- data
I0501 03:27:44.829406  7037 net.cpp:411] conv1_1 -> conv1_1
I0501 03:27:44.830708  7037 net.cpp:150] Setting up conv1_1
I0501 03:27:44.830716  7037 net.cpp:157] Top shape: 2 64 600 1000 (76800000)
I0501 03:27:44.830719  7037 net.cpp:165] Memory required for data: 321600312
I0501 03:27:44.830730  7037 layer_factory.hpp:77] Creating layer relu1_1
I0501 03:27:44.830737  7037 net.cpp:106] Creating Layer relu1_1
I0501 03:27:44.830741  7037 net.cpp:454] relu1_1 <- conv1_1
I0501 03:27:44.830746  7037 net.cpp:397] relu1_1 -> conv1_1 (in-place)
I0501 03:27:44.830752  7037 net.cpp:150] Setting up relu1_1
I0501 03:27:44.830756  7037 net.cpp:157] Top shape: 2 64 600 1000 (76800000)
I0501 03:27:44.830759  7037 net.cpp:165] Memory required for data: 628800312
I0501 03:27:44.830761  7037 layer_factory.hpp:77] Creating layer conv1_2
I0501 03:27:44.830768  7037 net.cpp:106] Creating Layer conv1_2
I0501 03:27:44.830771  7037 net.cpp:454] conv1_2 <- conv1_1
I0501 03:27:44.830777  7037 net.cpp:411] conv1_2 -> conv1_2
I0501 03:27:44.832092  7037 net.cpp:150] Setting up conv1_2
I0501 03:27:44.832100  7037 net.cpp:157] Top shape: 2 64 600 1000 (76800000)
I0501 03:27:44.832103  7037 net.cpp:165] Memory required for data: 936000312
I0501 03:27:44.832113  7037 layer_factory.hpp:77] Creating layer relu1_2
I0501 03:27:44.832120  7037 net.cpp:106] Creating Layer relu1_2
I0501 03:27:44.832124  7037 net.cpp:454] relu1_2 <- conv1_2
I0501 03:27:44.832129  7037 net.cpp:397] relu1_2 -> conv1_2 (in-place)
I0501 03:27:44.832136  7037 net.cpp:150] Setting up relu1_2
I0501 03:27:44.832140  7037 net.cpp:157] Top shape: 2 64 600 1000 (76800000)
I0501 03:27:44.832142  7037 net.cpp:165] Memory required for data: 1243200312
I0501 03:27:44.832145  7037 layer_factory.hpp:77] Creating layer pool1
I0501 03:27:44.832150  7037 net.cpp:106] Creating Layer pool1
I0501 03:27:44.832154  7037 net.cpp:454] pool1 <- conv1_2
I0501 03:27:44.832159  7037 net.cpp:411] pool1 -> pool1
I0501 03:27:44.832198  7037 net.cpp:150] Setting up pool1
I0501 03:27:44.832203  7037 net.cpp:157] Top shape: 2 64 300 500 (19200000)
I0501 03:27:44.832206  7037 net.cpp:165] Memory required for data: 1320000312
I0501 03:27:44.832208  7037 layer_factory.hpp:77] Creating layer conv2_1
I0501 03:27:44.832216  7037 net.cpp:106] Creating Layer conv2_1
I0501 03:27:44.832218  7037 net.cpp:454] conv2_1 <- pool1
I0501 03:27:44.832226  7037 net.cpp:411] conv2_1 -> conv2_1
I0501 03:27:44.832891  7037 net.cpp:150] Setting up conv2_1
I0501 03:27:44.832900  7037 net.cpp:157] Top shape: 2 128 300 500 (38400000)
I0501 03:27:44.832901  7037 net.cpp:165] Memory required for data: 1473600312
I0501 03:27:44.832911  7037 layer_factory.hpp:77] Creating layer relu2_1
I0501 03:27:44.832916  7037 net.cpp:106] Creating Layer relu2_1
I0501 03:27:44.832919  7037 net.cpp:454] relu2_1 <- conv2_1
I0501 03:27:44.832924  7037 net.cpp:397] relu2_1 -> conv2_1 (in-place)
I0501 03:27:44.832931  7037 net.cpp:150] Setting up relu2_1
I0501 03:27:44.832933  7037 net.cpp:157] Top shape: 2 128 300 500 (38400000)
I0501 03:27:44.832937  7037 net.cpp:165] Memory required for data: 1627200312
I0501 03:27:44.832938  7037 layer_factory.hpp:77] Creating layer conv2_2
I0501 03:27:44.832947  7037 net.cpp:106] Creating Layer conv2_2
I0501 03:27:44.832948  7037 net.cpp:454] conv2_2 <- conv2_1
I0501 03:27:44.832954  7037 net.cpp:411] conv2_2 -> conv2_2
I0501 03:27:44.833202  7037 net.cpp:150] Setting up conv2_2
I0501 03:27:44.833207  7037 net.cpp:157] Top shape: 2 128 300 500 (38400000)
I0501 03:27:44.833209  7037 net.cpp:165] Memory required for data: 1780800312
I0501 03:27:44.833215  7037 layer_factory.hpp:77] Creating layer relu2_2
I0501 03:27:44.833220  7037 net.cpp:106] Creating Layer relu2_2
I0501 03:27:44.833222  7037 net.cpp:454] relu2_2 <- conv2_2
I0501 03:27:44.833228  7037 net.cpp:397] relu2_2 -> conv2_2 (in-place)
I0501 03:27:44.833233  7037 net.cpp:150] Setting up relu2_2
I0501 03:27:44.833237  7037 net.cpp:157] Top shape: 2 128 300 500 (38400000)
I0501 03:27:44.833240  7037 net.cpp:165] Memory required for data: 1934400312
I0501 03:27:44.833242  7037 layer_factory.hpp:77] Creating layer pool2
I0501 03:27:44.833247  7037 net.cpp:106] Creating Layer pool2
I0501 03:27:44.833250  7037 net.cpp:454] pool2 <- conv2_2
I0501 03:27:44.833254  7037 net.cpp:411] pool2 -> pool2
I0501 03:27:44.833281  7037 net.cpp:150] Setting up pool2
I0501 03:27:44.833286  7037 net.cpp:157] Top shape: 2 128 150 250 (9600000)
I0501 03:27:44.833287  7037 net.cpp:165] Memory required for data: 1972800312
I0501 03:27:44.833290  7037 layer_factory.hpp:77] Creating layer conv3_1
I0501 03:27:44.833297  7037 net.cpp:106] Creating Layer conv3_1
I0501 03:27:44.833299  7037 net.cpp:454] conv3_1 <- pool2
I0501 03:27:44.833304  7037 net.cpp:411] conv3_1 -> conv3_1
I0501 03:27:44.834023  7037 net.cpp:150] Setting up conv3_1
I0501 03:27:44.834033  7037 net.cpp:157] Top shape: 2 256 150 250 (19200000)
I0501 03:27:44.834034  7037 net.cpp:165] Memory required for data: 2049600312
I0501 03:27:44.834044  7037 layer_factory.hpp:77] Creating layer relu3_1
I0501 03:27:44.834050  7037 net.cpp:106] Creating Layer relu3_1
I0501 03:27:44.834053  7037 net.cpp:454] relu3_1 <- conv3_1
I0501 03:27:44.834059  7037 net.cpp:397] relu3_1 -> conv3_1 (in-place)
I0501 03:27:44.834064  7037 net.cpp:150] Setting up relu3_1
I0501 03:27:44.834069  7037 net.cpp:157] Top shape: 2 256 150 250 (19200000)
I0501 03:27:44.834071  7037 net.cpp:165] Memory required for data: 2126400312
I0501 03:27:44.834074  7037 layer_factory.hpp:77] Creating layer conv3_2
I0501 03:27:44.834080  7037 net.cpp:106] Creating Layer conv3_2
I0501 03:27:44.834082  7037 net.cpp:454] conv3_2 <- conv3_1
I0501 03:27:44.834089  7037 net.cpp:411] conv3_2 -> conv3_2
I0501 03:27:44.834969  7037 net.cpp:150] Setting up conv3_2
I0501 03:27:44.834976  7037 net.cpp:157] Top shape: 2 256 150 250 (19200000)
I0501 03:27:44.834980  7037 net.cpp:165] Memory required for data: 2203200312
I0501 03:27:44.834985  7037 layer_factory.hpp:77] Creating layer relu3_2
I0501 03:27:44.834991  7037 net.cpp:106] Creating Layer relu3_2
I0501 03:27:44.834995  7037 net.cpp:454] relu3_2 <- conv3_2
I0501 03:27:44.835000  7037 net.cpp:397] relu3_2 -> conv3_2 (in-place)
I0501 03:27:44.835005  7037 net.cpp:150] Setting up relu3_2
I0501 03:27:44.835011  7037 net.cpp:157] Top shape: 2 256 150 250 (19200000)
I0501 03:27:44.835012  7037 net.cpp:165] Memory required for data: 2280000312
I0501 03:27:44.835016  7037 layer_factory.hpp:77] Creating layer conv3_3
I0501 03:27:44.835022  7037 net.cpp:106] Creating Layer conv3_3
I0501 03:27:44.835024  7037 net.cpp:454] conv3_3 <- conv3_2
I0501 03:27:44.835031  7037 net.cpp:411] conv3_3 -> conv3_3
I0501 03:27:44.835906  7037 net.cpp:150] Setting up conv3_3
I0501 03:27:44.835913  7037 net.cpp:157] Top shape: 2 256 150 250 (19200000)
I0501 03:27:44.835916  7037 net.cpp:165] Memory required for data: 2356800312
I0501 03:27:44.835922  7037 layer_factory.hpp:77] Creating layer relu3_3
I0501 03:27:44.835930  7037 net.cpp:106] Creating Layer relu3_3
I0501 03:27:44.835933  7037 net.cpp:454] relu3_3 <- conv3_3
I0501 03:27:44.835938  7037 net.cpp:397] relu3_3 -> conv3_3 (in-place)
I0501 03:27:44.835943  7037 net.cpp:150] Setting up relu3_3
I0501 03:27:44.835948  7037 net.cpp:157] Top shape: 2 256 150 250 (19200000)
I0501 03:27:44.835950  7037 net.cpp:165] Memory required for data: 2433600312
I0501 03:27:44.835952  7037 layer_factory.hpp:77] Creating layer pool3
I0501 03:27:44.835958  7037 net.cpp:106] Creating Layer pool3
I0501 03:27:44.835961  7037 net.cpp:454] pool3 <- conv3_3
I0501 03:27:44.835966  7037 net.cpp:411] pool3 -> pool3
I0501 03:27:44.835994  7037 net.cpp:150] Setting up pool3
I0501 03:27:44.835999  7037 net.cpp:157] Top shape: 2 256 75 125 (4800000)
I0501 03:27:44.836000  7037 net.cpp:165] Memory required for data: 2452800312
I0501 03:27:44.836004  7037 layer_factory.hpp:77] Creating layer conv4_1
I0501 03:27:44.836009  7037 net.cpp:106] Creating Layer conv4_1
I0501 03:27:44.836012  7037 net.cpp:454] conv4_1 <- pool3
I0501 03:27:44.836019  7037 net.cpp:411] conv4_1 -> conv4_1
I0501 03:27:44.838505  7037 net.cpp:150] Setting up conv4_1
I0501 03:27:44.838523  7037 net.cpp:157] Top shape: 2 512 75 125 (9600000)
I0501 03:27:44.838526  7037 net.cpp:165] Memory required for data: 2491200312
I0501 03:27:44.838534  7037 layer_factory.hpp:77] Creating layer relu4_1
I0501 03:27:44.838543  7037 net.cpp:106] Creating Layer relu4_1
I0501 03:27:44.838547  7037 net.cpp:454] relu4_1 <- conv4_1
I0501 03:27:44.838554  7037 net.cpp:397] relu4_1 -> conv4_1 (in-place)
I0501 03:27:44.838563  7037 net.cpp:150] Setting up relu4_1
I0501 03:27:44.838567  7037 net.cpp:157] Top shape: 2 512 75 125 (9600000)
I0501 03:27:44.838569  7037 net.cpp:165] Memory required for data: 2529600312
I0501 03:27:44.838572  7037 layer_factory.hpp:77] Creating layer conv4_2
I0501 03:27:44.838580  7037 net.cpp:106] Creating Layer conv4_2
I0501 03:27:44.838583  7037 net.cpp:454] conv4_2 <- conv4_1
I0501 03:27:44.838590  7037 net.cpp:411] conv4_2 -> conv4_2
I0501 03:27:44.841289  7037 net.cpp:150] Setting up conv4_2
I0501 03:27:44.841310  7037 net.cpp:157] Top shape: 2 512 75 125 (9600000)
I0501 03:27:44.841312  7037 net.cpp:165] Memory required for data: 2568000312
I0501 03:27:44.841325  7037 layer_factory.hpp:77] Creating layer relu4_2
I0501 03:27:44.841333  7037 net.cpp:106] Creating Layer relu4_2
I0501 03:27:44.841338  7037 net.cpp:454] relu4_2 <- conv4_2
I0501 03:27:44.841346  7037 net.cpp:397] relu4_2 -> conv4_2 (in-place)
I0501 03:27:44.841353  7037 net.cpp:150] Setting up relu4_2
I0501 03:27:44.841357  7037 net.cpp:157] Top shape: 2 512 75 125 (9600000)
I0501 03:27:44.841361  7037 net.cpp:165] Memory required for data: 2606400312
I0501 03:27:44.841362  7037 layer_factory.hpp:77] Creating layer conv4_3
I0501 03:27:44.841370  7037 net.cpp:106] Creating Layer conv4_3
I0501 03:27:44.841372  7037 net.cpp:454] conv4_3 <- conv4_2
I0501 03:27:44.841378  7037 net.cpp:411] conv4_3 -> conv4_3
I0501 03:27:44.844152  7037 net.cpp:150] Setting up conv4_3
I0501 03:27:44.844173  7037 net.cpp:157] Top shape: 2 512 75 125 (9600000)
I0501 03:27:44.844177  7037 net.cpp:165] Memory required for data: 2644800312
I0501 03:27:44.844184  7037 layer_factory.hpp:77] Creating layer relu4_3
I0501 03:27:44.844192  7037 net.cpp:106] Creating Layer relu4_3
I0501 03:27:44.844197  7037 net.cpp:454] relu4_3 <- conv4_3
I0501 03:27:44.844202  7037 net.cpp:397] relu4_3 -> conv4_3 (in-place)
I0501 03:27:44.844213  7037 net.cpp:150] Setting up relu4_3
I0501 03:27:44.844215  7037 net.cpp:157] Top shape: 2 512 75 125 (9600000)
I0501 03:27:44.844218  7037 net.cpp:165] Memory required for data: 2683200312
I0501 03:27:44.844220  7037 layer_factory.hpp:77] Creating layer pool4
I0501 03:27:44.844225  7037 net.cpp:106] Creating Layer pool4
I0501 03:27:44.844228  7037 net.cpp:454] pool4 <- conv4_3
I0501 03:27:44.844234  7037 net.cpp:411] pool4 -> pool4
I0501 03:27:44.844267  7037 net.cpp:150] Setting up pool4
I0501 03:27:44.844272  7037 net.cpp:157] Top shape: 2 512 38 63 (2451456)
I0501 03:27:44.844274  7037 net.cpp:165] Memory required for data: 2693006136
I0501 03:27:44.844277  7037 layer_factory.hpp:77] Creating layer conv5_1
I0501 03:27:44.844285  7037 net.cpp:106] Creating Layer conv5_1
I0501 03:27:44.844287  7037 net.cpp:454] conv5_1 <- pool4
I0501 03:27:44.844293  7037 net.cpp:411] conv5_1 -> conv5_1
I0501 03:27:44.847082  7037 net.cpp:150] Setting up conv5_1
I0501 03:27:44.847102  7037 net.cpp:157] Top shape: 2 512 38 63 (2451456)
I0501 03:27:44.847105  7037 net.cpp:165] Memory required for data: 2702811960
I0501 03:27:44.847113  7037 layer_factory.hpp:77] Creating layer relu5_1
I0501 03:27:44.847121  7037 net.cpp:106] Creating Layer relu5_1
I0501 03:27:44.847124  7037 net.cpp:454] relu5_1 <- conv5_1
I0501 03:27:44.847131  7037 net.cpp:397] relu5_1 -> conv5_1 (in-place)
I0501 03:27:44.847139  7037 net.cpp:150] Setting up relu5_1
I0501 03:27:44.847143  7037 net.cpp:157] Top shape: 2 512 38 63 (2451456)
I0501 03:27:44.847146  7037 net.cpp:165] Memory required for data: 2712617784
I0501 03:27:44.847148  7037 layer_factory.hpp:77] Creating layer conv5_2
I0501 03:27:44.847157  7037 net.cpp:106] Creating Layer conv5_2
I0501 03:27:44.847158  7037 net.cpp:454] conv5_2 <- conv5_1
I0501 03:27:44.847164  7037 net.cpp:411] conv5_2 -> conv5_2
I0501 03:27:44.849948  7037 net.cpp:150] Setting up conv5_2
I0501 03:27:44.849967  7037 net.cpp:157] Top shape: 2 512 38 63 (2451456)
I0501 03:27:44.849968  7037 net.cpp:165] Memory required for data: 2722423608
I0501 03:27:44.849975  7037 layer_factory.hpp:77] Creating layer relu5_2
I0501 03:27:44.849983  7037 net.cpp:106] Creating Layer relu5_2
I0501 03:27:44.849987  7037 net.cpp:454] relu5_2 <- conv5_2
I0501 03:27:44.849992  7037 net.cpp:397] relu5_2 -> conv5_2 (in-place)
I0501 03:27:44.849999  7037 net.cpp:150] Setting up relu5_2
I0501 03:27:44.850004  7037 net.cpp:157] Top shape: 2 512 38 63 (2451456)
I0501 03:27:44.850006  7037 net.cpp:165] Memory required for data: 2732229432
I0501 03:27:44.850009  7037 layer_factory.hpp:77] Creating layer conv5_3
I0501 03:27:44.850018  7037 net.cpp:106] Creating Layer conv5_3
I0501 03:27:44.850020  7037 net.cpp:454] conv5_3 <- conv5_2
I0501 03:27:44.850026  7037 net.cpp:411] conv5_3 -> conv5_3
I0501 03:27:44.852789  7037 net.cpp:150] Setting up conv5_3
I0501 03:27:44.852809  7037 net.cpp:157] Top shape: 2 512 38 63 (2451456)
I0501 03:27:44.852811  7037 net.cpp:165] Memory required for data: 2742035256
I0501 03:27:44.852820  7037 layer_factory.hpp:77] Creating layer relu5_3
I0501 03:27:44.852828  7037 net.cpp:106] Creating Layer relu5_3
I0501 03:27:44.852831  7037 net.cpp:454] relu5_3 <- conv5_3
I0501 03:27:44.852838  7037 net.cpp:397] relu5_3 -> conv5_3 (in-place)
I0501 03:27:44.852846  7037 net.cpp:150] Setting up relu5_3
I0501 03:27:44.852850  7037 net.cpp:157] Top shape: 2 512 38 63 (2451456)
I0501 03:27:44.852852  7037 net.cpp:165] Memory required for data: 2751841080
I0501 03:27:44.852855  7037 layer_factory.hpp:77] Creating layer conv5_3_relu5_3_0_split
I0501 03:27:44.852870  7037 net.cpp:106] Creating Layer conv5_3_relu5_3_0_split
I0501 03:27:44.852872  7037 net.cpp:454] conv5_3_relu5_3_0_split <- conv5_3
I0501 03:27:44.852879  7037 net.cpp:411] conv5_3_relu5_3_0_split -> conv5_3_relu5_3_0_split_0
I0501 03:27:44.852886  7037 net.cpp:411] conv5_3_relu5_3_0_split -> conv5_3_relu5_3_0_split_1
I0501 03:27:44.852916  7037 net.cpp:150] Setting up conv5_3_relu5_3_0_split
I0501 03:27:44.852921  7037 net.cpp:157] Top shape: 2 512 38 63 (2451456)
I0501 03:27:44.852926  7037 net.cpp:157] Top shape: 2 512 38 63 (2451456)
I0501 03:27:44.852928  7037 net.cpp:165] Memory required for data: 2771452728
I0501 03:27:44.852931  7037 layer_factory.hpp:77] Creating layer roi_pool5
I0501 03:27:44.852942  7037 net.cpp:106] Creating Layer roi_pool5
I0501 03:27:44.852946  7037 net.cpp:454] roi_pool5 <- conv5_3_relu5_3_0_split_0
I0501 03:27:44.852949  7037 net.cpp:454] roi_pool5 <- rois
I0501 03:27:44.852955  7037 net.cpp:411] roi_pool5 -> pool5
I0501 03:27:44.852962  7037 roi_pooling_layer.cpp:30] Spatial scale: 0.0625
I0501 03:27:44.852991  7037 net.cpp:150] Setting up roi_pool5
I0501 03:27:44.852995  7037 net.cpp:157] Top shape: 1 512 7 7 (25088)
I0501 03:27:44.852998  7037 net.cpp:165] Memory required for data: 2771553080
I0501 03:27:44.853000  7037 layer_factory.hpp:77] Creating layer fc6
I0501 03:27:44.853006  7037 net.cpp:106] Creating Layer fc6
I0501 03:27:44.853009  7037 net.cpp:454] fc6 <- pool5
I0501 03:27:44.853015  7037 net.cpp:411] fc6 -> fc6
I0501 03:27:44.956605  7037 net.cpp:150] Setting up fc6
I0501 03:27:44.956626  7037 net.cpp:157] Top shape: 1 4096 (4096)
I0501 03:27:44.956629  7037 net.cpp:165] Memory required for data: 2771569464
I0501 03:27:44.956640  7037 layer_factory.hpp:77] Creating layer relu6
I0501 03:27:44.956647  7037 net.cpp:106] Creating Layer relu6
I0501 03:27:44.956651  7037 net.cpp:454] relu6 <- fc6
I0501 03:27:44.956657  7037 net.cpp:397] relu6 -> fc6 (in-place)
I0501 03:27:44.956666  7037 net.cpp:150] Setting up relu6
I0501 03:27:44.956670  7037 net.cpp:157] Top shape: 1 4096 (4096)
I0501 03:27:44.956671  7037 net.cpp:165] Memory required for data: 2771585848
I0501 03:27:44.956674  7037 layer_factory.hpp:77] Creating layer drop6
I0501 03:27:44.956681  7037 net.cpp:106] Creating Layer drop6
I0501 03:27:44.956683  7037 net.cpp:454] drop6 <- fc6
I0501 03:27:44.956687  7037 net.cpp:397] drop6 -> fc6 (in-place)
I0501 03:27:44.956712  7037 net.cpp:150] Setting up drop6
I0501 03:27:44.956715  7037 net.cpp:157] Top shape: 1 4096 (4096)
I0501 03:27:44.956717  7037 net.cpp:165] Memory required for data: 2771602232
I0501 03:27:44.956719  7037 layer_factory.hpp:77] Creating layer fc7
I0501 03:27:44.956724  7037 net.cpp:106] Creating Layer fc7
I0501 03:27:44.956727  7037 net.cpp:454] fc7 <- fc6
I0501 03:27:44.956732  7037 net.cpp:411] fc7 -> fc7
I0501 03:27:44.973971  7037 net.cpp:150] Setting up fc7
I0501 03:27:44.973990  7037 net.cpp:157] Top shape: 1 4096 (4096)
I0501 03:27:44.973991  7037 net.cpp:165] Memory required for data: 2771618616
I0501 03:27:44.974000  7037 layer_factory.hpp:77] Creating layer relu7
I0501 03:27:44.974009  7037 net.cpp:106] Creating Layer relu7
I0501 03:27:44.974012  7037 net.cpp:454] relu7 <- fc7
I0501 03:27:44.974019  7037 net.cpp:397] relu7 -> fc7 (in-place)
I0501 03:27:44.974026  7037 net.cpp:150] Setting up relu7
I0501 03:27:44.974030  7037 net.cpp:157] Top shape: 1 4096 (4096)
I0501 03:27:44.974032  7037 net.cpp:165] Memory required for data: 2771635000
I0501 03:27:44.974035  7037 layer_factory.hpp:77] Creating layer drop7
I0501 03:27:44.974040  7037 net.cpp:106] Creating Layer drop7
I0501 03:27:44.974042  7037 net.cpp:454] drop7 <- fc7
I0501 03:27:44.974046  7037 net.cpp:397] drop7 -> fc7 (in-place)
I0501 03:27:44.974064  7037 net.cpp:150] Setting up drop7
I0501 03:27:44.974068  7037 net.cpp:157] Top shape: 1 4096 (4096)
I0501 03:27:44.974071  7037 net.cpp:165] Memory required for data: 2771651384
I0501 03:27:44.974073  7037 layer_factory.hpp:77] Creating layer fc7_drop7_0_split
I0501 03:27:44.974079  7037 net.cpp:106] Creating Layer fc7_drop7_0_split
I0501 03:27:44.974081  7037 net.cpp:454] fc7_drop7_0_split <- fc7
I0501 03:27:44.974087  7037 net.cpp:411] fc7_drop7_0_split -> fc7_drop7_0_split_0
I0501 03:27:44.974094  7037 net.cpp:411] fc7_drop7_0_split -> fc7_drop7_0_split_1
I0501 03:27:44.974122  7037 net.cpp:150] Setting up fc7_drop7_0_split
I0501 03:27:44.974125  7037 net.cpp:157] Top shape: 1 4096 (4096)
I0501 03:27:44.974128  7037 net.cpp:157] Top shape: 1 4096 (4096)
I0501 03:27:44.974131  7037 net.cpp:165] Memory required for data: 2771684152
I0501 03:27:44.974133  7037 layer_factory.hpp:77] Creating layer cls_score
I0501 03:27:44.974148  7037 net.cpp:106] Creating Layer cls_score
I0501 03:27:44.974151  7037 net.cpp:454] cls_score <- fc7_drop7_0_split_0
I0501 03:27:44.974158  7037 net.cpp:411] cls_score -> cls_score
I0501 03:27:44.974398  7037 net.cpp:150] Setting up cls_score
I0501 03:27:44.974403  7037 net.cpp:157] Top shape: 1 6 (6)
I0501 03:27:44.974406  7037 net.cpp:165] Memory required for data: 2771684176
I0501 03:27:44.974411  7037 layer_factory.hpp:77] Creating layer bbox_pred
I0501 03:27:44.974416  7037 net.cpp:106] Creating Layer bbox_pred
I0501 03:27:44.974419  7037 net.cpp:454] bbox_pred <- fc7_drop7_0_split_1
I0501 03:27:44.974424  7037 net.cpp:411] bbox_pred -> bbox_pred
I0501 03:27:44.975121  7037 net.cpp:150] Setting up bbox_pred
I0501 03:27:44.975126  7037 net.cpp:157] Top shape: 1 24 (24)
I0501 03:27:44.975127  7037 net.cpp:165] Memory required for data: 2771684272
I0501 03:27:44.975137  7037 layer_factory.hpp:77] Creating layer loss_cls
I0501 03:27:44.975147  7037 net.cpp:106] Creating Layer loss_cls
I0501 03:27:44.975150  7037 net.cpp:454] loss_cls <- cls_score
I0501 03:27:44.975154  7037 net.cpp:454] loss_cls <- labels
I0501 03:27:44.975159  7037 net.cpp:411] loss_cls -> loss_cls
…
I0501 03:27:44.975334  7037 net.cpp:157] Top shape: (1)
I0501 03:27:44.975337  7037 net.cpp:160]     with loss weight 1
I0501 03:27:44.975340  7037 net.cpp:165] Memory required for data: 2771684280
I0501 03:27:44.975347  7037 layer_factory.hpp:77] Creating layer rpn_conv/3x3
I0501 03:27:44.975358  7037 net.cpp:106] Creating Layer rpn_conv/3x3
I0501 03:27:44.975360  7037 net.cpp:454] rpn_conv/3x3 <- conv5_3_relu5_3_0_split_1
I0501 03:27:44.975366  7037 net.cpp:411] rpn_conv/3x3 -> rpn/output
I0501 03:27:44.992318  7037 net.cpp:150] Setting up rpn_conv/3x3
I0501 03:27:44.992336  7037 net.cpp:157] Top shape: 2 512 38 63 (2451456)
I0501 03:27:44.992338  7037 net.cpp:165] Memory required for data: 2781490104
I0501 03:27:44.992346  7037 layer_factory.hpp:77] Creating layer rpn_relu/3x3
I0501 03:27:44.992352  7037 net.cpp:106] Creating Layer rpn_relu/3x3
I0501 03:27:44.992357  7037 net.cpp:454] rpn_relu/3x3 <- rpn/output
I0501 03:27:44.992372  7037 net.cpp:397] rpn_relu/3x3 -> rpn/output (in-place)
I0501 03:27:44.992380  7037 net.cpp:150] Setting up rpn_relu/3x3
I0501 03:27:44.992384  7037 net.cpp:157] Top shape: 2 512 38 63 (2451456)
I0501 03:27:44.992386  7037 net.cpp:165] Memory required for data: 2791295928
I0501 03:27:44.992389  7037 layer_factory.hpp:77] Creating layer rpn/output_rpn_relu/3x3_0_split
I0501 03:27:44.992394  7037 net.cpp:106] Creating Layer rpn/output_rpn_relu/3x3_0_split
I0501 03:27:44.992398  7037 net.cpp:454] rpn/output_rpn_relu/3x3_0_split <- rpn/output
I0501 03:27:44.992403  7037 net.cpp:411] rpn/output_rpn_relu/3x3_0_split -> rpn/output_rpn_relu/3x3_0_split_0
I0501 03:27:44.992410  7037 net.cpp:411] rpn/output_rpn_relu/3x3_0_split -> rpn/output_rpn_relu/3x3_0_split_1
I0501 03:27:44.992444  7037 net.cpp:150] Setting up rpn/output_rpn_relu/3x3_0_split
I0501 03:27:44.992449  7037 net.cpp:157] Top shape: 2 512 38 63 (2451456)
I0501 03:27:44.992452  7037 net.cpp:157] Top shape: 2 512 38 63 (2451456)
I0501 03:27:44.992455  7037 net.cpp:165] Memory required for data: 2810907576
I0501 03:27:44.992458  7037 layer_factory.hpp:77] Creating layer rpn_cls_score
I0501 03:27:44.992467  7037 net.cpp:106] Creating Layer rpn_cls_score
I0501 03:27:44.992473  7037 net.cpp:454] rpn_cls_score <- rpn/output_rpn_relu/3x3_0_split_0
I0501 03:27:44.992480  7037 net.cpp:411] rpn_cls_score -> rpn_cls_score
I0501 03:27:44.992702  7037 net.cpp:150] Setting up rpn_cls_score
I0501 03:27:44.992708  7037 net.cpp:157] Top shape: 2 18 38 63 (86184)
I0501 03:27:44.992710  7037 net.cpp:165] Memory required for data: 2811252312
I0501 03:27:44.992715  7037 layer_factory.hpp:77] Creating layer rpn_bbox_pred
I0501 03:27:44.992723  7037 net.cpp:106] Creating Layer rpn_bbox_pred
I0501 03:27:44.992727  7037 net.cpp:454] rpn_bbox_pred <- rpn/output_rpn_relu/3x3_0_split_1
I0501 03:27:44.992730  7037 net.cpp:411] rpn_bbox_pred -> rpn_bbox_pred
I0501 03:27:44.992988  7037 net.cpp:150] Setting up rpn_bbox_pred
I0501 03:27:44.992993  7037 net.cpp:157] Top shape: 2 36 38 63 (172368)
I0501 03:27:44.992995  7037 net.cpp:165] Memory required for data: 2811941784
I0501 03:27:44.993000  7037 layer_factory.hpp:77] Creating layer silence_rpn_cls_score
I0501 03:27:44.993005  7037 net.cpp:106] Creating Layer silence_rpn_cls_score
I0501 03:27:44.993010  7037 net.cpp:454] silence_rpn_cls_score <- rpn_cls_score
I0501 03:27:44.993013  7037 net.cpp:150] Setting up silence_rpn_cls_score
…
