…
snapshot: 0
snapshot_prefix: "vgg16_rpn"
average_loss: 100
I0501 09:45:55.058621 11916 solver.cpp:81] Creating training net from train_net file: models/pascal_voc/VGG16/faster_rcnn_alt_opt/stage1_rpn_train.pt
I0501 09:45:55.058962 11916 net.cpp:49] Initializing net from parameters: 
name: "VGG_ILSVRC_16_layers"
state {
  phase: TRAIN
}
layer {
  name: "input-data"
  type: "Python"
  top: "data"
  top: "im_info"
  top: "gt_boxes"
  python_param {
    module: "roi_data_layer.layer"
    layer: "RoIDataLayer"
    param_str: "\'num_classes\': 6"
  }
}
layer {
  name: "conv1_1"
  type: "Convolution"
  bottom: "data"
  top: "conv1_1"
  param {
    lr_mult: 0
    decay_mult: 0
  }
  param {
    lr_mult: 0
    decay_mult: 0
  }
  convolution_param {
    num_output: 64
    pad: 1
    kernel_size: 3
  }
}
layer {
  name: "relu1_1"
  type: "ReLU"
  bottom: "conv1_1"
  top: "conv1_1"
}
layer {
  name: "conv1_2"
  type: "Convolution"
  bottom: "conv1_1"
  top: "conv1_2"
  param {
    lr_mult: 0
    decay_mult: 0
  }
  param {
    lr_mult: 0
    decay_mult: 0
  }
  convolution_param {
    num_output: 64
    pad: 1
    kernel_size: 3
  }
}
layer {
  name: "relu1_2"
  type: "ReLU"
  bottom: "conv1_2"
  top: "conv1_2"
}
layer {
  name: "pool1"
  type: "Pooling"
  bottom: "conv1_2"
  top: "pool1"
  pooling_param {
    pool: MAX
    kernel_size: 2
    stride: 2
  }
}
layer {
  name: "conv2_1"
  type: "Convolution"
  bottom: "pool1"
  top: "conv2_1"
  param {
    lr_mult: 0
    decay_mult: 0
  }
  param {
    lr_mult: 0
    decay_mult: 0
  }
  convolution_param {
    num_output: 128
    pad: 1
    kernel_size: 3
  }
}
layer {
  name: "relu2_1"
  type: "ReLU"
  bottom: "conv2_1"
  top: "conv2_1"
}
layer {
  name: "conv2_2"
  type: "Convolution"
  bottom: "conv2_1"
  top: "conv2_2"
  param {
    lr_mult: 0
    decay_mult: 0
  }
  param {
    lr_mult: 0
    decay_mult: 0
  }
  convolution_param {
    num_output: 128
    pad: 1
    kernel_size: 3
  }
}
layer {
  name: "relu2_2"
  type: "ReLU"
  bottom: "conv2_2"
  top: "conv2_2"
}
layer {
  name: "pool2"
  type: "Pooling"
  bottom: "conv2_2"
  top: "pool2"
  pooling_param {
    pool: MAX
    kernel_size: 2
    stride: 2
  }
}
layer {
  name: "conv3_1"
  type: "Convolution"
  bottom: "pool2"
  top: "conv3_1"
  param {
    lr_mult: 1
  }
  param {
    lr_mult: 2
  }
  convolution_param {
    num_output: 256
    pad: 1
    kernel_size: 3
  }
}
layer {
  name: "relu3_1"
  type: "ReLU"
  bottom: "conv3_1"
  top: "conv3_1"
}
layer {
  name: "conv3_2"
  type: "Convolution"
  bottom: "conv3_1"
  top: "conv3_2"
  param {
    lr_mult: 1
  }
  param {
    lr_mult: 2
  }
  convolution_param {
    num_output: 256
    pad: 1
    kernel_size: 3
  }
}
layer {
  name: "relu3_2"
  type: "ReLU"
  bottom: "conv3_2"
  top: "conv3_2"
}
layer {
  name: "conv3_3"
  type: "Convolution"
  bottom: "conv3_2"
  top: "conv3_3"
  param {
    lr_mult: 1
  }
  param {
    lr_mult: 2
  }
  convolution_param {
    num_output: 256
    pad: 1
    kernel_size: 3
  }
}
layer {
  name: "relu3_3"
  type: "ReLU"
  bottom: "conv3_3"
  top: "conv3_3"
}
layer {
  name: "pool3"
  type: "Pooling"
  bottom: "conv3_3"
  top: "pool3"
  pooling_param {
    pool: MAX
    kernel_size: 2
    stride: 2
  }
}
layer {
  name: "conv4_1"
  type: "Convolution"
  bottom: "pool3"
  top: "conv4_1"
  param {
    lr_mult: 1
  }
  param {
    lr_mult: 2
  }
  convolution_param {
    num_output: 512
    pad: 1
    kernel_size: 3
  }
}
layer {
  name: "relu4_1"
  type: "ReLU"
  bottom: "conv4_1"
  top: "conv4_1"
}
layer {
  name: "conv4_2"
  type: "Convolution"
  bottom: "conv4_1"
  top: "conv4_2"
  param {
    lr_mult: 1
  }
  param {
    lr_mult: 2
  }
  convolution_param {
    num_output: 512
    pad: 1
    kernel_size: 3
  }
}
layer {
  name: "relu4_2"
  type: "ReLU"
  bottom: "conv4_2"
  top: "conv4_2"
}
layer {
  name: "conv4_3"
  type: "Convolution"
  bottom: "conv4_2"
  top: "conv4_3"
  param {
    lr_mult: 1
  }
  param {
    lr_mult: 2
  }
  convolution_param {
    num_output: 512
    pad: 1
    kernel_size: 3
  }
}
layer {
  name: "relu4_3"
  type: "ReLU"
  bottom: "conv4_3"
  top: "conv4_3"
}
layer {
  name: "pool4"
  type: "Pooling"
  bottom: "conv4_3"
  top: "pool4"
  pooling_param {
    pool: MAX
    kernel_size: 2
    stride: 2
  }
}
layer {
  name: "conv5_1"
  type: "Convolution"
  bottom: "pool4"
  top: "conv5_1"
  param {
    lr_mult: 1
  }
  param {
    lr_mult: 2
  }
  convolution_param {
    num_output: 512
    pad: 1
    kernel_size: 3
  }
}
layer {
  name: "relu5_1"
  type: "ReLU"
  bottom: "conv5_1"
  top: "conv5_1"
}
layer {
  name: "conv5_2"
  type: "Convolution"
  bottom: "conv5_1"
  top: "conv5_2"
  param {
    lr_mult: 1
  }
  param {
    lr_mult: 2
  }
  convolution_param {
    num_output: 512
    pad: 1
    kernel_size: 3
  }
}
layer {
  name: "relu5_2"
  type: "ReLU"
  bottom: "conv5_2"
  top: "conv5_2"
}
layer {
  name: "conv5_3"
  type: "Convolution"
  bottom: "conv5_2"
  top: "conv5_3"
  param {
    lr_mult: 1
  }
  param {
    lr_mult: 2
  }
  convolution_param {
    num_output: 512
    pad: 1
    kernel_size: 3
  }
}
layer {
  name: "relu5_3"
  type: "ReLU"
  bottom: "conv5_3"
  top: "conv5_3"
}
layer {
  name: "rpn_conv/3x3"
  type: "Convolution"
  bottom: "conv5_3"
  top: "rpn/output"
  param {
    lr_mult: 1
  }
  param {
    lr_mult: 2
  }
  convolution_param {
    num_output: 512
    pad: 1
    kernel_size: 3
    stride: 1
    weight_filler {
      type: "gaussian"
      std: 0.01
    }
    bias_filler {
      type: "constant"
      value: 0
    }
  }
}
layer {
  name: "rpn_relu/3x3"
  type: "ReLU"
  bottom: "rpn/output"
  top: "rpn/output"
}
layer {
  name: "rpn_cls_score"
  type: "Convolution"
  bottom: "rpn/output"
  top: "rpn_cls_score"
  param {
    lr_mult: 1
  }
  param {
    lr_mult: 2
  }
  convolution_param {
    num_output: 18
    pad: 0
    kernel_size: 1
    stride: 1
    weight_filler {
      type: "gaussian"
      std: 0.01
    }
    bias_filler {
      type: "constant"
      value: 0
    }
  }
}
layer {
  name: "rpn_bbox_pred"
  type: "Convolution"
  bottom: "rpn/output"
  top: "rpn_bbox_pred"
  param {
    lr_mult: 1
  }
  param {
    lr_mult: 2
  }
  convolution_param {
    num_output: 36
    pad: 0
    kernel_size: 1
    stride: 1
    weight_filler {
      type: "gaussian"
      std: 0.01
    }
    bias_filler {
      type: "constant"
      value: 0
    }
  }
}
layer {
  name: "rpn_cls_score_reshape"
  type: "Reshape"
  bottom: "rpn_cls_score"
  top: "rpn_cls_score_reshape"
  reshape_param {
    shape {
      dim: 0
      dim: 2
      dim: -1
      dim: 0
    }
  }
}
layer {
  name: "rpn-data"
  type: "Python"
  bottom: "rpn_cls_score"
  bottom: "gt_boxes"
  bottom: "im_info"
  bottom: "data"
  top: "rpn_labels"
  top: "rpn_bbox_targets"
  top: "rpn_bbox_inside_weights"
  top: "rpn_bbox_outside_weights"
  python_param {
    module: "rpn.anchor_target_layer"
    layer: "AnchorTargetLayer"
    param_str: "\'feat_stride\': 16"
  }
}
layer {
  name: "rpn_loss_cls"
  type: "SoftmaxWithLoss"
  bottom: "rpn_cls_score_reshape"
  bottom: "rpn_labels"
  top: "rpn_cls_loss"
  loss_weight: 1
  propagate_down: true
  propagate_down: false
  loss_param {
    ignore_label: -1
    normalize: true
  }
}
layer {
  name: "rpn_loss_bbox"
  type: "SmoothL1Loss"
  bottom: "rpn_bbox_pred"
  bottom: "rpn_bbox_targets"
  bottom: "rpn_bbox_inside_weights"
  bottom: "rpn_bbox_outside_weights"
  top: "rpn_loss_bbox"
  loss_weight: 1
  smooth_l1_loss_param {
    sigma: 3
  }
}
layer {
  name: "dummy_roi_pool_conv5"
  type: "DummyData"
  top: "dummy_roi_pool_conv5"
  dummy_data_param {
    data_filler {
      type: "constant"
      value: 0
    }
    shape {
      dim: 1
      dim: 25088
    }
  }
}
layer {
  name: "fc6"
  type: "InnerProduct"
  bottom: "dummy_roi_pool_conv5"
  top: "fc6"
  param {
    lr_mult: 0
    decay_mult: 0
  }
  param {
    lr_mult: 0
    decay_mult: 0
  }
  inner_product_param {
    num_output: 4096
  }
}
layer {
  name: "relu6"
  type: "ReLU"
  bottom: "fc6"
  top: "fc6"
}
layer {
  name: "drop6"
  type: "Dropout"
  bottom: "fc6"
  top: "fc6"
  dropout_param {
    dropout_ratio: 0.5
  }
}
layer {
  name: "fc7"
  type: "InnerProduct"
  bottom: "fc6"
  top: "fc7"
  param {
    lr_mult: 0
    decay_mult: 0
  }
  param {
    lr_mult: 0
    decay_mult: 0
  }
  inner_product_param {
    num_output: 4096
  }
}
layer {
  name: "silence_fc7"
  type: "Silence"
  bottom: "fc7"
}
I0501 09:45:55.059098 11916 layer_factory.hpp:77] Creating layer input-data
I0501 09:45:55.059393 11916 net.cpp:106] Creating Layer input-data
I0501 09:45:55.059399 11916 net.cpp:411] input-data -> data
I0501 09:45:55.059418 11916 net.cpp:411] input-data -> im_info
I0501 09:45:55.059422 11916 net.cpp:411] input-data -> gt_boxes
RoiDataLayer: name_to_top: {'gt_boxes': 2, 'data': 0, 'im_info': 1}
I0501 09:45:55.068589 11916 net.cpp:150] Setting up input-data
I0501 09:45:55.068600 11916 net.cpp:157] Top shape: 1 3 600 1000 (1800000)
I0501 09:45:55.068603 11916 net.cpp:157] Top shape: 1 3 (3)
I0501 09:45:55.068604 11916 net.cpp:157] Top shape: 1 4 (4)
I0501 09:45:55.068605 11916 net.cpp:165] Memory required for data: 7200028
I0501 09:45:55.068609 11916 layer_factory.hpp:77] Creating layer data_input-data_0_split
I0501 09:45:55.068619 11916 net.cpp:106] Creating Layer data_input-data_0_split
I0501 09:45:55.068621 11916 net.cpp:454] data_input-data_0_split <- data
I0501 09:45:55.068624 11916 net.cpp:411] data_input-data_0_split -> data_input-data_0_split_0
I0501 09:45:55.068630 11916 net.cpp:411] data_input-data_0_split -> data_input-data_0_split_1
I0501 09:45:55.068653 11916 net.cpp:150] Setting up data_input-data_0_split
I0501 09:45:55.068656 11916 net.cpp:157] Top shape: 1 3 600 1000 (1800000)
I0501 09:45:55.068658 11916 net.cpp:157] Top shape: 1 3 600 1000 (1800000)
I0501 09:45:55.068660 11916 net.cpp:165] Memory required for data: 21600028
I0501 09:45:55.068661 11916 layer_factory.hpp:77] Creating layer conv1_1
I0501 09:45:55.068666 11916 net.cpp:106] Creating Layer conv1_1
I0501 09:45:55.068668 11916 net.cpp:454] conv1_1 <- data_input-data_0_split_0
I0501 09:45:55.068670 11916 net.cpp:411] conv1_1 -> conv1_1
I0501 09:45:55.069934 11916 net.cpp:150] Setting up conv1_1
I0501 09:45:55.069957 11916 net.cpp:157] Top shape: 1 64 600 1000 (38400000)
I0501 09:45:55.069958 11916 net.cpp:165] Memory required for data: 175200028
I0501 09:45:55.069965 11916 layer_factory.hpp:77] Creating layer relu1_1
I0501 09:45:55.069969 11916 net.cpp:106] Creating Layer relu1_1
I0501 09:45:55.069972 11916 net.cpp:454] relu1_1 <- conv1_1
I0501 09:45:55.069974 11916 net.cpp:397] relu1_1 -> conv1_1 (in-place)
I0501 09:45:55.069979 11916 net.cpp:150] Setting up relu1_1
I0501 09:45:55.069983 11916 net.cpp:157] Top shape: 1 64 600 1000 (38400000)
I0501 09:45:55.069983 11916 net.cpp:165] Memory required for data: 328800028
I0501 09:45:55.069984 11916 layer_factory.hpp:77] Creating layer conv1_2
I0501 09:45:55.069989 11916 net.cpp:106] Creating Layer conv1_2
I0501 09:45:55.069991 11916 net.cpp:454] conv1_2 <- conv1_1
I0501 09:45:55.069994 11916 net.cpp:411] conv1_2 -> conv1_2
I0501 09:45:55.071231 11916 net.cpp:150] Setting up conv1_2
I0501 09:45:55.071239 11916 net.cpp:157] Top shape: 1 64 600 1000 (38400000)
I0501 09:45:55.071255 11916 net.cpp:165] Memory required for data: 482400028
I0501 09:45:55.071260 11916 layer_factory.hpp:77] Creating layer relu1_2
I0501 09:45:55.071264 11916 net.cpp:106] Creating Layer relu1_2
I0501 09:45:55.071266 11916 net.cpp:454] relu1_2 <- conv1_2
I0501 09:45:55.071271 11916 net.cpp:397] relu1_2 -> conv1_2 (in-place)
I0501 09:45:55.071274 11916 net.cpp:150] Setting up relu1_2
I0501 09:45:55.071277 11916 net.cpp:157] Top shape: 1 64 600 1000 (38400000)
I0501 09:45:55.071279 11916 net.cpp:165] Memory required for data: 636000028
I0501 09:45:55.071280 11916 layer_factory.hpp:77] Creating layer pool1
I0501 09:45:55.071283 11916 net.cpp:106] Creating Layer pool1
I0501 09:45:55.071285 11916 net.cpp:454] pool1 <- conv1_2
I0501 09:45:55.071287 11916 net.cpp:411] pool1 -> pool1
I0501 09:45:55.071316 11916 net.cpp:150] Setting up pool1
I0501 09:45:55.071318 11916 net.cpp:157] Top shape: 1 64 300 500 (9600000)
I0501 09:45:55.071319 11916 net.cpp:165] Memory required for data: 674400028
I0501 09:45:55.071321 11916 layer_factory.hpp:77] Creating layer conv2_1
I0501 09:45:55.071326 11916 net.cpp:106] Creating Layer conv2_1
I0501 09:45:55.071327 11916 net.cpp:454] conv2_1 <- pool1
I0501 09:45:55.071329 11916 net.cpp:411] conv2_1 -> conv2_1
I0501 09:45:55.071964 11916 net.cpp:150] Setting up conv2_1
I0501 09:45:55.071971 11916 net.cpp:157] Top shape: 1 128 300 500 (19200000)
I0501 09:45:55.071974 11916 net.cpp:165] Memory required for data: 751200028
I0501 09:45:55.071979 11916 layer_factory.hpp:77] Creating layer relu2_1
I0501 09:45:55.071982 11916 net.cpp:106] Creating Layer relu2_1
I0501 09:45:55.071985 11916 net.cpp:454] relu2_1 <- conv2_1
I0501 09:45:55.071987 11916 net.cpp:397] relu2_1 -> conv2_1 (in-place)
I0501 09:45:55.071990 11916 net.cpp:150] Setting up relu2_1
I0501 09:45:55.071992 11916 net.cpp:157] Top shape: 1 128 300 500 (19200000)
I0501 09:45:55.071995 11916 net.cpp:165] Memory required for data: 828000028
I0501 09:45:55.071996 11916 layer_factory.hpp:77] Creating layer conv2_2
I0501 09:45:55.072000 11916 net.cpp:106] Creating Layer conv2_2
I0501 09:45:55.072001 11916 net.cpp:454] conv2_2 <- conv2_1
I0501 09:45:55.072005 11916 net.cpp:411] conv2_2 -> conv2_2
I0501 09:45:55.072228 11916 net.cpp:150] Setting up conv2_2
I0501 09:45:55.072232 11916 net.cpp:157] Top shape: 1 128 300 500 (19200000)
I0501 09:45:55.072233 11916 net.cpp:165] Memory required for data: 904800028
I0501 09:45:55.072237 11916 layer_factory.hpp:77] Creating layer relu2_2
I0501 09:45:55.072240 11916 net.cpp:106] Creating Layer relu2_2
I0501 09:45:55.072242 11916 net.cpp:454] relu2_2 <- conv2_2
I0501 09:45:55.072243 11916 net.cpp:397] relu2_2 -> conv2_2 (in-place)
I0501 09:45:55.072247 11916 net.cpp:150] Setting up relu2_2
I0501 09:45:55.072248 11916 net.cpp:157] Top shape: 1 128 300 500 (19200000)
I0501 09:45:55.072252 11916 net.cpp:165] Memory required for data: 981600028
I0501 09:45:55.072252 11916 layer_factory.hpp:77] Creating layer pool2
I0501 09:45:55.072255 11916 net.cpp:106] Creating Layer pool2
I0501 09:45:55.072257 11916 net.cpp:454] pool2 <- conv2_2
I0501 09:45:55.072259 11916 net.cpp:411] pool2 -> pool2
I0501 09:45:55.072276 11916 net.cpp:150] Setting up pool2
I0501 09:45:55.072279 11916 net.cpp:157] Top shape: 1 128 150 250 (4800000)
I0501 09:45:55.072281 11916 net.cpp:165] Memory required for data: 1000800028
I0501 09:45:55.072283 11916 layer_factory.hpp:77] Creating layer conv3_1
I0501 09:45:55.072285 11916 net.cpp:106] Creating Layer conv3_1
I0501 09:45:55.072288 11916 net.cpp:454] conv3_1 <- pool2
I0501 09:45:55.072290 11916 net.cpp:411] conv3_1 -> conv3_1
I0501 09:45:55.072964 11916 net.cpp:150] Setting up conv3_1
I0501 09:45:55.072970 11916 net.cpp:157] Top shape: 1 256 150 250 (9600000)
I0501 09:45:55.072973 11916 net.cpp:165] Memory required for data: 1039200028
I0501 09:45:55.072978 11916 layer_factory.hpp:77] Creating layer relu3_1
I0501 09:45:55.072980 11916 net.cpp:106] Creating Layer relu3_1
I0501 09:45:55.072983 11916 net.cpp:454] relu3_1 <- conv3_1
I0501 09:45:55.072985 11916 net.cpp:397] relu3_1 -> conv3_1 (in-place)
I0501 09:45:55.072989 11916 net.cpp:150] Setting up relu3_1
I0501 09:45:55.072993 11916 net.cpp:157] Top shape: 1 256 150 250 (9600000)
I0501 09:45:55.072993 11916 net.cpp:165] Memory required for data: 1077600028
I0501 09:45:55.072994 11916 layer_factory.hpp:77] Creating layer conv3_2
I0501 09:45:55.072999 11916 net.cpp:106] Creating Layer conv3_2
I0501 09:45:55.073000 11916 net.cpp:454] conv3_2 <- conv3_1
I0501 09:45:55.073002 11916 net.cpp:411] conv3_2 -> conv3_2
I0501 09:45:55.073859 11916 net.cpp:150] Setting up conv3_2
I0501 09:45:55.073866 11916 net.cpp:157] Top shape: 1 256 150 250 (9600000)
I0501 09:45:55.073868 11916 net.cpp:165] Memory required for data: 1116000028
I0501 09:45:55.073873 11916 layer_factory.hpp:77] Creating layer relu3_2
I0501 09:45:55.073876 11916 net.cpp:106] Creating Layer relu3_2
I0501 09:45:55.073879 11916 net.cpp:454] relu3_2 <- conv3_2
I0501 09:45:55.073880 11916 net.cpp:397] relu3_2 -> conv3_2 (in-place)
I0501 09:45:55.073884 11916 net.cpp:150] Setting up relu3_2
I0501 09:45:55.073886 11916 net.cpp:157] Top shape: 1 256 150 250 (9600000)
I0501 09:45:55.073887 11916 net.cpp:165] Memory required for data: 1154400028
I0501 09:45:55.073889 11916 layer_factory.hpp:77] Creating layer conv3_3
I0501 09:45:55.073894 11916 net.cpp:106] Creating Layer conv3_3
I0501 09:45:55.073896 11916 net.cpp:454] conv3_3 <- conv3_2
I0501 09:45:55.073899 11916 net.cpp:411] conv3_3 -> conv3_3
I0501 09:45:55.074746 11916 net.cpp:150] Setting up conv3_3
I0501 09:45:55.074753 11916 net.cpp:157] Top shape: 1 256 150 250 (9600000)
I0501 09:45:55.074754 11916 net.cpp:165] Memory required for data: 1192800028
I0501 09:45:55.074759 11916 layer_factory.hpp:77] Creating layer relu3_3
I0501 09:45:55.074761 11916 net.cpp:106] Creating Layer relu3_3
I0501 09:45:55.074764 11916 net.cpp:454] relu3_3 <- conv3_3
I0501 09:45:55.074766 11916 net.cpp:397] relu3_3 -> conv3_3 (in-place)
I0501 09:45:55.074770 11916 net.cpp:150] Setting up relu3_3
I0501 09:45:55.074772 11916 net.cpp:157] Top shape: 1 256 150 250 (9600000)
I0501 09:45:55.074774 11916 net.cpp:165] Memory required for data: 1231200028
I0501 09:45:55.074775 11916 layer_factory.hpp:77] Creating layer pool3
I0501 09:45:55.074779 11916 net.cpp:106] Creating Layer pool3
I0501 09:45:55.074780 11916 net.cpp:454] pool3 <- conv3_3
I0501 09:45:55.074782 11916 net.cpp:411] pool3 -> pool3
I0501 09:45:55.074803 11916 net.cpp:150] Setting up pool3
I0501 09:45:55.074806 11916 net.cpp:157] Top shape: 1 256 75 125 (2400000)
I0501 09:45:55.074807 11916 net.cpp:165] Memory required for data: 1240800028
I0501 09:45:55.074808 11916 layer_factory.hpp:77] Creating layer conv4_1
I0501 09:45:55.074812 11916 net.cpp:106] Creating Layer conv4_1
I0501 09:45:55.074815 11916 net.cpp:454] conv4_1 <- pool3
I0501 09:45:55.074816 11916 net.cpp:411] conv4_1 -> conv4_1
I0501 09:45:55.077150 11916 net.cpp:150] Setting up conv4_1
I0501 09:45:55.077167 11916 net.cpp:157] Top shape: 1 512 75 125 (4800000)
I0501 09:45:55.077169 11916 net.cpp:165] Memory required for data: 1260000028
I0501 09:45:55.077175 11916 layer_factory.hpp:77] Creating layer relu4_1
I0501 09:45:55.077181 11916 net.cpp:106] Creating Layer relu4_1
I0501 09:45:55.077185 11916 net.cpp:454] relu4_1 <- conv4_1
I0501 09:45:55.077190 11916 net.cpp:397] relu4_1 -> conv4_1 (in-place)
I0501 09:45:55.077195 11916 net.cpp:150] Setting up relu4_1
I0501 09:45:55.077198 11916 net.cpp:157] Top shape: 1 512 75 125 (4800000)
I0501 09:45:55.077199 11916 net.cpp:165] Memory required for data: 1279200028
I0501 09:45:55.077201 11916 layer_factory.hpp:77] Creating layer conv4_2
I0501 09:45:55.077205 11916 net.cpp:106] Creating Layer conv4_2
I0501 09:45:55.077208 11916 net.cpp:454] conv4_2 <- conv4_1
I0501 09:45:55.077210 11916 net.cpp:411] conv4_2 -> conv4_2
I0501 09:45:55.079906 11916 net.cpp:150] Setting up conv4_2
I0501 09:45:55.079926 11916 net.cpp:157] Top shape: 1 512 75 125 (4800000)
I0501 09:45:55.079928 11916 net.cpp:165] Memory required for data: 1298400028
I0501 09:45:55.079937 11916 layer_factory.hpp:77] Creating layer relu4_2
I0501 09:45:55.079944 11916 net.cpp:106] Creating Layer relu4_2
I0501 09:45:55.079947 11916 net.cpp:454] relu4_2 <- conv4_2
I0501 09:45:55.079952 11916 net.cpp:397] relu4_2 -> conv4_2 (in-place)
I0501 09:45:55.079957 11916 net.cpp:150] Setting up relu4_2
I0501 09:45:55.079959 11916 net.cpp:157] Top shape: 1 512 75 125 (4800000)
I0501 09:45:55.079960 11916 net.cpp:165] Memory required for data: 1317600028
I0501 09:45:55.079962 11916 layer_factory.hpp:77] Creating layer conv4_3
I0501 09:45:55.079967 11916 net.cpp:106] Creating Layer conv4_3
I0501 09:45:55.079968 11916 net.cpp:454] conv4_3 <- conv4_2
I0501 09:45:55.079972 11916 net.cpp:411] conv4_3 -> conv4_3
I0501 09:45:55.082681 11916 net.cpp:150] Setting up conv4_3
I0501 09:45:55.082700 11916 net.cpp:157] Top shape: 1 512 75 125 (4800000)
I0501 09:45:55.082702 11916 net.cpp:165] Memory required for data: 1336800028
I0501 09:45:55.082707 11916 layer_factory.hpp:77] Creating layer relu4_3
I0501 09:45:55.082713 11916 net.cpp:106] Creating Layer relu4_3
I0501 09:45:55.082716 11916 net.cpp:454] relu4_3 <- conv4_3
I0501 09:45:55.082721 11916 net.cpp:397] relu4_3 -> conv4_3 (in-place)
I0501 09:45:55.082727 11916 net.cpp:150] Setting up relu4_3
I0501 09:45:55.082729 11916 net.cpp:157] Top shape: 1 512 75 125 (4800000)
I0501 09:45:55.082731 11916 net.cpp:165] Memory required for data: 1356000028
I0501 09:45:55.082731 11916 layer_factory.hpp:77] Creating layer pool4
I0501 09:45:55.082736 11916 net.cpp:106] Creating Layer pool4
I0501 09:45:55.082737 11916 net.cpp:454] pool4 <- conv4_3
I0501 09:45:55.082741 11916 net.cpp:411] pool4 -> pool4
I0501 09:45:55.082764 11916 net.cpp:150] Setting up pool4
I0501 09:45:55.082767 11916 net.cpp:157] Top shape: 1 512 38 63 (1225728)
I0501 09:45:55.082768 11916 net.cpp:165] Memory required for data: 1360902940
I0501 09:45:55.082770 11916 layer_factory.hpp:77] Creating layer conv5_1
I0501 09:45:55.082774 11916 net.cpp:106] Creating Layer conv5_1
I0501 09:45:55.082777 11916 net.cpp:454] conv5_1 <- pool4
I0501 09:45:55.082779 11916 net.cpp:411] conv5_1 -> conv5_1
I0501 09:45:55.085520 11916 net.cpp:150] Setting up conv5_1
I0501 09:45:55.085536 11916 net.cpp:157] Top shape: 1 512 38 63 (1225728)
I0501 09:45:55.085538 11916 net.cpp:165] Memory required for data: 1365805852
I0501 09:45:55.085543 11916 layer_factory.hpp:77] Creating layer relu5_1
I0501 09:45:55.085549 11916 net.cpp:106] Creating Layer relu5_1
I0501 09:45:55.085553 11916 net.cpp:454] relu5_1 <- conv5_1
I0501 09:45:55.085557 11916 net.cpp:397] relu5_1 -> conv5_1 (in-place)
I0501 09:45:55.085563 11916 net.cpp:150] Setting up relu5_1
I0501 09:45:55.085566 11916 net.cpp:157] Top shape: 1 512 38 63 (1225728)
I0501 09:45:55.085567 11916 net.cpp:165] Memory required for data: 1370708764
I0501 09:45:55.085568 11916 layer_factory.hpp:77] Creating layer conv5_2
I0501 09:45:55.085572 11916 net.cpp:106] Creating Layer conv5_2
I0501 09:45:55.085575 11916 net.cpp:454] conv5_2 <- conv5_1
I0501 09:45:55.085577 11916 net.cpp:411] conv5_2 -> conv5_2
I0501 09:45:55.088289 11916 net.cpp:150] Setting up conv5_2
I0501 09:45:55.088305 11916 net.cpp:157] Top shape: 1 512 38 63 (1225728)
I0501 09:45:55.088306 11916 net.cpp:165] Memory required for data: 1375611676
I0501 09:45:55.088311 11916 layer_factory.hpp:77] Creating layer relu5_2
I0501 09:45:55.088317 11916 net.cpp:106] Creating Layer relu5_2
I0501 09:45:55.088320 11916 net.cpp:454] relu5_2 <- conv5_2
I0501 09:45:55.088325 11916 net.cpp:397] relu5_2 -> conv5_2 (in-place)
I0501 09:45:55.088330 11916 net.cpp:150] Setting up relu5_2
I0501 09:45:55.088331 11916 net.cpp:157] Top shape: 1 512 38 63 (1225728)
I0501 09:45:55.088333 11916 net.cpp:165] Memory required for data: 1380514588
I0501 09:45:55.088335 11916 layer_factory.hpp:77] Creating layer conv5_3
I0501 09:45:55.088340 11916 net.cpp:106] Creating Layer conv5_3
I0501 09:45:55.088341 11916 net.cpp:454] conv5_3 <- conv5_2
I0501 09:45:55.088343 11916 net.cpp:411] conv5_3 -> conv5_3
I0501 09:45:55.091095 11916 net.cpp:150] Setting up conv5_3
I0501 09:45:55.091115 11916 net.cpp:157] Top shape: 1 512 38 63 (1225728)
I0501 09:45:55.091117 11916 net.cpp:165] Memory required for data: 1385417500
I0501 09:45:55.091122 11916 layer_factory.hpp:77] Creating layer relu5_3
I0501 09:45:55.091130 11916 net.cpp:106] Creating Layer relu5_3
I0501 09:45:55.091132 11916 net.cpp:454] relu5_3 <- conv5_3
I0501 09:45:55.091137 11916 net.cpp:397] relu5_3 -> conv5_3 (in-place)
I0501 09:45:55.091142 11916 net.cpp:150] Setting up relu5_3
I0501 09:45:55.091145 11916 net.cpp:157] Top shape: 1 512 38 63 (1225728)
I0501 09:45:55.091146 11916 net.cpp:165] Memory required for data: 1390320412
I0501 09:45:55.091148 11916 layer_factory.hpp:77] Creating layer rpn_conv/3x3
I0501 09:45:55.091156 11916 net.cpp:106] Creating Layer rpn_conv/3x3
I0501 09:45:55.091158 11916 net.cpp:454] rpn_conv/3x3 <- conv5_3
I0501 09:45:55.091161 11916 net.cpp:411] rpn_conv/3x3 -> rpn/output
I0501 09:45:55.107977 11916 net.cpp:150] Setting up rpn_conv/3x3
I0501 09:45:55.107990 11916 net.cpp:157] Top shape: 1 512 38 63 (1225728)
I0501 09:45:55.107992 11916 net.cpp:165] Memory required for data: 1395223324
I0501 09:45:55.107997 11916 layer_factory.hpp:77] Creating layer rpn_relu/3x3
I0501 09:45:55.108005 11916 net.cpp:106] Creating Layer rpn_relu/3x3
I0501 09:45:55.108007 11916 net.cpp:454] rpn_relu/3x3 <- rpn/output
I0501 09:45:55.108011 11916 net.cpp:397] rpn_relu/3x3 -> rpn/output (in-place)
I0501 09:45:55.108017 11916 net.cpp:150] Setting up rpn_relu/3x3
I0501 09:45:55.108021 11916 net.cpp:157] Top shape: 1 512 38 63 (1225728)
I0501 09:45:55.108021 11916 net.cpp:165] Memory required for data: 1400126236
I0501 09:45:55.108023 11916 layer_factory.hpp:77] Creating layer rpn/output_rpn_relu/3x3_0_split
I0501 09:45:55.108026 11916 net.cpp:106] Creating Layer rpn/output_rpn_relu/3x3_0_split
I0501 09:45:55.108027 11916 net.cpp:454] rpn/output_rpn_relu/3x3_0_split <- rpn/output
I0501 09:45:55.108029 11916 net.cpp:411] rpn/output_rpn_relu/3x3_0_split -> rpn/output_rpn_relu/3x3_0_split_0
I0501 09:45:55.108033 11916 net.cpp:411] rpn/output_rpn_relu/3x3_0_split -> rpn/output_rpn_relu/3x3_0_split_1
I0501 09:45:55.108055 11916 net.cpp:150] Setting up rpn/output_rpn_relu/3x3_0_split
I0501 09:45:55.108058 11916 net.cpp:157] Top shape: 1 512 38 63 (1225728)
I0501 09:45:55.108059 11916 net.cpp:157] Top shape: 1 512 38 63 (1225728)
I0501 09:45:55.108062 11916 net.cpp:165] Memory required for data: 1409932060
I0501 09:45:55.108062 11916 layer_factory.hpp:77] Creating layer rpn_cls_score
I0501 09:45:55.108068 11916 net.cpp:106] Creating Layer rpn_cls_score
I0501 09:45:55.108070 11916 net.cpp:454] rpn_cls_score <- rpn/output_rpn_relu/3x3_0_split_0
I0501 09:45:55.108073 11916 net.cpp:411] rpn_cls_score -> rpn_cls_score
I0501 09:45:55.108263 11916 net.cpp:150] Setting up rpn_cls_score
I0501 09:45:55.108266 11916 net.cpp:157] Top shape: 1 18 38 63 (43092)
I0501 09:45:55.108268 11916 net.cpp:165] Memory required for data: 1410104428
I0501 09:45:55.108270 11916 layer_factory.hpp:77] Creating layer rpn_cls_score_rpn_cls_score_0_split
I0501 09:45:55.108273 11916 net.cpp:106] Creating Layer rpn_cls_score_rpn_cls_score_0_split
I0501 09:45:55.108275 11916 net.cpp:454] rpn_cls_score_rpn_cls_score_0_split <- rpn_cls_score
I0501 09:45:55.108278 11916 net.cpp:411] rpn_cls_score_rpn_cls_score_0_split -> rpn_cls_score_rpn_cls_score_0_split_0
I0501 09:45:55.108281 11916 net.cpp:411] rpn_cls_score_rpn_cls_score_0_split -> rpn_cls_score_rpn_cls_score_0_split_1
I0501 09:45:55.108299 11916 net.cpp:150] Setting up rpn_cls_score_rpn_cls_score_0_split
I0501 09:45:55.108302 11916 net.cpp:157] Top shape: 1 18 38 63 (43092)
I0501 09:45:55.108304 11916 net.cpp:157] Top shape: 1 18 38 63 (43092)
I0501 09:45:55.108306 11916 net.cpp:165] Memory required for data: 1410449164
I0501 09:45:55.108309 11916 layer_factory.hpp:77] Creating layer rpn_bbox_pred
I0501 09:45:55.108311 11916 net.cpp:106] Creating Layer rpn_bbox_pred
I0501 09:45:55.108314 11916 net.cpp:454] rpn_bbox_pred <- rpn/output_rpn_relu/3x3_0_split_1
I0501 09:45:55.108317 11916 net.cpp:411] rpn_bbox_pred -> rpn_bbox_pred
I0501 09:45:55.108564 11916 net.cpp:150] Setting up rpn_bbox_pred
I0501 09:45:55.108567 11916 net.cpp:157] Top shape: 1 36 38 63 (86184)
I0501 09:45:55.108569 11916 net.cpp:165] Memory required for data: 1410793900
I0501 09:45:55.108572 11916 layer_factory.hpp:77] Creating layer rpn_cls_score_reshape
I0501 09:45:55.108582 11916 net.cpp:106] Creating Layer rpn_cls_score_reshape
I0501 09:45:55.108584 11916 net.cpp:454] rpn_cls_score_reshape <- rpn_cls_score_rpn_cls_score_0_split_0
I0501 09:45:55.108587 11916 net.cpp:411] rpn_cls_score_reshape -> rpn_cls_score_reshape
I0501 09:45:55.108603 11916 net.cpp:150] Setting up rpn_cls_score_reshape
I0501 09:45:55.108605 11916 net.cpp:157] Top shape: 1 2 342 63 (43092)
I0501 09:45:55.108606 11916 net.cpp:165] Memory required for data: 1410966268
I0501 09:45:55.108608 11916 layer_factory.hpp:77] Creating layer rpn-data
I0501 09:45:55.108875 11916 net.cpp:106] Creating Layer rpn-data
I0501 09:45:55.108880 11916 net.cpp:454] rpn-data <- rpn_cls_score_rpn_cls_score_0_split_1
I0501 09:45:55.108882 11916 net.cpp:454] rpn-data <- gt_boxes
I0501 09:45:55.108886 11916 net.cpp:454] rpn-data <- im_info
I0501 09:45:55.108887 11916 net.cpp:454] rpn-data <- data_input-data_0_split_1
I0501 09:45:55.108891 11916 net.cpp:411] rpn-data -> rpn_labels
I0501 09:45:55.108896 11916 net.cpp:411] rpn-data -> rpn_bbox_targets
I0501 09:45:55.108901 11916 net.cpp:411] rpn-data -> rpn_bbox_inside_weights
I0501 09:45:55.108907 11916 net.cpp:411] rpn-data -> rpn_bbox_outside_weights
I0501 09:45:55.109385 11916 net.cpp:150] Setting up rpn-data
I0501 09:45:55.109392 11916 net.cpp:157] Top shape: 1 1 342 63 (21546)
I0501 09:45:55.109395 11916 net.cpp:157] Top shape: 1 36 38 63 (86184)
I0501 09:45:55.109397 11916 net.cpp:157] Top shape: 1 36 38 63 (86184)
I0501 09:45:55.109400 11916 net.cpp:157] Top shape: 1 36 38 63 (86184)
I0501 09:45:55.109401 11916 net.cpp:165] Memory required for data: 1412086660
I0501 09:45:55.109403 11916 layer_factory.hpp:77] Creating layer rpn_loss_cls
I0501 09:45:55.109411 11916 net.cpp:106] Creating Layer rpn_loss_cls
I0501 09:45:55.109413 11916 net.cpp:454] rpn_loss_cls <- rpn_cls_score_reshape
I0501 09:45:55.109416 11916 net.cpp:454] rpn_loss_cls <- rpn_labels
I0501 09:45:55.109424 11916 net.cpp:411] rpn_loss_cls -> rpn_cls_loss
…
I0501 09:45:55.109868 11916 net.cpp:150] Setting up rpn_loss_bbox
I0501 09:45:55.109870 11916 net.cpp:157] Top shape: (1)
I0501 09:45:55.109872 11916 net.cpp:160]     with loss weight 1
I0501 09:45:55.109874 11916 net.cpp:165] Memory required for data: 1412086668
I0501 09:45:55.109875 11916 layer_factory.hpp:77] Creating layer dummy_roi_pool_conv5
I0501 09:45:55.109882 11916 net.cpp:106] Creating Layer dummy_roi_pool_conv5
I0501 09:45:55.109885 11916 net.cpp:411] dummy_roi_pool_conv5 -> dummy_roi_pool_conv5
I0501 09:45:55.109920 11916 net.cpp:150] Setting up dummy_roi_pool_conv5
I0501 09:45:55.109923 11916 net.cpp:157] Top shape: 1 25088 (25088)
I0501 09:45:55.109925 11916 net.cpp:165] Memory required for data: 1412187020
I0501 09:45:55.109925 11916 layer_factory.hpp:77] Creating layer fc6
I0501 09:45:55.109930 11916 net.cpp:106] Creating Layer fc6
I0501 09:45:55.109931 11916 net.cpp:454] fc6 <- dummy_roi_pool_conv5
I0501 09:45:55.109935 11916 net.cpp:411] fc6 -> fc6
I0501 09:45:55.213083 11916 net.cpp:150] Setting up fc6
I0501 09:45:55.213101 11916 net.cpp:157] Top shape: 1 4096 (4096)
I0501 09:45:55.213104 11916 net.cpp:165] Memory required for data: 1412203404
I0501 09:45:55.213115 11916 layer_factory.hpp:77] Creating layer relu6
I0501 09:45:55.213124 11916 net.cpp:106] Creating Layer relu6
I0501 09:45:55.213127 11916 net.cpp:454] relu6 <- fc6
I0501 09:45:55.213131 11916 net.cpp:397] relu6 -> fc6 (in-place)
I0501 09:45:55.213136 11916 net.cpp:150] Setting up relu6
I0501 09:45:55.213138 11916 net.cpp:157] Top shape: 1 4096 (4096)
I0501 09:45:55.213140 11916 net.cpp:165] Memory required for data: 1412219788
I0501 09:45:55.213141 11916 layer_factory.hpp:77] Creating layer drop6
I0501 09:45:55.213145 11916 net.cpp:106] Creating Layer drop6
I0501 09:45:55.213147 11916 net.cpp:454] drop6 <- fc6
I0501 09:45:55.213150 11916 net.cpp:397] drop6 -> fc6 (in-place)
I0501 09:45:55.213165 11916 net.cpp:150] Setting up drop6
I0501 09:45:55.213166 11916 net.cpp:157] Top shape: 1 4096 (4096)
I0501 09:45:55.213167 11916 net.cpp:165] Memory required for data: 1412236172
I0501 09:45:55.213168 11916 layer_factory.hpp:77] Creating layer fc7
I0501 09:45:55.213172 11916 net.cpp:106] Creating Layer fc7
I0501 09:45:55.213173 11916 net.cpp:454] fc7 <- fc6
I0501 09:45:55.213176 11916 net.cpp:411] fc7 -> fc7
I0501 09:45:55.230398 11916 net.cpp:150] Setting up fc7
I0501 09:45:55.230417 11916 net.cpp:157] Top shape: 1 4096 (4096)
I0501 09:45:55.230418 11916 net.cpp:165] Memory required for data: 1412252556
I0501 09:45:55.230424 11916 layer_factory.hpp:77] Creating layer silence_fc7
I0501 09:45:55.230432 11916 net.cpp:106] Creating Layer silence_fc7
I0501 09:45:55.230434 11916 net.cpp:454] silence_fc7 <- fc7
I0501 09:45:55.230439 11916 net.cpp:150] Setting up silence_fc7
I0501 09:45:55.230442 11916 net.cpp:165] Memory required for data: 1412252556
…
           'SCALES': [600],
           'SNAPSHOT_INFIX': 'stage1',
           'SNAPSHOT_ITERS': 10000,
           'USE_FLIPPED': True,
           'USE_PREFETCH': False},
 'USE_GPU_NMS': True}
Loaded dataset `voc_2007_trainval` for proposal generation
WARNING: Logging before InitGoogleLogging() is written to STDERR
I0501 13:00:33.001678 13185 net.cpp:49] Initializing net from parameters: 
name: "VGG_ILSVRC_16_layers"
input: "data"
input: "im_info"
state {
  phase: TEST
}
input_shape {
  dim: 1
  dim: 3
  dim: 224
  dim: 224
}
input_shape {
  dim: 1
  dim: 3
}
layer {
  name: "conv1_1"
  type: "Convolution"
  bottom: "data"
  top: "conv1_1"
  convolution_param {
    num_output: 64
    pad: 1
    kernel_size: 3
  }
}
layer {
  name: "relu1_1"
  type: "ReLU"
  bottom: "conv1_1"
  top: "conv1_1"
}
layer {
  name: "conv1_2"
  type: "Convolution"
  bottom: "conv1_1"
  top: "conv1_2"
  convolution_param {
    num_output: 64
    pad: 1
    kernel_size: 3
  }
}
layer {
  name: "relu1_2"
  type: "ReLU"
  bottom: "conv1_2"
  top: "conv1_2"
}
layer {
  name: "pool1"
  type: "Pooling"
  bottom: "conv1_2"
  top: "pool1"
  pooling_param {
    pool: MAX
    kernel_size: 2
    stride: 2
  }
}
layer {
  name: "conv2_1"
  type: "Convolution"
  bottom: "pool1"
  top: "conv2_1"
  convolution_param {
    num_output: 128
    pad: 1
    kernel_size: 3
  }
}
layer {
  name: "relu2_1"
  type: "ReLU"
  bottom: "conv2_1"
  top: "conv2_1"
}
layer {
  name: "conv2_2"
  type: "Convolution"
  bottom: "conv2_1"
  top: "conv2_2"
  convolution_param {
    num_output: 128
    pad: 1
    kernel_size: 3
  }
}
layer {
  name: "relu2_2"
  type: "ReLU"
  bottom: "conv2_2"
  top: "conv2_2"
}
layer {
  name: "pool2"
  type: "Pooling"
  bottom: "conv2_2"
  top: "pool2"
  pooling_param {
    pool: MAX
    kernel_size: 2
    stride: 2
  }
}
layer {
  name: "conv3_1"
  type: "Convolution"
  bottom: "pool2"
  top: "conv3_1"
  convolution_param {
    num_output: 256
    pad: 1
    kernel_size: 3
  }
}
layer {
  name: "relu3_1"
  type: "ReLU"
  bottom: "conv3_1"
  top: "conv3_1"
}
layer {
  name: "conv3_2"
  type: "Convolution"
  bottom: "conv3_1"
  top: "conv3_2"
  convolution_param {
    num_output: 256
    pad: 1
    kernel_size: 3
  }
}
layer {
  name: "relu3_2"
  type: "ReLU"
  bottom: "conv3_2"
  top: "conv3_2"
}
layer {
  name: "conv3_3"
  type: "Convolution"
  bottom: "conv3_2"
  top: "conv3_3"
  convolution_param {
    num_output: 256
    pad: 1
    kernel_size: 3
  }
}
layer {
  name: "relu3_3"
  type: "ReLU"
  bottom: "conv3_3"
  top: "conv3_3"
}
layer {
  name: "pool3"
  type: "Pooling"
  bottom: "conv3_3"
  top: "pool3"
  pooling_param {
    pool: MAX
    kernel_size: 2
    stride: 2
  }
}
layer {
  name: "conv4_1"
  type: "Convolution"
  bottom: "pool3"
  top: "conv4_1"
  convolution_param {
    num_output: 512
    pad: 1
    kernel_size: 3
  }
}
layer {
  name: "relu4_1"
  type: "ReLU"
  bottom: "conv4_1"
  top: "conv4_1"
}
layer {
  name: "conv4_2"
  type: "Convolution"
  bottom: "conv4_1"
  top: "conv4_2"
  convolution_param {
    num_output: 512
    pad: 1
    kernel_size: 3
  }
}
layer {
  name: "relu4_2"
  type: "ReLU"
  bottom: "conv4_2"
  top: "conv4_2"
}
layer {
  name: "conv4_3"
  type: "Convolution"
  bottom: "conv4_2"
  top: "conv4_3"
  convolution_param {
    num_output: 512
    pad: 1
    kernel_size: 3
  }
}
layer {
  name: "relu4_3"
  type: "ReLU"
  bottom: "conv4_3"
  top: "conv4_3"
}
layer {
  name: "pool4"
  type: "Pooling"
  bottom: "conv4_3"
  top: "pool4"
  pooling_param {
    pool: MAX
    kernel_size: 2
    stride: 2
  }
}
layer {
  name: "conv5_1"
  type: "Convolution"
  bottom: "pool4"
  top: "conv5_1"
  convolution_param {
    num_output: 512
    pad: 1
    kernel_size: 3
  }
}
layer {
  name: "relu5_1"
  type: "ReLU"
  bottom: "conv5_1"
  top: "conv5_1"
}
layer {
  name: "conv5_2"
  type: "Convolution"
  bottom: "conv5_1"
  top: "conv5_2"
  convolution_param {
    num_output: 512
    pad: 1
    kernel_size: 3
  }
}
layer {
  name: "relu5_2"
  type: "ReLU"
  bottom: "conv5_2"
  top: "conv5_2"
}
layer {
  name: "conv5_3"
  type: "Convolution"
  bottom: "conv5_2"
  top: "conv5_3"
  convolution_param {
    num_output: 512
    pad: 1
    kernel_size: 3
  }
}
layer {
  name: "relu5_3"
  type: "ReLU"
  bottom: "conv5_3"
  top: "conv5_3"
}
layer {
  name: "rpn_conv/3x3"
  type: "Convolution"
  bottom: "conv5_3"
  top: "rpn/output"
  convolution_param {
    num_output: 512
    pad: 1
    kernel_size: 3
    stride: 1
  }
}
layer {
  name: "rpn_relu/3x3"
  type: "ReLU"
  bottom: "rpn/output"
  top: "rpn/output"
}
layer {
  name: "rpn_cls_score"
  type: "Convolution"
  bottom: "rpn/output"
  top: "rpn_cls_score"
  convolution_param {
    num_output: 18
    pad: 0
    kernel_size: 1
    stride: 1
  }
}
layer {
  name: "rpn_bbox_pred"
  type: "Convolution"
  bottom: "rpn/output"
  top: "rpn_bbox_pred"
  convolution_param {
    num_output: 36
    pad: 0
    kernel_size: 1
    stride: 1
  }
}
layer {
  name: "rpn_cls_score_reshape"
  type: "Reshape"
  bottom: "rpn_cls_score"
  top: "rpn_cls_score_reshape"
  reshape_param {
    shape {
      dim: 0
      dim: 2
      dim: -1
      dim: 0
    }
  }
}
layer {
  name: "rpn_cls_prob"
  type: "Softmax"
  bottom: "rpn_cls_score_reshape"
  top: "rpn_cls_prob"
}
layer {
  name: "rpn_cls_prob_reshape"
  type: "Reshape"
  bottom: "rpn_cls_prob"
  top: "rpn_cls_prob_reshape"
  reshape_param {
    shape {
      dim: 0
      dim: 18
      dim: -1
      dim: 0
    }
  }
}
layer {
  name: "proposal"
  type: "Python"
  bottom: "rpn_cls_prob_reshape"
  bottom: "rpn_bbox_pred"
  bottom: "im_info"
  top: "rois"
  top: "scores"
  python_param {
    module: "rpn.proposal_layer"
    layer: "ProposalLayer"
    param_str: "\'feat_stride\': 16"
  }
}
I0501 13:00:33.001786 13185 net.cpp:413] Input 0 -> data
I0501 13:00:33.010406 13185 net.cpp:413] Input 1 -> im_info
I0501 13:00:33.010454 13185 layer_factory.hpp:77] Creating layer conv1_1
I0501 13:00:33.010466 13185 net.cpp:106] Creating Layer conv1_1
I0501 13:00:33.010469 13185 net.cpp:454] conv1_1 <- data
I0501 13:00:33.010473 13185 net.cpp:411] conv1_1 -> conv1_1
I0501 13:00:33.011487 13185 net.cpp:150] Setting up conv1_1
I0501 13:00:33.011510 13185 net.cpp:157] Top shape: 1 64 224 224 (3211264)
I0501 13:00:33.011512 13185 net.cpp:165] Memory required for data: 12845056
I0501 13:00:33.011519 13185 layer_factory.hpp:77] Creating layer relu1_1
I0501 13:00:33.011523 13185 net.cpp:106] Creating Layer relu1_1
I0501 13:00:33.011525 13185 net.cpp:454] relu1_1 <- conv1_1
I0501 13:00:33.011528 13185 net.cpp:397] relu1_1 -> conv1_1 (in-place)
I0501 13:00:33.011533 13185 net.cpp:150] Setting up relu1_1
I0501 13:00:33.011535 13185 net.cpp:157] Top shape: 1 64 224 224 (3211264)
I0501 13:00:33.011538 13185 net.cpp:165] Memory required for data: 25690112
I0501 13:00:33.011538 13185 layer_factory.hpp:77] Creating layer conv1_2
I0501 13:00:33.011543 13185 net.cpp:106] Creating Layer conv1_2
I0501 13:00:33.011544 13185 net.cpp:454] conv1_2 <- conv1_1
I0501 13:00:33.011546 13185 net.cpp:411] conv1_2 -> conv1_2
I0501 13:00:33.011701 13185 net.cpp:150] Setting up conv1_2
I0501 13:00:33.011704 13185 net.cpp:157] Top shape: 1 64 224 224 (3211264)
I0501 13:00:33.011706 13185 net.cpp:165] Memory required for data: 38535168
I0501 13:00:33.011709 13185 layer_factory.hpp:77] Creating layer relu1_2
I0501 13:00:33.011726 13185 net.cpp:106] Creating Layer relu1_2
I0501 13:00:33.011728 13185 net.cpp:454] relu1_2 <- conv1_2
I0501 13:00:33.011730 13185 net.cpp:397] relu1_2 -> conv1_2 (in-place)
I0501 13:00:33.011732 13185 net.cpp:150] Setting up relu1_2
I0501 13:00:33.011734 13185 net.cpp:157] Top shape: 1 64 224 224 (3211264)
I0501 13:00:33.011736 13185 net.cpp:165] Memory required for data: 51380224
I0501 13:00:33.011737 13185 layer_factory.hpp:77] Creating layer pool1
I0501 13:00:33.011740 13185 net.cpp:106] Creating Layer pool1
I0501 13:00:33.011744 13185 net.cpp:454] pool1 <- conv1_2
I0501 13:00:33.011745 13185 net.cpp:411] pool1 -> pool1
I0501 13:00:33.011766 13185 net.cpp:150] Setting up pool1
I0501 13:00:33.011781 13185 net.cpp:157] Top shape: 1 64 112 112 (802816)
I0501 13:00:33.011783 13185 net.cpp:165] Memory required for data: 54591488
I0501 13:00:33.011785 13185 layer_factory.hpp:77] Creating layer conv2_1
I0501 13:00:33.011787 13185 net.cpp:106] Creating Layer conv2_1
I0501 13:00:33.011788 13185 net.cpp:454] conv2_1 <- pool1
I0501 13:00:33.011804 13185 net.cpp:411] conv2_1 -> conv2_1
I0501 13:00:33.012775 13185 net.cpp:150] Setting up conv2_1
I0501 13:00:33.012781 13185 net.cpp:157] Top shape: 1 128 112 112 (1605632)
I0501 13:00:33.012784 13185 net.cpp:165] Memory required for data: 61014016
I0501 13:00:33.012802 13185 layer_factory.hpp:77] Creating layer relu2_1
I0501 13:00:33.012805 13185 net.cpp:106] Creating Layer relu2_1
I0501 13:00:33.012806 13185 net.cpp:454] relu2_1 <- conv2_1
I0501 13:00:33.012809 13185 net.cpp:397] relu2_1 -> conv2_1 (in-place)
I0501 13:00:33.012814 13185 net.cpp:150] Setting up relu2_1
I0501 13:00:33.012816 13185 net.cpp:157] Top shape: 1 128 112 112 (1605632)
I0501 13:00:33.012817 13185 net.cpp:165] Memory required for data: 67436544
I0501 13:00:33.012820 13185 layer_factory.hpp:77] Creating layer conv2_2
I0501 13:00:33.012822 13185 net.cpp:106] Creating Layer conv2_2
I0501 13:00:33.012825 13185 net.cpp:454] conv2_2 <- conv2_1
I0501 13:00:33.012826 13185 net.cpp:411] conv2_2 -> conv2_2
I0501 13:00:33.013002 13185 net.cpp:150] Setting up conv2_2
I0501 13:00:33.013006 13185 net.cpp:157] Top shape: 1 128 112 112 (1605632)
I0501 13:00:33.013007 13185 net.cpp:165] Memory required for data: 73859072
I0501 13:00:33.013025 13185 layer_factory.hpp:77] Creating layer relu2_2
I0501 13:00:33.013027 13185 net.cpp:106] Creating Layer relu2_2
I0501 13:00:33.013029 13185 net.cpp:454] relu2_2 <- conv2_2
I0501 13:00:33.013031 13185 net.cpp:397] relu2_2 -> conv2_2 (in-place)
I0501 13:00:33.013036 13185 net.cpp:150] Setting up relu2_2
I0501 13:00:33.013037 13185 net.cpp:157] Top shape: 1 128 112 112 (1605632)
I0501 13:00:33.013039 13185 net.cpp:165] Memory required for data: 80281600
I0501 13:00:33.013041 13185 layer_factory.hpp:77] Creating layer pool2
I0501 13:00:33.013043 13185 net.cpp:106] Creating Layer pool2
I0501 13:00:33.013046 13185 net.cpp:454] pool2 <- conv2_2
I0501 13:00:33.013047 13185 net.cpp:411] pool2 -> pool2
I0501 13:00:33.013065 13185 net.cpp:150] Setting up pool2
I0501 13:00:33.013068 13185 net.cpp:157] Top shape: 1 128 56 56 (401408)
I0501 13:00:33.013069 13185 net.cpp:165] Memory required for data: 81887232
I0501 13:00:33.013072 13185 layer_factory.hpp:77] Creating layer conv3_1
I0501 13:00:33.013074 13185 net.cpp:106] Creating Layer conv3_1
I0501 13:00:33.013075 13185 net.cpp:454] conv3_1 <- pool2
I0501 13:00:33.013077 13185 net.cpp:411] conv3_1 -> conv3_1
I0501 13:00:33.013304 13185 net.cpp:150] Setting up conv3_1
I0501 13:00:33.013308 13185 net.cpp:157] Top shape: 1 256 56 56 (802816)
I0501 13:00:33.013309 13185 net.cpp:165] Memory required for data: 85098496
I0501 13:00:33.013327 13185 layer_factory.hpp:77] Creating layer relu3_1
I0501 13:00:33.013329 13185 net.cpp:106] Creating Layer relu3_1
I0501 13:00:33.013331 13185 net.cpp:454] relu3_1 <- conv3_1
I0501 13:00:33.013334 13185 net.cpp:397] relu3_1 -> conv3_1 (in-place)
I0501 13:00:33.013337 13185 net.cpp:150] Setting up relu3_1
I0501 13:00:33.013339 13185 net.cpp:157] Top shape: 1 256 56 56 (802816)
I0501 13:00:33.013341 13185 net.cpp:165] Memory required for data: 88309760
I0501 13:00:33.013342 13185 layer_factory.hpp:77] Creating layer conv3_2
I0501 13:00:33.013345 13185 net.cpp:106] Creating Layer conv3_2
I0501 13:00:33.013347 13185 net.cpp:454] conv3_2 <- conv3_1
I0501 13:00:33.013350 13185 net.cpp:411] conv3_2 -> conv3_2
I0501 13:00:33.014159 13185 net.cpp:150] Setting up conv3_2
I0501 13:00:33.014180 13185 net.cpp:157] Top shape: 1 256 56 56 (802816)
I0501 13:00:33.014183 13185 net.cpp:165] Memory required for data: 91521024
I0501 13:00:33.014185 13185 layer_factory.hpp:77] Creating layer relu3_2
I0501 13:00:33.014189 13185 net.cpp:106] Creating Layer relu3_2
I0501 13:00:33.014190 13185 net.cpp:454] relu3_2 <- conv3_2
I0501 13:00:33.014194 13185 net.cpp:397] relu3_2 -> conv3_2 (in-place)
I0501 13:00:33.014197 13185 net.cpp:150] Setting up relu3_2
I0501 13:00:33.014199 13185 net.cpp:157] Top shape: 1 256 56 56 (802816)
I0501 13:00:33.014201 13185 net.cpp:165] Memory required for data: 94732288
I0501 13:00:33.014202 13185 layer_factory.hpp:77] Creating layer conv3_3
I0501 13:00:33.014205 13185 net.cpp:106] Creating Layer conv3_3
I0501 13:00:33.014207 13185 net.cpp:454] conv3_3 <- conv3_2
I0501 13:00:33.014209 13185 net.cpp:411] conv3_3 -> conv3_3
I0501 13:00:33.015017 13185 net.cpp:150] Setting up conv3_3
I0501 13:00:33.015023 13185 net.cpp:157] Top shape: 1 256 56 56 (802816)
I0501 13:00:33.015039 13185 net.cpp:165] Memory required for data: 97943552
I0501 13:00:33.015043 13185 layer_factory.hpp:77] Creating layer relu3_3
I0501 13:00:33.015045 13185 net.cpp:106] Creating Layer relu3_3
I0501 13:00:33.015048 13185 net.cpp:454] relu3_3 <- conv3_3
I0501 13:00:33.015049 13185 net.cpp:397] relu3_3 -> conv3_3 (in-place)
I0501 13:00:33.015053 13185 net.cpp:150] Setting up relu3_3
I0501 13:00:33.015056 13185 net.cpp:157] Top shape: 1 256 56 56 (802816)
I0501 13:00:33.015058 13185 net.cpp:165] Memory required for data: 101154816
I0501 13:00:33.015059 13185 layer_factory.hpp:77] Creating layer pool3
I0501 13:00:33.015064 13185 net.cpp:106] Creating Layer pool3
I0501 13:00:33.015065 13185 net.cpp:454] pool3 <- conv3_3
I0501 13:00:33.015067 13185 net.cpp:411] pool3 -> pool3
I0501 13:00:33.015087 13185 net.cpp:150] Setting up pool3
I0501 13:00:33.015090 13185 net.cpp:157] Top shape: 1 256 28 28 (200704)
I0501 13:00:33.015091 13185 net.cpp:165] Memory required for data: 101957632
I0501 13:00:33.015094 13185 layer_factory.hpp:77] Creating layer conv4_1
I0501 13:00:33.015096 13185 net.cpp:106] Creating Layer conv4_1
I0501 13:00:33.015097 13185 net.cpp:454] conv4_1 <- pool3
I0501 13:00:33.015112 13185 net.cpp:411] conv4_1 -> conv4_1
I0501 13:00:33.016955 13185 net.cpp:150] Setting up conv4_1
I0501 13:00:33.016983 13185 net.cpp:157] Top shape: 1 512 28 28 (401408)
I0501 13:00:33.016984 13185 net.cpp:165] Memory required for data: 103563264
I0501 13:00:33.016989 13185 layer_factory.hpp:77] Creating layer relu4_1
I0501 13:00:33.016994 13185 net.cpp:106] Creating Layer relu4_1
I0501 13:00:33.016997 13185 net.cpp:454] relu4_1 <- conv4_1
I0501 13:00:33.017001 13185 net.cpp:397] relu4_1 -> conv4_1 (in-place)
I0501 13:00:33.017007 13185 net.cpp:150] Setting up relu4_1
I0501 13:00:33.017009 13185 net.cpp:157] Top shape: 1 512 28 28 (401408)
I0501 13:00:33.017011 13185 net.cpp:165] Memory required for data: 105168896
I0501 13:00:33.017012 13185 layer_factory.hpp:77] Creating layer conv4_2
I0501 13:00:33.017016 13185 net.cpp:106] Creating Layer conv4_2
I0501 13:00:33.017019 13185 net.cpp:454] conv4_2 <- conv4_1
I0501 13:00:33.017021 13185 net.cpp:411] conv4_2 -> conv4_2
I0501 13:00:33.019676 13185 net.cpp:150] Setting up conv4_2
I0501 13:00:33.019711 13185 net.cpp:157] Top shape: 1 512 28 28 (401408)
I0501 13:00:33.019713 13185 net.cpp:165] Memory required for data: 106774528
I0501 13:00:33.019722 13185 layer_factory.hpp:77] Creating layer relu4_2
I0501 13:00:33.019729 13185 net.cpp:106] Creating Layer relu4_2
I0501 13:00:33.019732 13185 net.cpp:454] relu4_2 <- conv4_2
I0501 13:00:33.019737 13185 net.cpp:397] relu4_2 -> conv4_2 (in-place)
I0501 13:00:33.019740 13185 net.cpp:150] Setting up relu4_2
I0501 13:00:33.019754 13185 net.cpp:157] Top shape: 1 512 28 28 (401408)
I0501 13:00:33.019755 13185 net.cpp:165] Memory required for data: 108380160
I0501 13:00:33.019757 13185 layer_factory.hpp:77] Creating layer conv4_3
I0501 13:00:33.019762 13185 net.cpp:106] Creating Layer conv4_3
I0501 13:00:33.019763 13185 net.cpp:454] conv4_3 <- conv4_2
I0501 13:00:33.019767 13185 net.cpp:411] conv4_3 -> conv4_3
I0501 13:00:33.022449 13185 net.cpp:150] Setting up conv4_3
I0501 13:00:33.022480 13185 net.cpp:157] Top shape: 1 512 28 28 (401408)
I0501 13:00:33.022482 13185 net.cpp:165] Memory required for data: 109985792
I0501 13:00:33.022488 13185 layer_factory.hpp:77] Creating layer relu4_3
I0501 13:00:33.022495 13185 net.cpp:106] Creating Layer relu4_3
I0501 13:00:33.022497 13185 net.cpp:454] relu4_3 <- conv4_3
I0501 13:00:33.022501 13185 net.cpp:397] relu4_3 -> conv4_3 (in-place)
I0501 13:00:33.022506 13185 net.cpp:150] Setting up relu4_3
I0501 13:00:33.022509 13185 net.cpp:157] Top shape: 1 512 28 28 (401408)
I0501 13:00:33.022511 13185 net.cpp:165] Memory required for data: 111591424
I0501 13:00:33.022512 13185 layer_factory.hpp:77] Creating layer pool4
I0501 13:00:33.022516 13185 net.cpp:106] Creating Layer pool4
I0501 13:00:33.022517 13185 net.cpp:454] pool4 <- conv4_3
I0501 13:00:33.022519 13185 net.cpp:411] pool4 -> pool4
I0501 13:00:33.022542 13185 net.cpp:150] Setting up pool4
I0501 13:00:33.022545 13185 net.cpp:157] Top shape: 1 512 14 14 (100352)
I0501 13:00:33.022547 13185 net.cpp:165] Memory required for data: 111992832
I0501 13:00:33.022560 13185 layer_factory.hpp:77] Creating layer conv5_1
I0501 13:00:33.022564 13185 net.cpp:106] Creating Layer conv5_1
I0501 13:00:33.022565 13185 net.cpp:454] conv5_1 <- pool4
I0501 13:00:33.022568 13185 net.cpp:411] conv5_1 -> conv5_1
I0501 13:00:33.025218 13185 net.cpp:150] Setting up conv5_1
I0501 13:00:33.025249 13185 net.cpp:157] Top shape: 1 512 14 14 (100352)
I0501 13:00:33.025250 13185 net.cpp:165] Memory required for data: 112394240
I0501 13:00:33.025256 13185 layer_factory.hpp:77] Creating layer relu5_1
I0501 13:00:33.025264 13185 net.cpp:106] Creating Layer relu5_1
I0501 13:00:33.025265 13185 net.cpp:454] relu5_1 <- conv5_1
I0501 13:00:33.025269 13185 net.cpp:397] relu5_1 -> conv5_1 (in-place)
I0501 13:00:33.025275 13185 net.cpp:150] Setting up relu5_1
I0501 13:00:33.025279 13185 net.cpp:157] Top shape: 1 512 14 14 (100352)
I0501 13:00:33.025279 13185 net.cpp:165] Memory required for data: 112795648
I0501 13:00:33.025281 13185 layer_factory.hpp:77] Creating layer conv5_2
I0501 13:00:33.025285 13185 net.cpp:106] Creating Layer conv5_2
I0501 13:00:33.025286 13185 net.cpp:454] conv5_2 <- conv5_1
I0501 13:00:33.025290 13185 net.cpp:411] conv5_2 -> conv5_2
I0501 13:00:33.027967 13185 net.cpp:150] Setting up conv5_2
I0501 13:00:33.028002 13185 net.cpp:157] Top shape: 1 512 14 14 (100352)
I0501 13:00:33.028003 13185 net.cpp:165] Memory required for data: 113197056
I0501 13:00:33.028008 13185 layer_factory.hpp:77] Creating layer relu5_2
I0501 13:00:33.028015 13185 net.cpp:106] Creating Layer relu5_2
I0501 13:00:33.028018 13185 net.cpp:454] relu5_2 <- conv5_2
I0501 13:00:33.028022 13185 net.cpp:397] relu5_2 -> conv5_2 (in-place)
I0501 13:00:33.028028 13185 net.cpp:150] Setting up relu5_2
I0501 13:00:33.028029 13185 net.cpp:157] Top shape: 1 512 14 14 (100352)
I0501 13:00:33.028030 13185 net.cpp:165] Memory required for data: 113598464
I0501 13:00:33.028033 13185 layer_factory.hpp:77] Creating layer conv5_3
I0501 13:00:33.028035 13185 net.cpp:106] Creating Layer conv5_3
I0501 13:00:33.028038 13185 net.cpp:454] conv5_3 <- conv5_2
I0501 13:00:33.028040 13185 net.cpp:411] conv5_3 -> conv5_3
I0501 13:00:33.030736 13185 net.cpp:150] Setting up conv5_3
I0501 13:00:33.030768 13185 net.cpp:157] Top shape: 1 512 14 14 (100352)
I0501 13:00:33.030771 13185 net.cpp:165] Memory required for data: 113999872
I0501 13:00:33.030776 13185 layer_factory.hpp:77] Creating layer relu5_3
I0501 13:00:33.030781 13185 net.cpp:106] Creating Layer relu5_3
I0501 13:00:33.030784 13185 net.cpp:454] relu5_3 <- conv5_3
I0501 13:00:33.030788 13185 net.cpp:397] relu5_3 -> conv5_3 (in-place)
I0501 13:00:33.030793 13185 net.cpp:150] Setting up relu5_3
I0501 13:00:33.030797 13185 net.cpp:157] Top shape: 1 512 14 14 (100352)
I0501 13:00:33.030797 13185 net.cpp:165] Memory required for data: 114401280
I0501 13:00:33.030798 13185 layer_factory.hpp:77] Creating layer rpn_conv/3x3
I0501 13:00:33.030803 13185 net.cpp:106] Creating Layer rpn_conv/3x3
I0501 13:00:33.030805 13185 net.cpp:454] rpn_conv/3x3 <- conv5_3
I0501 13:00:33.030808 13185 net.cpp:411] rpn_conv/3x3 -> rpn/output
I0501 13:00:33.033453 13185 net.cpp:150] Setting up rpn_conv/3x3
I0501 13:00:33.033471 13185 net.cpp:157] Top shape: 1 512 14 14 (100352)
I0501 13:00:33.033473 13185 net.cpp:165] Memory required for data: 114802688
I0501 13:00:33.033478 13185 layer_factory.hpp:77] Creating layer rpn_relu/3x3
I0501 13:00:33.033495 13185 net.cpp:106] Creating Layer rpn_relu/3x3
I0501 13:00:33.033499 13185 net.cpp:454] rpn_relu/3x3 <- rpn/output
I0501 13:00:33.033515 13185 net.cpp:397] rpn_relu/3x3 -> rpn/output (in-place)
I0501 13:00:33.033520 13185 net.cpp:150] Setting up rpn_relu/3x3
I0501 13:00:33.033522 13185 net.cpp:157] Top shape: 1 512 14 14 (100352)
I0501 13:00:33.033524 13185 net.cpp:165] Memory required for data: 115204096
I0501 13:00:33.033525 13185 layer_factory.hpp:77] Creating layer rpn/output_rpn_relu/3x3_0_split
I0501 13:00:33.033537 13185 net.cpp:106] Creating Layer rpn/output_rpn_relu/3x3_0_split
I0501 13:00:33.033541 13185 net.cpp:454] rpn/output_rpn_relu/3x3_0_split <- rpn/output
I0501 13:00:33.033543 13185 net.cpp:411] rpn/output_rpn_relu/3x3_0_split -> rpn/output_rpn_relu/3x3_0_split_0
I0501 13:00:33.033547 13185 net.cpp:411] rpn/output_rpn_relu/3x3_0_split -> rpn/output_rpn_relu/3x3_0_split_1
I0501 13:00:33.033573 13185 net.cpp:150] Setting up rpn/output_rpn_relu/3x3_0_split
I0501 13:00:33.033576 13185 net.cpp:157] Top shape: 1 512 14 14 (100352)
I0501 13:00:33.033578 13185 net.cpp:157] Top shape: 1 512 14 14 (100352)
I0501 13:00:33.033581 13185 net.cpp:165] Memory required for data: 116006912
I0501 13:00:33.033581 13185 layer_factory.hpp:77] Creating layer rpn_cls_score
I0501 13:00:33.033586 13185 net.cpp:106] Creating Layer rpn_cls_score
I0501 13:00:33.033587 13185 net.cpp:454] rpn_cls_score <- rpn/output_rpn_relu/3x3_0_split_0
I0501 13:00:33.033591 13185 net.cpp:411] rpn_cls_score -> rpn_cls_score
I0501 13:00:33.033725 13185 net.cpp:150] Setting up rpn_cls_score
I0501 13:00:33.033728 13185 net.cpp:157] Top shape: 1 18 14 14 (3528)
I0501 13:00:33.033730 13185 net.cpp:165] Memory required for data: 116021024
I0501 13:00:33.033746 13185 layer_factory.hpp:77] Creating layer rpn_bbox_pred
I0501 13:00:33.033749 13185 net.cpp:106] Creating Layer rpn_bbox_pred
I0501 13:00:33.033751 13185 net.cpp:454] rpn_bbox_pred <- rpn/output_rpn_relu/3x3_0_split_1
I0501 13:00:33.033753 13185 net.cpp:411] rpn_bbox_pred -> rpn_bbox_pred
I0501 13:00:33.033892 13185 net.cpp:150] Setting up rpn_bbox_pred
I0501 13:00:33.033895 13185 net.cpp:157] Top shape: 1 36 14 14 (7056)
I0501 13:00:33.033897 13185 net.cpp:165] Memory required for data: 116049248
I0501 13:00:33.033913 13185 layer_factory.hpp:77] Creating layer rpn_cls_score_reshape
I0501 13:00:33.033921 13185 net.cpp:106] Creating Layer rpn_cls_score_reshape
I0501 13:00:33.033922 13185 net.cpp:454] rpn_cls_score_reshape <- rpn_cls_score
I0501 13:00:33.033926 13185 net.cpp:411] rpn_cls_score_reshape -> rpn_cls_score_reshape
I0501 13:00:33.033939 13185 net.cpp:150] Setting up rpn_cls_score_reshape
I0501 13:00:33.033943 13185 net.cpp:157] Top shape: 1 2 126 14 (3528)
I0501 13:00:33.033944 13185 net.cpp:165] Memory required for data: 116063360
I0501 13:00:33.033946 13185 layer_factory.hpp:77] Creating layer rpn_cls_prob
I0501 13:00:33.033949 13185 net.cpp:106] Creating Layer rpn_cls_prob
I0501 13:00:33.033951 13185 net.cpp:454] rpn_cls_prob <- rpn_cls_score_reshape
I0501 13:00:33.033952 13185 net.cpp:411] rpn_cls_prob -> rpn_cls_prob
I0501 13:00:33.033984 13185 net.cpp:150] Setting up rpn_cls_prob
I0501 13:00:33.033987 13185 net.cpp:157] Top shape: 1 2 126 14 (3528)
I0501 13:00:33.033989 13185 net.cpp:165] Memory required for data: 116077472
I0501 13:00:33.033990 13185 layer_factory.hpp:77] Creating layer rpn_cls_prob_reshape
I0501 13:00:33.033993 13185 net.cpp:106] Creating Layer rpn_cls_prob_reshape
I0501 13:00:33.033994 13185 net.cpp:454] rpn_cls_prob_reshape <- rpn_cls_prob
I0501 13:00:33.033998 13185 net.cpp:411] rpn_cls_prob_reshape -> rpn_cls_prob_reshape
I0501 13:00:33.034008 13185 net.cpp:150] Setting up rpn_cls_prob_reshape
I0501 13:00:33.034010 13185 net.cpp:157] Top shape: 1 18 14 14 (3528)
I0501 13:00:33.034013 13185 net.cpp:165] Memory required for data: 116091584
I0501 13:00:33.034013 13185 layer_factory.hpp:77] Creating layer proposal
I0501 13:00:33.034799 13185 net.cpp:106] Creating Layer proposal
I0501 13:00:33.034806 13185 net.cpp:454] proposal <- rpn_cls_prob_reshape
I0501 13:00:33.034808 13185 net.cpp:454] proposal <- rpn_bbox_pred
I0501 13:00:33.034811 13185 net.cpp:454] proposal <- im_info
I0501 13:00:33.034813 13185 net.cpp:411] proposal -> rois
I0501 13:00:33.034818 13185 net.cpp:411] proposal -> scores
I0501 13:00:33.035558 13185 net.cpp:150] Setting up proposal
I0501 13:00:33.035565 13185 net.cpp:157] Top shape: 1 5 (5)
I0501 13:00:33.035568 13185 net.cpp:157] Top shape: 1 1 1 1 (1)
I0501 13:00:33.035569 13185 net.cpp:165] Memory required for data: 116091608
I0501 13:00:33.035571 13185 net.cpp:228] proposal does not need backward computation.
I0501 13:00:33.035574 13185 net.cpp:228] rpn_cls_prob_reshape does not need backward computation.
I0501 13:00:33.035576 13185 net.cpp:228] rpn_cls_prob does not need backward computation.
I0501 13:00:33.035578 13185 net.cpp:228] rpn_cls_score_reshape does not need backward computation.
…
I0501 13:20:19.840879 13328 solver.cpp:81] Creating training net from train_net file: models/pascal_voc/VGG16/faster_rcnn_alt_opt/stage1_fast_rcnn_train.pt
I0501 13:20:19.841246 13328 net.cpp:49] Initializing net from parameters: 
name: "VGG_ILSVRC_16_layers"
state {
  phase: TRAIN
}
layer {
  name: "data"
  type: "Python"
  top: "data"
  top: "rois"
  top: "labels"
  top: "bbox_targets"
  top: "bbox_inside_weights"
  top: "bbox_outside_weights"
  python_param {
    module: "roi_data_layer.layer"
    layer: "RoIDataLayer"
    param_str: "\'num_classes\': 6"
  }
}
layer {
  name: "conv1_1"
  type: "Convolution"
  bottom: "data"
  top: "conv1_1"
  param {
    lr_mult: 0
    decay_mult: 0
  }
  param {
    lr_mult: 0
    decay_mult: 0
  }
  convolution_param {
    num_output: 64
    pad: 1
    kernel_size: 3
  }
}
layer {
  name: "relu1_1"
  type: "ReLU"
  bottom: "conv1_1"
  top: "conv1_1"
}
layer {
  name: "conv1_2"
  type: "Convolution"
  bottom: "conv1_1"
  top: "conv1_2"
  param {
    lr_mult: 0
    decay_mult: 0
  }
  param {
    lr_mult: 0
    decay_mult: 0
  }
  convolution_param {
    num_output: 64
    pad: 1
    kernel_size: 3
  }
}
layer {
  name: "relu1_2"
  type: "ReLU"
  bottom: "conv1_2"
  top: "conv1_2"
}
layer {
  name: "pool1"
  type: "Pooling"
  bottom: "conv1_2"
  top: "pool1"
  pooling_param {
    pool: MAX
    kernel_size: 2
    stride: 2
  }
}
layer {
  name: "conv2_1"
  type: "Convolution"
  bottom: "pool1"
  top: "conv2_1"
  param {
    lr_mult: 0
    decay_mult: 0
  }
  param {
    lr_mult: 0
    decay_mult: 0
  }
  convolution_param {
    num_output: 128
    pad: 1
    kernel_size: 3
  }
}
layer {
  name: "relu2_1"
  type: "ReLU"
  bottom: "conv2_1"
  top: "conv2_1"
}
layer {
  name: "conv2_2"
  type: "Convolution"
  bottom: "conv2_1"
  top: "conv2_2"
  param {
    lr_mult: 0
    decay_mult: 0
  }
  param {
    lr_mult: 0
    decay_mult: 0
  }
  convolution_param {
    num_output: 128
    pad: 1
    kernel_size: 3
  }
}
layer {
  name: "relu2_2"
  type: "ReLU"
  bottom: "conv2_2"
  top: "conv2_2"
}
layer {
  name: "pool2"
  type: "Pooling"
  bottom: "conv2_2"
  top: "pool2"
  pooling_param {
    pool: MAX
    kernel_size: 2
    stride: 2
  }
}
layer {
  name: "conv3_1"
  type: "Convolution"
  bottom: "pool2"
  top: "conv3_1"
  param {
    lr_mult: 1
  }
  param {
    lr_mult: 2
  }
  convolution_param {
    num_output: 256
    pad: 1
    kernel_size: 3
  }
}
layer {
  name: "relu3_1"
  type: "ReLU"
  bottom: "conv3_1"
  top: "conv3_1"
}
layer {
  name: "conv3_2"
  type: "Convolution"
  bottom: "conv3_1"
  top: "conv3_2"
  param {
    lr_mult: 1
  }
  param {
    lr_mult: 2
  }
  convolution_param {
    num_output: 256
    pad: 1
    kernel_size: 3
  }
}
layer {
  name: "relu3_2"
  type: "ReLU"
  bottom: "conv3_2"
  top: "conv3_2"
}
layer {
  name: "conv3_3"
  type: "Convolution"
  bottom: "conv3_2"
  top: "conv3_3"
  param {
    lr_mult: 1
  }
  param {
    lr_mult: 2
  }
  convolution_param {
    num_output: 256
    pad: 1
    kernel_size: 3
  }
}
layer {
  name: "relu3_3"
  type: "ReLU"
  bottom: "conv3_3"
  top: "conv3_3"
}
layer {
  name: "pool3"
  type: "Pooling"
  bottom: "conv3_3"
  top: "pool3"
  pooling_param {
    pool: MAX
    kernel_size: 2
    stride: 2
  }
}
layer {
  name: "conv4_1"
  type: "Convolution"
  bottom: "pool3"
  top: "conv4_1"
  param {
    lr_mult: 1
  }
  param {
    lr_mult: 2
  }
  convolution_param {
    num_output: 512
    pad: 1
    kernel_size: 3
  }
}
layer {
  name: "relu4_1"
  type: "ReLU"
  bottom: "conv4_1"
  top: "conv4_1"
}
layer {
  name: "conv4_2"
  type: "Convolution"
  bottom: "conv4_1"
  top: "conv4_2"
  param {
    lr_mult: 1
  }
  param {
    lr_mult: 2
  }
  convolution_param {
    num_output: 512
    pad: 1
    kernel_size: 3
  }
}
layer {
  name: "relu4_2"
  type: "ReLU"
  bottom: "conv4_2"
  top: "conv4_2"
}
layer {
  name: "conv4_3"
  type: "Convolution"
  bottom: "conv4_2"
  top: "conv4_3"
  param {
    lr_mult: 1
  }
  param {
    lr_mult: 2
  }
  convolution_param {
    num_output: 512
    pad: 1
    kernel_size: 3
  }
}
layer {
  name: "relu4_3"
  type: "ReLU"
  bottom: "conv4_3"
  top: "conv4_3"
}
layer {
  name: "pool4"
  type: "Pooling"
  bottom: "conv4_3"
  top: "pool4"
  pooling_param {
    pool: MAX
    kernel_size: 2
    stride: 2
  }
}
layer {
  name: "conv5_1"
  type: "Convolution"
  bottom: "pool4"
  top: "conv5_1"
  param {
    lr_mult: 1
  }
  param {
    lr_mult: 2
  }
  convolution_param {
    num_output: 512
    pad: 1
    kernel_size: 3
  }
}
layer {
  name: "relu5_1"
  type: "ReLU"
  bottom: "conv5_1"
  top: "conv5_1"
}
layer {
  name: "conv5_2"
  type: "Convolution"
  bottom: "conv5_1"
  top: "conv5_2"
  param {
    lr_mult: 1
  }
  param {
    lr_mult: 2
  }
  convolution_param {
    num_output: 512
    pad: 1
    kernel_size: 3
  }
}
layer {
  name: "relu5_2"
  type: "ReLU"
  bottom: "conv5_2"
  top: "conv5_2"
}
layer {
  name: "conv5_3"
  type: "Convolution"
  bottom: "conv5_2"
  top: "conv5_3"
  param {
    lr_mult: 1
  }
  param {
    lr_mult: 2
  }
  convolution_param {
    num_output: 512
    pad: 1
    kernel_size: 3
  }
}
layer {
  name: "relu5_3"
  type: "ReLU"
  bottom: "conv5_3"
  top: "conv5_3"
}
layer {
  name: "roi_pool5"
  type: "ROIPooling"
  bottom: "conv5_3"
  bottom: "rois"
  top: "pool5"
  roi_pooling_param {
    pooled_h: 7
    pooled_w: 7
    spatial_scale: 0.0625
  }
}
layer {
  name: "fc6"
  type: "InnerProduct"
  bottom: "pool5"
  top: "fc6"
  param {
    lr_mult: 1
  }
  param {
    lr_mult: 2
  }
  inner_product_param {
    num_output: 4096
  }
}
layer {
  name: "relu6"
  type: "ReLU"
  bottom: "fc6"
  top: "fc6"
}
layer {
  name: "drop6"
  type: "Dropout"
  bottom: "fc6"
  top: "fc6"
  dropout_param {
    dropout_ratio: 0.5
  }
}
layer {
  name: "fc7"
  type: "InnerProduct"
  bottom: "fc6"
  top: "fc7"
  param {
    lr_mult: 1
  }
  param {
    lr_mult: 2
  }
  inner_product_param {
    num_output: 4096
  }
}
layer {
  name: "relu7"
  type: "ReLU"
  bottom: "fc7"
  top: "fc7"
}
layer {
  name: "drop7"
  type: "Dropout"
  bottom: "fc7"
  top: "fc7"
  dropout_param {
    dropout_ratio: 0.5
  }
}
layer {
  name: "cls_score"
  type: "InnerProduct"
  bottom: "fc7"
  top: "cls_score"
  param {
    lr_mult: 1
  }
  param {
    lr_mult: 2
  }
  inner_product_param {
    num_output: 6
    weight_filler {
      type: "gaussian"
      std: 0.01
    }
    bias_filler {
      type: "constant"
      value: 0
    }
  }
}
layer {
  name: "bbox_pred"
  type: "InnerProduct"
  bottom: "fc7"
  top: "bbox_pred"
  param {
    lr_mult: 1
  }
  param {
    lr_mult: 2
  }
  inner_product_param {
    num_output: 24
    weight_filler {
      type: "gaussian"
      std: 0.001
    }
    bias_filler {
      type: "constant"
      value: 0
    }
  }
}
layer {
  name: "loss_cls"
  type: "SoftmaxWithLoss"
  bottom: "cls_score"
  bottom: "labels"
  top: "loss_cls"
  loss_weight: 1
}
layer {
  name: "loss_bbox"
  type: "SmoothL1Loss"
  bottom: "bbox_pred"
  bottom: "bbox_targets"
  bottom: "bbox_inside_weights"
  bottom: "bbox_outside_weights"
  top: "loss_bbox"
  loss_weight: 1
}
layer {
  name: "rpn_conv/3x3"
  type: "Convolution"
  bottom: "conv5_3"
  top: "rpn/output"
  param {
    lr_mult: 0
    decay_mult: 0
  }
  param {
    lr_mult: 0
    decay_mult: 0
  }
  convolution_param {
    num_output: 512
    pad: 1
    kernel_size: 3
    stride: 1
    weight_filler {
      type: "gaussian"
      std: 0.01
    }
    bias_filler {
      type: "constant"
      value: 0
    }
  }
}
layer {
  name: "rpn_relu/3x3"
  type: "ReLU"
  bottom: "rpn/output"
  top: "rpn/output"
}
layer {
  name: "rpn_cls_score"
  type: "Convolution"
  bottom: "rpn/output"
  top: "rpn_cls_score"
  param {
    lr_mult: 0
    decay_mult: 0
  }
  param {
    lr_mult: 0
    decay_mult: 0
  }
  convolution_param {
    num_output: 18
    pad: 0
    kernel_size: 1
    stride: 1
    weight_filler {
      type: "gaussian"
      std: 0.01
    }
    bias_filler {
      type: "constant"
      value: 0
    }
  }
}
layer {
  name: "rpn_bbox_pred"
  type: "Convolution"
  bottom: "rpn/output"
  top: "rpn_bbox_pred"
  param {
    lr_mult: 0
    decay_mult: 0
  }
  param {
    lr_mult: 0
    decay_mult: 0
  }
  convolution_param {
    num_output: 36
    pad: 0
    kernel_size: 1
    stride: 1
    weight_filler {
      type: "gaussian"
      std: 0.01
    }
    bias_filler {
      type: "constant"
      value: 0
    }
  }
}
layer {
  name: "silence_rpn_cls_score"
  type: "Silence"
  bottom: "rpn_cls_score"
}
layer {
  name: "silence_rpn_bbox_pred"
  type: "Silence"
  bottom: "rpn_bbox_pred"
}
I0501 13:20:19.841389 13328 layer_factory.hpp:77] Creating layer data
I0501 13:20:19.841717 13328 net.cpp:106] Creating Layer data
I0501 13:20:19.841724 13328 net.cpp:411] data -> data
I0501 13:20:19.841743 13328 net.cpp:411] data -> rois
I0501 13:20:19.841747 13328 net.cpp:411] data -> labels
I0501 13:20:19.841751 13328 net.cpp:411] data -> bbox_targets
I0501 13:20:19.841754 13328 net.cpp:411] data -> bbox_inside_weights
I0501 13:20:19.841759 13328 net.cpp:411] data -> bbox_outside_weights
RoiDataLayer: name_to_top: {'bbox_inside_weights': 4, 'labels': 2, 'rois': 1, 'bbox_targets': 3, 'bbox_outside_weights': 5, 'data': 0}
I0501 13:20:19.851243 13328 net.cpp:150] Setting up data
I0501 13:20:19.851255 13328 net.cpp:157] Top shape: 2 3 600 1000 (3600000)
I0501 13:20:19.851270 13328 net.cpp:157] Top shape: 1 5 (5)
I0501 13:20:19.851272 13328 net.cpp:157] Top shape: 1 (1)
I0501 13:20:19.851274 13328 net.cpp:157] Top shape: 1 24 (24)
I0501 13:20:19.851276 13328 net.cpp:157] Top shape: 1 24 (24)
I0501 13:20:19.851277 13328 net.cpp:157] Top shape: 1 24 (24)
I0501 13:20:19.851294 13328 net.cpp:165] Memory required for data: 14400312
I0501 13:20:19.851296 13328 layer_factory.hpp:77] Creating layer conv1_1
I0501 13:20:19.851306 13328 net.cpp:106] Creating Layer conv1_1
I0501 13:20:19.851310 13328 net.cpp:454] conv1_1 <- data
I0501 13:20:19.851313 13328 net.cpp:411] conv1_1 -> conv1_1
I0501 13:20:19.852589 13328 net.cpp:150] Setting up conv1_1
I0501 13:20:19.852596 13328 net.cpp:157] Top shape: 2 64 600 1000 (76800000)
I0501 13:20:19.852598 13328 net.cpp:165] Memory required for data: 321600312
I0501 13:20:19.852619 13328 layer_factory.hpp:77] Creating layer relu1_1
I0501 13:20:19.852624 13328 net.cpp:106] Creating Layer relu1_1
I0501 13:20:19.852627 13328 net.cpp:454] relu1_1 <- conv1_1
I0501 13:20:19.852629 13328 net.cpp:397] relu1_1 -> conv1_1 (in-place)
I0501 13:20:19.852633 13328 net.cpp:150] Setting up relu1_1
I0501 13:20:19.852636 13328 net.cpp:157] Top shape: 2 64 600 1000 (76800000)
I0501 13:20:19.852638 13328 net.cpp:165] Memory required for data: 628800312
I0501 13:20:19.852639 13328 layer_factory.hpp:77] Creating layer conv1_2
I0501 13:20:19.852644 13328 net.cpp:106] Creating Layer conv1_2
I0501 13:20:19.852646 13328 net.cpp:454] conv1_2 <- conv1_1
I0501 13:20:19.852650 13328 net.cpp:411] conv1_2 -> conv1_2
I0501 13:20:19.853936 13328 net.cpp:150] Setting up conv1_2
I0501 13:20:19.853958 13328 net.cpp:157] Top shape: 2 64 600 1000 (76800000)
I0501 13:20:19.853960 13328 net.cpp:165] Memory required for data: 936000312
I0501 13:20:19.853966 13328 layer_factory.hpp:77] Creating layer relu1_2
I0501 13:20:19.853971 13328 net.cpp:106] Creating Layer relu1_2
I0501 13:20:19.853974 13328 net.cpp:454] relu1_2 <- conv1_2
I0501 13:20:19.853977 13328 net.cpp:397] relu1_2 -> conv1_2 (in-place)
I0501 13:20:19.853982 13328 net.cpp:150] Setting up relu1_2
I0501 13:20:19.853986 13328 net.cpp:157] Top shape: 2 64 600 1000 (76800000)
I0501 13:20:19.853986 13328 net.cpp:165] Memory required for data: 1243200312
I0501 13:20:19.853987 13328 layer_factory.hpp:77] Creating layer pool1
I0501 13:20:19.853991 13328 net.cpp:106] Creating Layer pool1
I0501 13:20:19.853993 13328 net.cpp:454] pool1 <- conv1_2
I0501 13:20:19.853996 13328 net.cpp:411] pool1 -> pool1
I0501 13:20:19.854030 13328 net.cpp:150] Setting up pool1
I0501 13:20:19.854034 13328 net.cpp:157] Top shape: 2 64 300 500 (19200000)
I0501 13:20:19.854037 13328 net.cpp:165] Memory required for data: 1320000312
I0501 13:20:19.854038 13328 layer_factory.hpp:77] Creating layer conv2_1
I0501 13:20:19.854043 13328 net.cpp:106] Creating Layer conv2_1
I0501 13:20:19.854045 13328 net.cpp:454] conv2_1 <- pool1
I0501 13:20:19.854049 13328 net.cpp:411] conv2_1 -> conv2_1
I0501 13:20:19.854708 13328 net.cpp:150] Setting up conv2_1
I0501 13:20:19.854714 13328 net.cpp:157] Top shape: 2 128 300 500 (38400000)
I0501 13:20:19.854717 13328 net.cpp:165] Memory required for data: 1473600312
I0501 13:20:19.854722 13328 layer_factory.hpp:77] Creating layer relu2_1
I0501 13:20:19.854727 13328 net.cpp:106] Creating Layer relu2_1
I0501 13:20:19.854728 13328 net.cpp:454] relu2_1 <- conv2_1
I0501 13:20:19.854732 13328 net.cpp:397] relu2_1 -> conv2_1 (in-place)
I0501 13:20:19.854735 13328 net.cpp:150] Setting up relu2_1
I0501 13:20:19.854738 13328 net.cpp:157] Top shape: 2 128 300 500 (38400000)
I0501 13:20:19.854739 13328 net.cpp:165] Memory required for data: 1627200312
I0501 13:20:19.854740 13328 layer_factory.hpp:77] Creating layer conv2_2
I0501 13:20:19.854746 13328 net.cpp:106] Creating Layer conv2_2
I0501 13:20:19.854748 13328 net.cpp:454] conv2_2 <- conv2_1
I0501 13:20:19.854753 13328 net.cpp:411] conv2_2 -> conv2_2
I0501 13:20:19.854997 13328 net.cpp:150] Setting up conv2_2
I0501 13:20:19.855001 13328 net.cpp:157] Top shape: 2 128 300 500 (38400000)
I0501 13:20:19.855003 13328 net.cpp:165] Memory required for data: 1780800312
I0501 13:20:19.855007 13328 layer_factory.hpp:77] Creating layer relu2_2
I0501 13:20:19.855010 13328 net.cpp:106] Creating Layer relu2_2
I0501 13:20:19.855013 13328 net.cpp:454] relu2_2 <- conv2_2
I0501 13:20:19.855015 13328 net.cpp:397] relu2_2 -> conv2_2 (in-place)
I0501 13:20:19.855020 13328 net.cpp:150] Setting up relu2_2
I0501 13:20:19.855022 13328 net.cpp:157] Top shape: 2 128 300 500 (38400000)
I0501 13:20:19.855023 13328 net.cpp:165] Memory required for data: 1934400312
I0501 13:20:19.855026 13328 layer_factory.hpp:77] Creating layer pool2
I0501 13:20:19.855027 13328 net.cpp:106] Creating Layer pool2
I0501 13:20:19.855029 13328 net.cpp:454] pool2 <- conv2_2
I0501 13:20:19.855033 13328 net.cpp:411] pool2 -> pool2
I0501 13:20:19.855053 13328 net.cpp:150] Setting up pool2
I0501 13:20:19.855057 13328 net.cpp:157] Top shape: 2 128 150 250 (9600000)
I0501 13:20:19.855058 13328 net.cpp:165] Memory required for data: 1972800312
I0501 13:20:19.855059 13328 layer_factory.hpp:77] Creating layer conv3_1
I0501 13:20:19.855063 13328 net.cpp:106] Creating Layer conv3_1
I0501 13:20:19.855065 13328 net.cpp:454] conv3_1 <- pool2
I0501 13:20:19.855069 13328 net.cpp:411] conv3_1 -> conv3_1
I0501 13:20:19.855763 13328 net.cpp:150] Setting up conv3_1
I0501 13:20:19.855770 13328 net.cpp:157] Top shape: 2 256 150 250 (19200000)
I0501 13:20:19.855772 13328 net.cpp:165] Memory required for data: 2049600312
I0501 13:20:19.855779 13328 layer_factory.hpp:77] Creating layer relu3_1
I0501 13:20:19.855783 13328 net.cpp:106] Creating Layer relu3_1
I0501 13:20:19.855787 13328 net.cpp:454] relu3_1 <- conv3_1
I0501 13:20:19.855789 13328 net.cpp:397] relu3_1 -> conv3_1 (in-place)
I0501 13:20:19.855793 13328 net.cpp:150] Setting up relu3_1
I0501 13:20:19.855796 13328 net.cpp:157] Top shape: 2 256 150 250 (19200000)
I0501 13:20:19.855798 13328 net.cpp:165] Memory required for data: 2126400312
I0501 13:20:19.855798 13328 layer_factory.hpp:77] Creating layer conv3_2
I0501 13:20:19.855803 13328 net.cpp:106] Creating Layer conv3_2
I0501 13:20:19.855805 13328 net.cpp:454] conv3_2 <- conv3_1
I0501 13:20:19.855809 13328 net.cpp:411] conv3_2 -> conv3_2
I0501 13:20:19.856662 13328 net.cpp:150] Setting up conv3_2
I0501 13:20:19.856668 13328 net.cpp:157] Top shape: 2 256 150 250 (19200000)
I0501 13:20:19.856670 13328 net.cpp:165] Memory required for data: 2203200312
I0501 13:20:19.856674 13328 layer_factory.hpp:77] Creating layer relu3_2
I0501 13:20:19.856678 13328 net.cpp:106] Creating Layer relu3_2
I0501 13:20:19.856681 13328 net.cpp:454] relu3_2 <- conv3_2
I0501 13:20:19.856684 13328 net.cpp:397] relu3_2 -> conv3_2 (in-place)
I0501 13:20:19.856688 13328 net.cpp:150] Setting up relu3_2
I0501 13:20:19.856691 13328 net.cpp:157] Top shape: 2 256 150 250 (19200000)
I0501 13:20:19.856693 13328 net.cpp:165] Memory required for data: 2280000312
I0501 13:20:19.856694 13328 layer_factory.hpp:77] Creating layer conv3_3
I0501 13:20:19.856698 13328 net.cpp:106] Creating Layer conv3_3
I0501 13:20:19.856700 13328 net.cpp:454] conv3_3 <- conv3_2
I0501 13:20:19.856703 13328 net.cpp:411] conv3_3 -> conv3_3
I0501 13:20:19.857578 13328 net.cpp:150] Setting up conv3_3
I0501 13:20:19.857585 13328 net.cpp:157] Top shape: 2 256 150 250 (19200000)
I0501 13:20:19.857587 13328 net.cpp:165] Memory required for data: 2356800312
I0501 13:20:19.857591 13328 layer_factory.hpp:77] Creating layer relu3_3
I0501 13:20:19.857597 13328 net.cpp:106] Creating Layer relu3_3
I0501 13:20:19.857600 13328 net.cpp:454] relu3_3 <- conv3_3
I0501 13:20:19.857604 13328 net.cpp:397] relu3_3 -> conv3_3 (in-place)
I0501 13:20:19.857607 13328 net.cpp:150] Setting up relu3_3
I0501 13:20:19.857610 13328 net.cpp:157] Top shape: 2 256 150 250 (19200000)
I0501 13:20:19.857611 13328 net.cpp:165] Memory required for data: 2433600312
I0501 13:20:19.857614 13328 layer_factory.hpp:77] Creating layer pool3
I0501 13:20:19.857616 13328 net.cpp:106] Creating Layer pool3
I0501 13:20:19.857619 13328 net.cpp:454] pool3 <- conv3_3
I0501 13:20:19.857621 13328 net.cpp:411] pool3 -> pool3
I0501 13:20:19.857645 13328 net.cpp:150] Setting up pool3
I0501 13:20:19.857648 13328 net.cpp:157] Top shape: 2 256 75 125 (4800000)
I0501 13:20:19.857650 13328 net.cpp:165] Memory required for data: 2452800312
I0501 13:20:19.857652 13328 layer_factory.hpp:77] Creating layer conv4_1
I0501 13:20:19.857656 13328 net.cpp:106] Creating Layer conv4_1
I0501 13:20:19.857658 13328 net.cpp:454] conv4_1 <- pool3
I0501 13:20:19.857662 13328 net.cpp:411] conv4_1 -> conv4_1
I0501 13:20:19.860038 13328 net.cpp:150] Setting up conv4_1
I0501 13:20:19.860056 13328 net.cpp:157] Top shape: 2 512 75 125 (9600000)
I0501 13:20:19.860059 13328 net.cpp:165] Memory required for data: 2491200312
I0501 13:20:19.860065 13328 layer_factory.hpp:77] Creating layer relu4_1
I0501 13:20:19.860071 13328 net.cpp:106] Creating Layer relu4_1
I0501 13:20:19.860075 13328 net.cpp:454] relu4_1 <- conv4_1
I0501 13:20:19.860080 13328 net.cpp:397] relu4_1 -> conv4_1 (in-place)
I0501 13:20:19.860086 13328 net.cpp:150] Setting up relu4_1
I0501 13:20:19.860090 13328 net.cpp:157] Top shape: 2 512 75 125 (9600000)
I0501 13:20:19.860090 13328 net.cpp:165] Memory required for data: 2529600312
I0501 13:20:19.860091 13328 layer_factory.hpp:77] Creating layer conv4_2
I0501 13:20:19.860097 13328 net.cpp:106] Creating Layer conv4_2
I0501 13:20:19.860100 13328 net.cpp:454] conv4_2 <- conv4_1
I0501 13:20:19.860103 13328 net.cpp:411] conv4_2 -> conv4_2
I0501 13:20:19.862787 13328 net.cpp:150] Setting up conv4_2
I0501 13:20:19.862807 13328 net.cpp:157] Top shape: 2 512 75 125 (9600000)
I0501 13:20:19.862809 13328 net.cpp:165] Memory required for data: 2568000312
I0501 13:20:19.862820 13328 layer_factory.hpp:77] Creating layer relu4_2
I0501 13:20:19.862826 13328 net.cpp:106] Creating Layer relu4_2
I0501 13:20:19.862830 13328 net.cpp:454] relu4_2 <- conv4_2
I0501 13:20:19.862835 13328 net.cpp:397] relu4_2 -> conv4_2 (in-place)
I0501 13:20:19.862841 13328 net.cpp:150] Setting up relu4_2
I0501 13:20:19.862843 13328 net.cpp:157] Top shape: 2 512 75 125 (9600000)
I0501 13:20:19.862845 13328 net.cpp:165] Memory required for data: 2606400312
I0501 13:20:19.862846 13328 layer_factory.hpp:77] Creating layer conv4_3
I0501 13:20:19.862851 13328 net.cpp:106] Creating Layer conv4_3
I0501 13:20:19.862854 13328 net.cpp:454] conv4_3 <- conv4_2
I0501 13:20:19.862857 13328 net.cpp:411] conv4_3 -> conv4_3
I0501 13:20:19.865653 13328 net.cpp:150] Setting up conv4_3
I0501 13:20:19.865669 13328 net.cpp:157] Top shape: 2 512 75 125 (9600000)
I0501 13:20:19.865670 13328 net.cpp:165] Memory required for data: 2644800312
I0501 13:20:19.865677 13328 layer_factory.hpp:77] Creating layer relu4_3
I0501 13:20:19.865684 13328 net.cpp:106] Creating Layer relu4_3
I0501 13:20:19.865687 13328 net.cpp:454] relu4_3 <- conv4_3
I0501 13:20:19.865692 13328 net.cpp:397] relu4_3 -> conv4_3 (in-place)
I0501 13:20:19.865700 13328 net.cpp:150] Setting up relu4_3
I0501 13:20:19.865701 13328 net.cpp:157] Top shape: 2 512 75 125 (9600000)
I0501 13:20:19.865703 13328 net.cpp:165] Memory required for data: 2683200312
I0501 13:20:19.865705 13328 layer_factory.hpp:77] Creating layer pool4
I0501 13:20:19.865708 13328 net.cpp:106] Creating Layer pool4
I0501 13:20:19.865710 13328 net.cpp:454] pool4 <- conv4_3
I0501 13:20:19.865713 13328 net.cpp:411] pool4 -> pool4
I0501 13:20:19.865741 13328 net.cpp:150] Setting up pool4
I0501 13:20:19.865744 13328 net.cpp:157] Top shape: 2 512 38 63 (2451456)
I0501 13:20:19.865746 13328 net.cpp:165] Memory required for data: 2693006136
I0501 13:20:19.865747 13328 layer_factory.hpp:77] Creating layer conv5_1
I0501 13:20:19.865752 13328 net.cpp:106] Creating Layer conv5_1
I0501 13:20:19.865754 13328 net.cpp:454] conv5_1 <- pool4
I0501 13:20:19.865758 13328 net.cpp:411] conv5_1 -> conv5_1
I0501 13:20:19.868522 13328 net.cpp:150] Setting up conv5_1
I0501 13:20:19.868542 13328 net.cpp:157] Top shape: 2 512 38 63 (2451456)
I0501 13:20:19.868544 13328 net.cpp:165] Memory required for data: 2702811960
I0501 13:20:19.868551 13328 layer_factory.hpp:77] Creating layer relu5_1
I0501 13:20:19.868556 13328 net.cpp:106] Creating Layer relu5_1
I0501 13:20:19.868561 13328 net.cpp:454] relu5_1 <- conv5_1
I0501 13:20:19.868566 13328 net.cpp:397] relu5_1 -> conv5_1 (in-place)
I0501 13:20:19.868571 13328 net.cpp:150] Setting up relu5_1
I0501 13:20:19.868574 13328 net.cpp:157] Top shape: 2 512 38 63 (2451456)
I0501 13:20:19.868576 13328 net.cpp:165] Memory required for data: 2712617784
I0501 13:20:19.868577 13328 layer_factory.hpp:77] Creating layer conv5_2
I0501 13:20:19.868582 13328 net.cpp:106] Creating Layer conv5_2
I0501 13:20:19.868584 13328 net.cpp:454] conv5_2 <- conv5_1
I0501 13:20:19.868588 13328 net.cpp:411] conv5_2 -> conv5_2
I0501 13:20:19.871395 13328 net.cpp:150] Setting up conv5_2
I0501 13:20:19.871415 13328 net.cpp:157] Top shape: 2 512 38 63 (2451456)
I0501 13:20:19.871417 13328 net.cpp:165] Memory required for data: 2722423608
I0501 13:20:19.871423 13328 layer_factory.hpp:77] Creating layer relu5_2
I0501 13:20:19.871429 13328 net.cpp:106] Creating Layer relu5_2
I0501 13:20:19.871433 13328 net.cpp:454] relu5_2 <- conv5_2
I0501 13:20:19.871438 13328 net.cpp:397] relu5_2 -> conv5_2 (in-place)
I0501 13:20:19.871444 13328 net.cpp:150] Setting up relu5_2
I0501 13:20:19.871448 13328 net.cpp:157] Top shape: 2 512 38 63 (2451456)
I0501 13:20:19.871448 13328 net.cpp:165] Memory required for data: 2732229432
I0501 13:20:19.871450 13328 layer_factory.hpp:77] Creating layer conv5_3
I0501 13:20:19.871454 13328 net.cpp:106] Creating Layer conv5_3
I0501 13:20:19.871457 13328 net.cpp:454] conv5_3 <- conv5_2
I0501 13:20:19.871460 13328 net.cpp:411] conv5_3 -> conv5_3
I0501 13:20:19.874253 13328 net.cpp:150] Setting up conv5_3
I0501 13:20:19.874270 13328 net.cpp:157] Top shape: 2 512 38 63 (2451456)
I0501 13:20:19.874272 13328 net.cpp:165] Memory required for data: 2742035256
I0501 13:20:19.874279 13328 layer_factory.hpp:77] Creating layer relu5_3
I0501 13:20:19.874284 13328 net.cpp:106] Creating Layer relu5_3
I0501 13:20:19.874289 13328 net.cpp:454] relu5_3 <- conv5_3
I0501 13:20:19.874292 13328 net.cpp:397] relu5_3 -> conv5_3 (in-place)
I0501 13:20:19.874300 13328 net.cpp:150] Setting up relu5_3
I0501 13:20:19.874301 13328 net.cpp:157] Top shape: 2 512 38 63 (2451456)
I0501 13:20:19.874302 13328 net.cpp:165] Memory required for data: 2751841080
I0501 13:20:19.874305 13328 layer_factory.hpp:77] Creating layer conv5_3_relu5_3_0_split
I0501 13:20:19.874315 13328 net.cpp:106] Creating Layer conv5_3_relu5_3_0_split
I0501 13:20:19.874317 13328 net.cpp:454] conv5_3_relu5_3_0_split <- conv5_3
I0501 13:20:19.874321 13328 net.cpp:411] conv5_3_relu5_3_0_split -> conv5_3_relu5_3_0_split_0
I0501 13:20:19.874327 13328 net.cpp:411] conv5_3_relu5_3_0_split -> conv5_3_relu5_3_0_split_1
I0501 13:20:19.874351 13328 net.cpp:150] Setting up conv5_3_relu5_3_0_split
I0501 13:20:19.874353 13328 net.cpp:157] Top shape: 2 512 38 63 (2451456)
I0501 13:20:19.874356 13328 net.cpp:157] Top shape: 2 512 38 63 (2451456)
I0501 13:20:19.874357 13328 net.cpp:165] Memory required for data: 2771452728
I0501 13:20:19.874359 13328 layer_factory.hpp:77] Creating layer roi_pool5
I0501 13:20:19.874368 13328 net.cpp:106] Creating Layer roi_pool5
I0501 13:20:19.874370 13328 net.cpp:454] roi_pool5 <- conv5_3_relu5_3_0_split_0
I0501 13:20:19.874372 13328 net.cpp:454] roi_pool5 <- rois
I0501 13:20:19.874377 13328 net.cpp:411] roi_pool5 -> pool5
I0501 13:20:19.874380 13328 roi_pooling_layer.cpp:30] Spatial scale: 0.0625
I0501 13:20:19.874406 13328 net.cpp:150] Setting up roi_pool5
I0501 13:20:19.874409 13328 net.cpp:157] Top shape: 1 512 7 7 (25088)
I0501 13:20:19.874411 13328 net.cpp:165] Memory required for data: 2771553080
I0501 13:20:19.874413 13328 layer_factory.hpp:77] Creating layer fc6
I0501 13:20:19.874418 13328 net.cpp:106] Creating Layer fc6
I0501 13:20:19.874419 13328 net.cpp:454] fc6 <- pool5
I0501 13:20:19.874423 13328 net.cpp:411] fc6 -> fc6
I0501 13:20:19.977666 13328 net.cpp:150] Setting up fc6
I0501 13:20:19.977684 13328 net.cpp:157] Top shape: 1 4096 (4096)
I0501 13:20:19.977686 13328 net.cpp:165] Memory required for data: 2771569464
I0501 13:20:19.977694 13328 layer_factory.hpp:77] Creating layer relu6
I0501 13:20:19.977713 13328 net.cpp:106] Creating Layer relu6
I0501 13:20:19.977716 13328 net.cpp:454] relu6 <- fc6
I0501 13:20:19.977721 13328 net.cpp:397] relu6 -> fc6 (in-place)
I0501 13:20:19.977726 13328 net.cpp:150] Setting up relu6
I0501 13:20:19.977730 13328 net.cpp:157] Top shape: 1 4096 (4096)
I0501 13:20:19.977730 13328 net.cpp:165] Memory required for data: 2771585848
I0501 13:20:19.977731 13328 layer_factory.hpp:77] Creating layer drop6
I0501 13:20:19.977735 13328 net.cpp:106] Creating Layer drop6
I0501 13:20:19.977737 13328 net.cpp:454] drop6 <- fc6
I0501 13:20:19.977740 13328 net.cpp:397] drop6 -> fc6 (in-place)
I0501 13:20:19.977757 13328 net.cpp:150] Setting up drop6
I0501 13:20:19.977761 13328 net.cpp:157] Top shape: 1 4096 (4096)
I0501 13:20:19.977761 13328 net.cpp:165] Memory required for data: 2771602232
I0501 13:20:19.977763 13328 layer_factory.hpp:77] Creating layer fc7
I0501 13:20:19.977779 13328 net.cpp:106] Creating Layer fc7
I0501 13:20:19.977780 13328 net.cpp:454] fc7 <- fc6
I0501 13:20:19.977782 13328 net.cpp:411] fc7 -> fc7
I0501 13:20:19.994679 13328 net.cpp:150] Setting up fc7
I0501 13:20:19.994709 13328 net.cpp:157] Top shape: 1 4096 (4096)
I0501 13:20:19.994711 13328 net.cpp:165] Memory required for data: 2771618616
I0501 13:20:19.994717 13328 layer_factory.hpp:77] Creating layer relu7
I0501 13:20:19.994724 13328 net.cpp:106] Creating Layer relu7
I0501 13:20:19.994729 13328 net.cpp:454] relu7 <- fc7
I0501 13:20:19.994732 13328 net.cpp:397] relu7 -> fc7 (in-place)
I0501 13:20:19.994737 13328 net.cpp:150] Setting up relu7
I0501 13:20:19.994740 13328 net.cpp:157] Top shape: 1 4096 (4096)
I0501 13:20:19.994740 13328 net.cpp:165] Memory required for data: 2771635000
I0501 13:20:19.994742 13328 layer_factory.hpp:77] Creating layer drop7
I0501 13:20:19.994745 13328 net.cpp:106] Creating Layer drop7
I0501 13:20:19.994748 13328 net.cpp:454] drop7 <- fc7
I0501 13:20:19.994750 13328 net.cpp:397] drop7 -> fc7 (in-place)
I0501 13:20:19.994765 13328 net.cpp:150] Setting up drop7
I0501 13:20:19.994768 13328 net.cpp:157] Top shape: 1 4096 (4096)
I0501 13:20:19.994770 13328 net.cpp:165] Memory required for data: 2771651384
I0501 13:20:19.994771 13328 layer_factory.hpp:77] Creating layer fc7_drop7_0_split
I0501 13:20:19.994776 13328 net.cpp:106] Creating Layer fc7_drop7_0_split
I0501 13:20:19.994776 13328 net.cpp:454] fc7_drop7_0_split <- fc7
I0501 13:20:19.994781 13328 net.cpp:411] fc7_drop7_0_split -> fc7_drop7_0_split_0
I0501 13:20:19.994784 13328 net.cpp:411] fc7_drop7_0_split -> fc7_drop7_0_split_1
I0501 13:20:19.994833 13328 net.cpp:150] Setting up fc7_drop7_0_split
I0501 13:20:19.994837 13328 net.cpp:157] Top shape: 1 4096 (4096)
I0501 13:20:19.994838 13328 net.cpp:157] Top shape: 1 4096 (4096)
I0501 13:20:19.994840 13328 net.cpp:165] Memory required for data: 2771684152
I0501 13:20:19.994841 13328 layer_factory.hpp:77] Creating layer cls_score
I0501 13:20:19.994845 13328 net.cpp:106] Creating Layer cls_score
I0501 13:20:19.994848 13328 net.cpp:454] cls_score <- fc7_drop7_0_split_0
I0501 13:20:19.994851 13328 net.cpp:411] cls_score -> cls_score
I0501 13:20:19.995085 13328 net.cpp:150] Setting up cls_score
I0501 13:20:19.995087 13328 net.cpp:157] Top shape: 1 6 (6)
I0501 13:20:19.995088 13328 net.cpp:165] Memory required for data: 2771684176
I0501 13:20:19.995091 13328 layer_factory.hpp:77] Creating layer bbox_pred
I0501 13:20:19.995108 13328 net.cpp:106] Creating Layer bbox_pred
I0501 13:20:19.995110 13328 net.cpp:454] bbox_pred <- fc7_drop7_0_split_1
I0501 13:20:19.995113 13328 net.cpp:411] bbox_pred -> bbox_pred
I0501 13:20:19.995780 13328 net.cpp:150] Setting up bbox_pred
I0501 13:20:19.995784 13328 net.cpp:157] Top shape: 1 24 (24)
I0501 13:20:19.995784 13328 net.cpp:165] Memory required for data: 2771684272
I0501 13:20:19.995806 13328 layer_factory.hpp:77] Creating layer loss_cls
I0501 13:20:19.995815 13328 net.cpp:106] Creating Layer loss_cls
I0501 13:20:19.995816 13328 net.cpp:454] loss_cls <- cls_score
I0501 13:20:19.995820 13328 net.cpp:454] loss_cls <- labels
I0501 13:20:19.995821 13328 net.cpp:411] loss_cls -> loss_cls
…
I0501 13:20:19.996014 13328 net.cpp:157] Top shape: (1)
I0501 13:20:19.996016 13328 net.cpp:160]     with loss weight 1
I0501 13:20:19.996017 13328 net.cpp:165] Memory required for data: 2771684280
I0501 13:20:19.996019 13328 layer_factory.hpp:77] Creating layer rpn_conv/3x3
I0501 13:20:19.996024 13328 net.cpp:106] Creating Layer rpn_conv/3x3
I0501 13:20:19.996026 13328 net.cpp:454] rpn_conv/3x3 <- conv5_3_relu5_3_0_split_1
I0501 13:20:19.996031 13328 net.cpp:411] rpn_conv/3x3 -> rpn/output
I0501 13:20:20.012207 13328 net.cpp:150] Setting up rpn_conv/3x3
I0501 13:20:20.012236 13328 net.cpp:157] Top shape: 2 512 38 63 (2451456)
I0501 13:20:20.012238 13328 net.cpp:165] Memory required for data: 2781490104
I0501 13:20:20.012245 13328 layer_factory.hpp:77] Creating layer rpn_relu/3x3
I0501 13:20:20.012253 13328 net.cpp:106] Creating Layer rpn_relu/3x3
I0501 13:20:20.012255 13328 net.cpp:454] rpn_relu/3x3 <- rpn/output
I0501 13:20:20.012259 13328 net.cpp:397] rpn_relu/3x3 -> rpn/output (in-place)
I0501 13:20:20.012265 13328 net.cpp:150] Setting up rpn_relu/3x3
I0501 13:20:20.012269 13328 net.cpp:157] Top shape: 2 512 38 63 (2451456)
I0501 13:20:20.012269 13328 net.cpp:165] Memory required for data: 2791295928
I0501 13:20:20.012270 13328 layer_factory.hpp:77] Creating layer rpn/output_rpn_relu/3x3_0_split
I0501 13:20:20.012274 13328 net.cpp:106] Creating Layer rpn/output_rpn_relu/3x3_0_split
I0501 13:20:20.012276 13328 net.cpp:454] rpn/output_rpn_relu/3x3_0_split <- rpn/output
I0501 13:20:20.012280 13328 net.cpp:411] rpn/output_rpn_relu/3x3_0_split -> rpn/output_rpn_relu/3x3_0_split_0
I0501 13:20:20.012285 13328 net.cpp:411] rpn/output_rpn_relu/3x3_0_split -> rpn/output_rpn_relu/3x3_0_split_1
I0501 13:20:20.012308 13328 net.cpp:150] Setting up rpn/output_rpn_relu/3x3_0_split
I0501 13:20:20.012311 13328 net.cpp:157] Top shape: 2 512 38 63 (2451456)
I0501 13:20:20.012313 13328 net.cpp:157] Top shape: 2 512 38 63 (2451456)
I0501 13:20:20.012315 13328 net.cpp:165] Memory required for data: 2810907576
I0501 13:20:20.012316 13328 layer_factory.hpp:77] Creating layer rpn_cls_score
I0501 13:20:20.012336 13328 net.cpp:106] Creating Layer rpn_cls_score
I0501 13:20:20.012336 13328 net.cpp:454] rpn_cls_score <- rpn/output_rpn_relu/3x3_0_split_0
I0501 13:20:20.012353 13328 net.cpp:411] rpn_cls_score -> rpn_cls_score
I0501 13:20:20.012569 13328 net.cpp:150] Setting up rpn_cls_score
I0501 13:20:20.012573 13328 net.cpp:157] Top shape: 2 18 38 63 (86184)
I0501 13:20:20.012574 13328 net.cpp:165] Memory required for data: 2811252312
I0501 13:20:20.012590 13328 layer_factory.hpp:77] Creating layer rpn_bbox_pred
I0501 13:20:20.012596 13328 net.cpp:106] Creating Layer rpn_bbox_pred
I0501 13:20:20.012598 13328 net.cpp:454] rpn_bbox_pred <- rpn/output_rpn_relu/3x3_0_split_1
I0501 13:20:20.012601 13328 net.cpp:411] rpn_bbox_pred -> rpn_bbox_pred
I0501 13:20:20.012851 13328 net.cpp:150] Setting up rpn_bbox_pred
I0501 13:20:20.012856 13328 net.cpp:157] Top shape: 2 36 38 63 (172368)
I0501 13:20:20.012871 13328 net.cpp:165] Memory required for data: 2811941784
I0501 13:20:20.012873 13328 layer_factory.hpp:77] Creating layer silence_rpn_cls_score
I0501 13:20:20.012876 13328 net.cpp:106] Creating Layer silence_rpn_cls_score
I0501 13:20:20.012878 13328 net.cpp:454] silence_rpn_cls_score <- rpn_cls_score
I0501 13:20:20.012881 13328 net.cpp:150] Setting up silence_rpn_cls_score
…
           'RPN_POST_NMS_TOP_N': 2000,
           'RPN_PRE_NMS_TOP_N': 12000,
           'SCALES': [600],
           'SNAPSHOT_INFIX': '',
           'SNAPSHOT_ITERS': 10000,
           'USE_FLIPPED': True,
           'USE_PREFETCH': False},
 'USE_GPU_NMS': True}
WARNING: Logging before InitGoogleLogging() is written to STDERR
I0501 21:23:17.237543 16385 net.cpp:49] Initializing net from parameters: 
name: "VGG_ILSVRC_16_layers"
input: "data"
input: "im_info"
state {
  phase: TEST
}
input_shape {
  dim: 1
  dim: 3
  dim: 224
  dim: 224
}
input_shape {
  dim: 1
  dim: 3
}
layer {
  name: "conv1_1"
  type: "Convolution"
  bottom: "data"
  top: "conv1_1"
  convolution_param {
    num_output: 64
    pad: 1
    kernel_size: 3
  }
}
layer {
  name: "relu1_1"
  type: "ReLU"
  bottom: "conv1_1"
  top: "conv1_1"
}
layer {
  name: "conv1_2"
  type: "Convolution"
  bottom: "conv1_1"
  top: "conv1_2"
  convolution_param {
    num_output: 64
    pad: 1
    kernel_size: 3
  }
}
layer {
  name: "relu1_2"
  type: "ReLU"
  bottom: "conv1_2"
  top: "conv1_2"
}
layer {
  name: "pool1"
  type: "Pooling"
  bottom: "conv1_2"
  top: "pool1"
  pooling_param {
    pool: MAX
    kernel_size: 2
    stride: 2
  }
}
layer {
  name: "conv2_1"
  type: "Convolution"
  bottom: "pool1"
  top: "conv2_1"
  convolution_param {
    num_output: 128
    pad: 1
    kernel_size: 3
  }
}
layer {
  name: "relu2_1"
  type: "ReLU"
  bottom: "conv2_1"
  top: "conv2_1"
}
layer {
  name: "conv2_2"
  type: "Convolution"
  bottom: "conv2_1"
  top: "conv2_2"
  convolution_param {
    num_output: 128
    pad: 1
    kernel_size: 3
  }
}
layer {
  name: "relu2_2"
  type: "ReLU"
  bottom: "conv2_2"
  top: "conv2_2"
}
layer {
  name: "pool2"
  type: "Pooling"
  bottom: "conv2_2"
  top: "pool2"
  pooling_param {
    pool: MAX
    kernel_size: 2
    stride: 2
  }
}
layer {
  name: "conv3_1"
  type: "Convolution"
  bottom: "pool2"
  top: "conv3_1"
  convolution_param {
    num_output: 256
    pad: 1
    kernel_size: 3
  }
}
layer {
  name: "relu3_1"
  type: "ReLU"
  bottom: "conv3_1"
  top: "conv3_1"
}
layer {
  name: "conv3_2"
  type: "Convolution"
  bottom: "conv3_1"
  top: "conv3_2"
  convolution_param {
    num_output: 256
    pad: 1
    kernel_size: 3
  }
}
layer {
  name: "relu3_2"
  type: "ReLU"
  bottom: "conv3_2"
  top: "conv3_2"
}
layer {
  name: "conv3_3"
  type: "Convolution"
  bottom: "conv3_2"
  top: "conv3_3"
  convolution_param {
    num_output: 256
    pad: 1
    kernel_size: 3
  }
}
layer {
  name: "relu3_3"
  type: "ReLU"
  bottom: "conv3_3"
  top: "conv3_3"
}
layer {
  name: "pool3"
  type: "Pooling"
  bottom: "conv3_3"
  top: "pool3"
  pooling_param {
    pool: MAX
    kernel_size: 2
    stride: 2
  }
}
layer {
  name: "conv4_1"
  type: "Convolution"
  bottom: "pool3"
  top: "conv4_1"
  convolution_param {
    num_output: 512
    pad: 1
    kernel_size: 3
  }
}
layer {
  name: "relu4_1"
  type: "ReLU"
  bottom: "conv4_1"
  top: "conv4_1"
}
layer {
  name: "conv4_2"
  type: "Convolution"
  bottom: "conv4_1"
  top: "conv4_2"
  convolution_param {
    num_output: 512
    pad: 1
    kernel_size: 3
  }
}
layer {
  name: "relu4_2"
  type: "ReLU"
  bottom: "conv4_2"
  top: "conv4_2"
}
layer {
  name: "conv4_3"
  type: "Convolution"
  bottom: "conv4_2"
  top: "conv4_3"
  convolution_param {
    num_output: 512
    pad: 1
    kernel_size: 3
  }
}
layer {
  name: "relu4_3"
  type: "ReLU"
  bottom: "conv4_3"
  top: "conv4_3"
}
layer {
  name: "pool4"
  type: "Pooling"
  bottom: "conv4_3"
  top: "pool4"
  pooling_param {
    pool: MAX
    kernel_size: 2
    stride: 2
  }
}
layer {
  name: "conv5_1"
  type: "Convolution"
  bottom: "pool4"
  top: "conv5_1"
  convolution_param {
    num_output: 512
    pad: 1
    kernel_size: 3
  }
}
layer {
  name: "relu5_1"
  type: "ReLU"
  bottom: "conv5_1"
  top: "conv5_1"
}
layer {
  name: "conv5_2"
  type: "Convolution"
  bottom: "conv5_1"
  top: "conv5_2"
  convolution_param {
    num_output: 512
    pad: 1
    kernel_size: 3
  }
}
layer {
  name: "relu5_2"
  type: "ReLU"
  bottom: "conv5_2"
  top: "conv5_2"
}
layer {
  name: "conv5_3"
  type: "Convolution"
  bottom: "conv5_2"
  top: "conv5_3"
  convolution_param {
    num_output: 512
    pad: 1
    kernel_size: 3
  }
}
layer {
  name: "relu5_3"
  type: "ReLU"
  bottom: "conv5_3"
  top: "conv5_3"
}
layer {
  name: "rpn_conv/3x3"
  type: "Convolution"
  bottom: "conv5_3"
  top: "rpn/output"
  convolution_param {
    num_output: 512
    pad: 1
    kernel_size: 3
    stride: 1
  }
}
layer {
  name: "rpn_relu/3x3"
  type: "ReLU"
  bottom: "rpn/output"
  top: "rpn/output"
}
layer {
  name: "rpn_cls_score"
  type: "Convolution"
  bottom: "rpn/output"
  top: "rpn_cls_score"
  convolution_param {
    num_output: 18
    pad: 0
    kernel_size: 1
    stride: 1
  }
}
layer {
  name: "rpn_bbox_pred"
  type: "Convolution"
  bottom: "rpn/output"
  top: "rpn_bbox_pred"
  convolution_param {
    num_output: 36
    pad: 0
    kernel_size: 1
    stride: 1
  }
}
layer {
  name: "rpn_cls_score_reshape"
  type: "Reshape"
  bottom: "rpn_cls_score"
  top: "rpn_cls_score_reshape"
  reshape_param {
    shape {
      dim: 0
      dim: 2
      dim: -1
      dim: 0
    }
  }
}
layer {
  name: "rpn_cls_prob"
  type: "Softmax"
  bottom: "rpn_cls_score_reshape"
  top: "rpn_cls_prob"
}
layer {
  name: "rpn_cls_prob_reshape"
  type: "Reshape"
  bottom: "rpn_cls_prob"
  top: "rpn_cls_prob_reshape"
  reshape_param {
    shape {
      dim: 0
      dim: 18
      dim: -1
      dim: 0
    }
  }
}
layer {
  name: "proposal"
  type: "Python"
  bottom: "rpn_cls_prob_reshape"
  bottom: "rpn_bbox_pred"
  bottom: "im_info"
  top: "rois"
  python_param {
    module: "rpn.proposal_layer"
    layer: "ProposalLayer"
    param_str: "\'feat_stride\': 16"
  }
}
layer {
  name: "roi_pool5"
  type: "ROIPooling"
  bottom: "conv5_3"
  bottom: "rois"
  top: "pool5"
  roi_pooling_param {
    pooled_h: 7
    pooled_w: 7
    spatial_scale: 0.0625
  }
}
layer {
  name: "fc6"
  type: "InnerProduct"
  bottom: "pool5"
  top: "fc6"
  inner_product_param {
    num_output: 4096
  }
}
layer {
  name: "relu6"
  type: "ReLU"
  bottom: "fc6"
  top: "fc6"
}
layer {
  name: "fc7"
  type: "InnerProduct"
  bottom: "fc6"
  top: "fc7"
  inner_product_param {
    num_output: 4096
  }
}
layer {
  name: "relu7"
  type: "ReLU"
  bottom: "fc7"
  top: "fc7"
}
layer {
  name: "cls_score"
  type: "InnerProduct"
  bottom: "fc7"
  top: "cls_score"
  inner_product_param {
    num_output: 6
  }
}
layer {
  name: "bbox_pred"
  type: "InnerProduct"
  bottom: "fc7"
  top: "bbox_pred"
  inner_product_param {
    num_output: 24
  }
}
layer {
  name: "cls_prob"
  type: "Softmax"
  bottom: "cls_score"
  top: "cls_prob"
}
I0501 21:23:17.237661 16385 net.cpp:413] Input 0 -> data
I0501 21:23:17.246587 16385 net.cpp:413] Input 1 -> im_info
I0501 21:23:17.246619 16385 layer_factory.hpp:77] Creating layer conv1_1
I0501 21:23:17.246629 16385 net.cpp:106] Creating Layer conv1_1
I0501 21:23:17.246632 16385 net.cpp:454] conv1_1 <- data
I0501 21:23:17.246635 16385 net.cpp:411] conv1_1 -> conv1_1
I0501 21:23:17.247668 16385 net.cpp:150] Setting up conv1_1
I0501 21:23:17.247676 16385 net.cpp:157] Top shape: 1 64 224 224 (3211264)
I0501 21:23:17.247678 16385 net.cpp:165] Memory required for data: 12845056
I0501 21:23:17.247685 16385 layer_factory.hpp:77] Creating layer relu1_1
I0501 21:23:17.247690 16385 net.cpp:106] Creating Layer relu1_1
I0501 21:23:17.247692 16385 net.cpp:454] relu1_1 <- conv1_1
I0501 21:23:17.247695 16385 net.cpp:397] relu1_1 -> conv1_1 (in-place)
I0501 21:23:17.247699 16385 net.cpp:150] Setting up relu1_1
I0501 21:23:17.247702 16385 net.cpp:157] Top shape: 1 64 224 224 (3211264)
I0501 21:23:17.247704 16385 net.cpp:165] Memory required for data: 25690112
I0501 21:23:17.247705 16385 layer_factory.hpp:77] Creating layer conv1_2
I0501 21:23:17.247709 16385 net.cpp:106] Creating Layer conv1_2
I0501 21:23:17.247711 16385 net.cpp:454] conv1_2 <- conv1_1
I0501 21:23:17.247714 16385 net.cpp:411] conv1_2 -> conv1_2
I0501 21:23:17.247867 16385 net.cpp:150] Setting up conv1_2
I0501 21:23:17.247871 16385 net.cpp:157] Top shape: 1 64 224 224 (3211264)
I0501 21:23:17.247872 16385 net.cpp:165] Memory required for data: 38535168
I0501 21:23:17.247877 16385 layer_factory.hpp:77] Creating layer relu1_2
I0501 21:23:17.247880 16385 net.cpp:106] Creating Layer relu1_2
I0501 21:23:17.247882 16385 net.cpp:454] relu1_2 <- conv1_2
I0501 21:23:17.247884 16385 net.cpp:397] relu1_2 -> conv1_2 (in-place)
I0501 21:23:17.247886 16385 net.cpp:150] Setting up relu1_2
I0501 21:23:17.247889 16385 net.cpp:157] Top shape: 1 64 224 224 (3211264)
I0501 21:23:17.247890 16385 net.cpp:165] Memory required for data: 51380224
I0501 21:23:17.247891 16385 layer_factory.hpp:77] Creating layer pool1
I0501 21:23:17.247895 16385 net.cpp:106] Creating Layer pool1
I0501 21:23:17.247897 16385 net.cpp:454] pool1 <- conv1_2
I0501 21:23:17.247900 16385 net.cpp:411] pool1 -> pool1
I0501 21:23:17.247920 16385 net.cpp:150] Setting up pool1
I0501 21:23:17.247922 16385 net.cpp:157] Top shape: 1 64 112 112 (802816)
I0501 21:23:17.247925 16385 net.cpp:165] Memory required for data: 54591488
I0501 21:23:17.247925 16385 layer_factory.hpp:77] Creating layer conv2_1
I0501 21:23:17.247930 16385 net.cpp:106] Creating Layer conv2_1
I0501 21:23:17.247931 16385 net.cpp:454] conv2_1 <- pool1
I0501 21:23:17.247934 16385 net.cpp:411] conv2_1 -> conv2_1
I0501 21:23:17.248935 16385 net.cpp:150] Setting up conv2_1
I0501 21:23:17.248941 16385 net.cpp:157] Top shape: 1 128 112 112 (1605632)
I0501 21:23:17.248944 16385 net.cpp:165] Memory required for data: 61014016
I0501 21:23:17.248949 16385 layer_factory.hpp:77] Creating layer relu2_1
I0501 21:23:17.248952 16385 net.cpp:106] Creating Layer relu2_1
I0501 21:23:17.248955 16385 net.cpp:454] relu2_1 <- conv2_1
I0501 21:23:17.248957 16385 net.cpp:397] relu2_1 -> conv2_1 (in-place)
I0501 21:23:17.248961 16385 net.cpp:150] Setting up relu2_1
I0501 21:23:17.248965 16385 net.cpp:157] Top shape: 1 128 112 112 (1605632)
I0501 21:23:17.248965 16385 net.cpp:165] Memory required for data: 67436544
I0501 21:23:17.248966 16385 layer_factory.hpp:77] Creating layer conv2_2
I0501 21:23:17.248970 16385 net.cpp:106] Creating Layer conv2_2
I0501 21:23:17.248972 16385 net.cpp:454] conv2_2 <- conv2_1
I0501 21:23:17.248975 16385 net.cpp:411] conv2_2 -> conv2_2
I0501 21:23:17.249150 16385 net.cpp:150] Setting up conv2_2
I0501 21:23:17.249155 16385 net.cpp:157] Top shape: 1 128 112 112 (1605632)
I0501 21:23:17.249156 16385 net.cpp:165] Memory required for data: 73859072
I0501 21:23:17.249160 16385 layer_factory.hpp:77] Creating layer relu2_2
I0501 21:23:17.249162 16385 net.cpp:106] Creating Layer relu2_2
I0501 21:23:17.249166 16385 net.cpp:454] relu2_2 <- conv2_2
I0501 21:23:17.249167 16385 net.cpp:397] relu2_2 -> conv2_2 (in-place)
I0501 21:23:17.249171 16385 net.cpp:150] Setting up relu2_2
I0501 21:23:17.249172 16385 net.cpp:157] Top shape: 1 128 112 112 (1605632)
I0501 21:23:17.249174 16385 net.cpp:165] Memory required for data: 80281600
I0501 21:23:17.249176 16385 layer_factory.hpp:77] Creating layer pool2
I0501 21:23:17.249177 16385 net.cpp:106] Creating Layer pool2
I0501 21:23:17.249179 16385 net.cpp:454] pool2 <- conv2_2
I0501 21:23:17.249181 16385 net.cpp:411] pool2 -> pool2
I0501 21:23:17.249202 16385 net.cpp:150] Setting up pool2
I0501 21:23:17.249204 16385 net.cpp:157] Top shape: 1 128 56 56 (401408)
I0501 21:23:17.249205 16385 net.cpp:165] Memory required for data: 81887232
I0501 21:23:17.249207 16385 layer_factory.hpp:77] Creating layer conv3_1
I0501 21:23:17.249210 16385 net.cpp:106] Creating Layer conv3_1
I0501 21:23:17.249212 16385 net.cpp:454] conv3_1 <- pool2
I0501 21:23:17.249214 16385 net.cpp:411] conv3_1 -> conv3_1
I0501 21:23:17.249446 16385 net.cpp:150] Setting up conv3_1
I0501 21:23:17.249451 16385 net.cpp:157] Top shape: 1 256 56 56 (802816)
I0501 21:23:17.249452 16385 net.cpp:165] Memory required for data: 85098496
I0501 21:23:17.249457 16385 layer_factory.hpp:77] Creating layer relu3_1
I0501 21:23:17.249460 16385 net.cpp:106] Creating Layer relu3_1
I0501 21:23:17.249462 16385 net.cpp:454] relu3_1 <- conv3_1
I0501 21:23:17.249464 16385 net.cpp:397] relu3_1 -> conv3_1 (in-place)
I0501 21:23:17.249467 16385 net.cpp:150] Setting up relu3_1
I0501 21:23:17.249470 16385 net.cpp:157] Top shape: 1 256 56 56 (802816)
I0501 21:23:17.249471 16385 net.cpp:165] Memory required for data: 88309760
I0501 21:23:17.249474 16385 layer_factory.hpp:77] Creating layer conv3_2
I0501 21:23:17.249476 16385 net.cpp:106] Creating Layer conv3_2
I0501 21:23:17.249478 16385 net.cpp:454] conv3_2 <- conv3_1
I0501 21:23:17.249480 16385 net.cpp:411] conv3_2 -> conv3_2
I0501 21:23:17.250342 16385 net.cpp:150] Setting up conv3_2
I0501 21:23:17.250349 16385 net.cpp:157] Top shape: 1 256 56 56 (802816)
I0501 21:23:17.250351 16385 net.cpp:165] Memory required for data: 91521024
I0501 21:23:17.250355 16385 layer_factory.hpp:77] Creating layer relu3_2
I0501 21:23:17.250360 16385 net.cpp:106] Creating Layer relu3_2
I0501 21:23:17.250361 16385 net.cpp:454] relu3_2 <- conv3_2
I0501 21:23:17.250365 16385 net.cpp:397] relu3_2 -> conv3_2 (in-place)
I0501 21:23:17.250367 16385 net.cpp:150] Setting up relu3_2
I0501 21:23:17.250370 16385 net.cpp:157] Top shape: 1 256 56 56 (802816)
I0501 21:23:17.250371 16385 net.cpp:165] Memory required for data: 94732288
I0501 21:23:17.250372 16385 layer_factory.hpp:77] Creating layer conv3_3
I0501 21:23:17.250376 16385 net.cpp:106] Creating Layer conv3_3
I0501 21:23:17.250378 16385 net.cpp:454] conv3_3 <- conv3_2
I0501 21:23:17.250380 16385 net.cpp:411] conv3_3 -> conv3_3
I0501 21:23:17.251231 16385 net.cpp:150] Setting up conv3_3
I0501 21:23:17.251238 16385 net.cpp:157] Top shape: 1 256 56 56 (802816)
I0501 21:23:17.251240 16385 net.cpp:165] Memory required for data: 97943552
I0501 21:23:17.251243 16385 layer_factory.hpp:77] Creating layer relu3_3
I0501 21:23:17.251246 16385 net.cpp:106] Creating Layer relu3_3
I0501 21:23:17.251248 16385 net.cpp:454] relu3_3 <- conv3_3
I0501 21:23:17.251251 16385 net.cpp:397] relu3_3 -> conv3_3 (in-place)
I0501 21:23:17.251255 16385 net.cpp:150] Setting up relu3_3
I0501 21:23:17.251257 16385 net.cpp:157] Top shape: 1 256 56 56 (802816)
I0501 21:23:17.251260 16385 net.cpp:165] Memory required for data: 101154816
I0501 21:23:17.251261 16385 layer_factory.hpp:77] Creating layer pool3
I0501 21:23:17.251266 16385 net.cpp:106] Creating Layer pool3
I0501 21:23:17.251268 16385 net.cpp:454] pool3 <- conv3_3
I0501 21:23:17.251271 16385 net.cpp:411] pool3 -> pool3
I0501 21:23:17.251292 16385 net.cpp:150] Setting up pool3
I0501 21:23:17.251296 16385 net.cpp:157] Top shape: 1 256 28 28 (200704)
I0501 21:23:17.251296 16385 net.cpp:165] Memory required for data: 101957632
I0501 21:23:17.251298 16385 layer_factory.hpp:77] Creating layer conv4_1
I0501 21:23:17.251302 16385 net.cpp:106] Creating Layer conv4_1
I0501 21:23:17.251303 16385 net.cpp:454] conv4_1 <- pool3
I0501 21:23:17.251307 16385 net.cpp:411] conv4_1 -> conv4_1
I0501 21:23:17.253203 16385 net.cpp:150] Setting up conv4_1
I0501 21:23:17.253218 16385 net.cpp:157] Top shape: 1 512 28 28 (401408)
I0501 21:23:17.253221 16385 net.cpp:165] Memory required for data: 103563264
I0501 21:23:17.253226 16385 layer_factory.hpp:77] Creating layer relu4_1
I0501 21:23:17.253232 16385 net.cpp:106] Creating Layer relu4_1
I0501 21:23:17.253235 16385 net.cpp:454] relu4_1 <- conv4_1
I0501 21:23:17.253239 16385 net.cpp:397] relu4_1 -> conv4_1 (in-place)
I0501 21:23:17.253244 16385 net.cpp:150] Setting up relu4_1
I0501 21:23:17.253247 16385 net.cpp:157] Top shape: 1 512 28 28 (401408)
I0501 21:23:17.253248 16385 net.cpp:165] Memory required for data: 105168896
I0501 21:23:17.253250 16385 layer_factory.hpp:77] Creating layer conv4_2
I0501 21:23:17.253254 16385 net.cpp:106] Creating Layer conv4_2
I0501 21:23:17.253257 16385 net.cpp:454] conv4_2 <- conv4_1
I0501 21:23:17.253260 16385 net.cpp:411] conv4_2 -> conv4_2
I0501 21:23:17.255990 16385 net.cpp:150] Setting up conv4_2
I0501 21:23:17.256011 16385 net.cpp:157] Top shape: 1 512 28 28 (401408)
I0501 21:23:17.256012 16385 net.cpp:165] Memory required for data: 106774528
I0501 21:23:17.256021 16385 layer_factory.hpp:77] Creating layer relu4_2
I0501 21:23:17.256029 16385 net.cpp:106] Creating Layer relu4_2
I0501 21:23:17.256032 16385 net.cpp:454] relu4_2 <- conv4_2
I0501 21:23:17.256036 16385 net.cpp:397] relu4_2 -> conv4_2 (in-place)
I0501 21:23:17.256042 16385 net.cpp:150] Setting up relu4_2
I0501 21:23:17.256043 16385 net.cpp:157] Top shape: 1 512 28 28 (401408)
I0501 21:23:17.256045 16385 net.cpp:165] Memory required for data: 108380160
I0501 21:23:17.256047 16385 layer_factory.hpp:77] Creating layer conv4_3
I0501 21:23:17.256052 16385 net.cpp:106] Creating Layer conv4_3
I0501 21:23:17.256053 16385 net.cpp:454] conv4_3 <- conv4_2
I0501 21:23:17.256057 16385 net.cpp:411] conv4_3 -> conv4_3
I0501 21:23:17.258793 16385 net.cpp:150] Setting up conv4_3
I0501 21:23:17.258813 16385 net.cpp:157] Top shape: 1 512 28 28 (401408)
I0501 21:23:17.258816 16385 net.cpp:165] Memory required for data: 109985792
I0501 21:23:17.258821 16385 layer_factory.hpp:77] Creating layer relu4_3
I0501 21:23:17.258827 16385 net.cpp:106] Creating Layer relu4_3
I0501 21:23:17.258831 16385 net.cpp:454] relu4_3 <- conv4_3
I0501 21:23:17.258836 16385 net.cpp:397] relu4_3 -> conv4_3 (in-place)
I0501 21:23:17.258841 16385 net.cpp:150] Setting up relu4_3
I0501 21:23:17.258843 16385 net.cpp:157] Top shape: 1 512 28 28 (401408)
I0501 21:23:17.258844 16385 net.cpp:165] Memory required for data: 111591424
I0501 21:23:17.258846 16385 layer_factory.hpp:77] Creating layer pool4
I0501 21:23:17.258849 16385 net.cpp:106] Creating Layer pool4
I0501 21:23:17.258852 16385 net.cpp:454] pool4 <- conv4_3
I0501 21:23:17.258855 16385 net.cpp:411] pool4 -> pool4
I0501 21:23:17.258878 16385 net.cpp:150] Setting up pool4
I0501 21:23:17.258882 16385 net.cpp:157] Top shape: 1 512 14 14 (100352)
I0501 21:23:17.258883 16385 net.cpp:165] Memory required for data: 111992832
I0501 21:23:17.258884 16385 layer_factory.hpp:77] Creating layer conv5_1
I0501 21:23:17.258889 16385 net.cpp:106] Creating Layer conv5_1
I0501 21:23:17.258891 16385 net.cpp:454] conv5_1 <- pool4
I0501 21:23:17.258894 16385 net.cpp:411] conv5_1 -> conv5_1
I0501 21:23:17.261678 16385 net.cpp:150] Setting up conv5_1
I0501 21:23:17.261700 16385 net.cpp:157] Top shape: 1 512 14 14 (100352)
I0501 21:23:17.261703 16385 net.cpp:165] Memory required for data: 112394240
I0501 21:23:17.261708 16385 layer_factory.hpp:77] Creating layer relu5_1
I0501 21:23:17.261715 16385 net.cpp:106] Creating Layer relu5_1
I0501 21:23:17.261718 16385 net.cpp:454] relu5_1 <- conv5_1
I0501 21:23:17.261723 16385 net.cpp:397] relu5_1 -> conv5_1 (in-place)
I0501 21:23:17.261729 16385 net.cpp:150] Setting up relu5_1
I0501 21:23:17.261730 16385 net.cpp:157] Top shape: 1 512 14 14 (100352)
I0501 21:23:17.261731 16385 net.cpp:165] Memory required for data: 112795648
I0501 21:23:17.261734 16385 layer_factory.hpp:77] Creating layer conv5_2
I0501 21:23:17.261739 16385 net.cpp:106] Creating Layer conv5_2
I0501 21:23:17.261740 16385 net.cpp:454] conv5_2 <- conv5_1
I0501 21:23:17.261744 16385 net.cpp:411] conv5_2 -> conv5_2
I0501 21:23:17.264458 16385 net.cpp:150] Setting up conv5_2
I0501 21:23:17.264478 16385 net.cpp:157] Top shape: 1 512 14 14 (100352)
I0501 21:23:17.264479 16385 net.cpp:165] Memory required for data: 113197056
I0501 21:23:17.264485 16385 layer_factory.hpp:77] Creating layer relu5_2
I0501 21:23:17.264492 16385 net.cpp:106] Creating Layer relu5_2
I0501 21:23:17.264494 16385 net.cpp:454] relu5_2 <- conv5_2
I0501 21:23:17.264498 16385 net.cpp:397] relu5_2 -> conv5_2 (in-place)
I0501 21:23:17.264504 16385 net.cpp:150] Setting up relu5_2
I0501 21:23:17.264508 16385 net.cpp:157] Top shape: 1 512 14 14 (100352)
I0501 21:23:17.264508 16385 net.cpp:165] Memory required for data: 113598464
I0501 21:23:17.264509 16385 layer_factory.hpp:77] Creating layer conv5_3
I0501 21:23:17.264514 16385 net.cpp:106] Creating Layer conv5_3
I0501 21:23:17.264516 16385 net.cpp:454] conv5_3 <- conv5_2
I0501 21:23:17.264520 16385 net.cpp:411] conv5_3 -> conv5_3
I0501 21:23:17.267288 16385 net.cpp:150] Setting up conv5_3
I0501 21:23:17.267307 16385 net.cpp:157] Top shape: 1 512 14 14 (100352)
I0501 21:23:17.267309 16385 net.cpp:165] Memory required for data: 113999872
I0501 21:23:17.267314 16385 layer_factory.hpp:77] Creating layer relu5_3
I0501 21:23:17.267320 16385 net.cpp:106] Creating Layer relu5_3
I0501 21:23:17.267323 16385 net.cpp:454] relu5_3 <- conv5_3
I0501 21:23:17.267328 16385 net.cpp:397] relu5_3 -> conv5_3 (in-place)
I0501 21:23:17.267333 16385 net.cpp:150] Setting up relu5_3
I0501 21:23:17.267335 16385 net.cpp:157] Top shape: 1 512 14 14 (100352)
I0501 21:23:17.267336 16385 net.cpp:165] Memory required for data: 114401280
I0501 21:23:17.267338 16385 layer_factory.hpp:77] Creating layer conv5_3_relu5_3_0_split
I0501 21:23:17.267341 16385 net.cpp:106] Creating Layer conv5_3_relu5_3_0_split
I0501 21:23:17.267343 16385 net.cpp:454] conv5_3_relu5_3_0_split <- conv5_3
I0501 21:23:17.267345 16385 net.cpp:411] conv5_3_relu5_3_0_split -> conv5_3_relu5_3_0_split_0
I0501 21:23:17.267349 16385 net.cpp:411] conv5_3_relu5_3_0_split -> conv5_3_relu5_3_0_split_1
I0501 21:23:17.267376 16385 net.cpp:150] Setting up conv5_3_relu5_3_0_split
I0501 21:23:17.267379 16385 net.cpp:157] Top shape: 1 512 14 14 (100352)
I0501 21:23:17.267381 16385 net.cpp:157] Top shape: 1 512 14 14 (100352)
I0501 21:23:17.267383 16385 net.cpp:165] Memory required for data: 115204096
I0501 21:23:17.267385 16385 layer_factory.hpp:77] Creating layer rpn_conv/3x3
I0501 21:23:17.267390 16385 net.cpp:106] Creating Layer rpn_conv/3x3
I0501 21:23:17.267392 16385 net.cpp:454] rpn_conv/3x3 <- conv5_3_relu5_3_0_split_0
I0501 21:23:17.267396 16385 net.cpp:411] rpn_conv/3x3 -> rpn/output
I0501 21:23:17.270130 16385 net.cpp:150] Setting up rpn_conv/3x3
I0501 21:23:17.270151 16385 net.cpp:157] Top shape: 1 512 14 14 (100352)
I0501 21:23:17.270153 16385 net.cpp:165] Memory required for data: 115605504
I0501 21:23:17.270159 16385 layer_factory.hpp:77] Creating layer rpn_relu/3x3
I0501 21:23:17.270167 16385 net.cpp:106] Creating Layer rpn_relu/3x3
I0501 21:23:17.270169 16385 net.cpp:454] rpn_relu/3x3 <- rpn/output
I0501 21:23:17.270174 16385 net.cpp:397] rpn_relu/3x3 -> rpn/output (in-place)
I0501 21:23:17.270179 16385 net.cpp:150] Setting up rpn_relu/3x3
I0501 21:23:17.270181 16385 net.cpp:157] Top shape: 1 512 14 14 (100352)
I0501 21:23:17.270184 16385 net.cpp:165] Memory required for data: 116006912
I0501 21:23:17.270184 16385 layer_factory.hpp:77] Creating layer rpn/output_rpn_relu/3x3_0_split
I0501 21:23:17.270189 16385 net.cpp:106] Creating Layer rpn/output_rpn_relu/3x3_0_split
I0501 21:23:17.270190 16385 net.cpp:454] rpn/output_rpn_relu/3x3_0_split <- rpn/output
I0501 21:23:17.270193 16385 net.cpp:411] rpn/output_rpn_relu/3x3_0_split -> rpn/output_rpn_relu/3x3_0_split_0
I0501 21:23:17.270196 16385 net.cpp:411] rpn/output_rpn_relu/3x3_0_split -> rpn/output_rpn_relu/3x3_0_split_1
I0501 21:23:17.270226 16385 net.cpp:150] Setting up rpn/output_rpn_relu/3x3_0_split
I0501 21:23:17.270228 16385 net.cpp:157] Top shape: 1 512 14 14 (100352)
I0501 21:23:17.270229 16385 net.cpp:157] Top shape: 1 512 14 14 (100352)
I0501 21:23:17.270231 16385 net.cpp:165] Memory required for data: 116809728
I0501 21:23:17.270232 16385 layer_factory.hpp:77] Creating layer rpn_cls_score
I0501 21:23:17.270236 16385 net.cpp:106] Creating Layer rpn_cls_score
I0501 21:23:17.270239 16385 net.cpp:454] rpn_cls_score <- rpn/output_rpn_relu/3x3_0_split_0
I0501 21:23:17.270242 16385 net.cpp:411] rpn_cls_score -> rpn_cls_score
I0501 21:23:17.270373 16385 net.cpp:150] Setting up rpn_cls_score
I0501 21:23:17.270377 16385 net.cpp:157] Top shape: 1 18 14 14 (3528)
I0501 21:23:17.270378 16385 net.cpp:165] Memory required for data: 116823840
I0501 21:23:17.270381 16385 layer_factory.hpp:77] Creating layer rpn_bbox_pred
I0501 21:23:17.270385 16385 net.cpp:106] Creating Layer rpn_bbox_pred
I0501 21:23:17.270387 16385 net.cpp:454] rpn_bbox_pred <- rpn/output_rpn_relu/3x3_0_split_1
I0501 21:23:17.270390 16385 net.cpp:411] rpn_bbox_pred -> rpn_bbox_pred
I0501 21:23:17.270524 16385 net.cpp:150] Setting up rpn_bbox_pred
I0501 21:23:17.270527 16385 net.cpp:157] Top shape: 1 36 14 14 (7056)
I0501 21:23:17.270529 16385 net.cpp:165] Memory required for data: 116852064
I0501 21:23:17.270531 16385 layer_factory.hpp:77] Creating layer rpn_cls_score_reshape
I0501 21:23:17.270537 16385 net.cpp:106] Creating Layer rpn_cls_score_reshape
I0501 21:23:17.270539 16385 net.cpp:454] rpn_cls_score_reshape <- rpn_cls_score
I0501 21:23:17.270542 16385 net.cpp:411] rpn_cls_score_reshape -> rpn_cls_score_reshape
I0501 21:23:17.270555 16385 net.cpp:150] Setting up rpn_cls_score_reshape
I0501 21:23:17.270560 16385 net.cpp:157] Top shape: 1 2 126 14 (3528)
I0501 21:23:17.270560 16385 net.cpp:165] Memory required for data: 116866176
I0501 21:23:17.270561 16385 layer_factory.hpp:77] Creating layer rpn_cls_prob
I0501 21:23:17.270565 16385 net.cpp:106] Creating Layer rpn_cls_prob
I0501 21:23:17.270565 16385 net.cpp:454] rpn_cls_prob <- rpn_cls_score_reshape
I0501 21:23:17.270570 16385 net.cpp:411] rpn_cls_prob -> rpn_cls_prob
I0501 21:23:17.270601 16385 net.cpp:150] Setting up rpn_cls_prob
I0501 21:23:17.270603 16385 net.cpp:157] Top shape: 1 2 126 14 (3528)
I0501 21:23:17.270606 16385 net.cpp:165] Memory required for data: 116880288
I0501 21:23:17.270606 16385 layer_factory.hpp:77] Creating layer rpn_cls_prob_reshape
I0501 21:23:17.270609 16385 net.cpp:106] Creating Layer rpn_cls_prob_reshape
I0501 21:23:17.270612 16385 net.cpp:454] rpn_cls_prob_reshape <- rpn_cls_prob
I0501 21:23:17.270614 16385 net.cpp:411] rpn_cls_prob_reshape -> rpn_cls_prob_reshape
I0501 21:23:17.270627 16385 net.cpp:150] Setting up rpn_cls_prob_reshape
I0501 21:23:17.270629 16385 net.cpp:157] Top shape: 1 18 14 14 (3528)
I0501 21:23:17.270632 16385 net.cpp:165] Memory required for data: 116894400
I0501 21:23:17.270632 16385 layer_factory.hpp:77] Creating layer proposal
I0501 21:23:17.270886 16385 net.cpp:106] Creating Layer proposal
I0501 21:23:17.270890 16385 net.cpp:454] proposal <- rpn_cls_prob_reshape
I0501 21:23:17.270894 16385 net.cpp:454] proposal <- rpn_bbox_pred
I0501 21:23:17.270896 16385 net.cpp:454] proposal <- im_info
I0501 21:23:17.270900 16385 net.cpp:411] proposal -> rois
I0501 21:23:17.271322 16385 net.cpp:150] Setting up proposal
I0501 21:23:17.271328 16385 net.cpp:157] Top shape: 1 5 (5)
I0501 21:23:17.271330 16385 net.cpp:165] Memory required for data: 116894420
I0501 21:23:17.271332 16385 layer_factory.hpp:77] Creating layer roi_pool5
I0501 21:23:17.271337 16385 net.cpp:106] Creating Layer roi_pool5
I0501 21:23:17.271338 16385 net.cpp:454] roi_pool5 <- conv5_3_relu5_3_0_split_1
I0501 21:23:17.271342 16385 net.cpp:454] roi_pool5 <- rois
I0501 21:23:17.271344 16385 net.cpp:411] roi_pool5 -> pool5
I0501 21:23:17.271349 16385 roi_pooling_layer.cpp:30] Spatial scale: 0.0625
I0501 21:23:17.271374 16385 net.cpp:150] Setting up roi_pool5
I0501 21:23:17.271378 16385 net.cpp:157] Top shape: 1 512 7 7 (25088)
I0501 21:23:17.271379 16385 net.cpp:165] Memory required for data: 116994772
I0501 21:23:17.271380 16385 layer_factory.hpp:77] Creating layer fc6
I0501 21:23:17.271384 16385 net.cpp:106] Creating Layer fc6
I0501 21:23:17.271385 16385 net.cpp:454] fc6 <- pool5
I0501 21:23:17.271389 16385 net.cpp:411] fc6 -> fc6
I0501 21:23:17.374653 16385 net.cpp:150] Setting up fc6
I0501 21:23:17.374673 16385 net.cpp:157] Top shape: 1 4096 (4096)
I0501 21:23:17.374675 16385 net.cpp:165] Memory required for data: 117011156
I0501 21:23:17.374686 16385 layer_factory.hpp:77] Creating layer relu6
I0501 21:23:17.374692 16385 net.cpp:106] Creating Layer relu6
I0501 21:23:17.374694 16385 net.cpp:454] relu6 <- fc6
I0501 21:23:17.374697 16385 net.cpp:397] relu6 -> fc6 (in-place)
I0501 21:23:17.374702 16385 net.cpp:150] Setting up relu6
I0501 21:23:17.374704 16385 net.cpp:157] Top shape: 1 4096 (4096)
I0501 21:23:17.374706 16385 net.cpp:165] Memory required for data: 117027540
I0501 21:23:17.374707 16385 layer_factory.hpp:77] Creating layer fc7
I0501 21:23:17.374711 16385 net.cpp:106] Creating Layer fc7
I0501 21:23:17.374711 16385 net.cpp:454] fc7 <- fc6
I0501 21:23:17.374714 16385 net.cpp:411] fc7 -> fc7
I0501 21:23:17.391607 16385 net.cpp:150] Setting up fc7
I0501 21:23:17.391639 16385 net.cpp:157] Top shape: 1 4096 (4096)
I0501 21:23:17.391641 16385 net.cpp:165] Memory required for data: 117043924
I0501 21:23:17.391649 16385 layer_factory.hpp:77] Creating layer relu7
I0501 21:23:17.391656 16385 net.cpp:106] Creating Layer relu7
I0501 21:23:17.391659 16385 net.cpp:454] relu7 <- fc7
I0501 21:23:17.391662 16385 net.cpp:397] relu7 -> fc7 (in-place)
I0501 21:23:17.391666 16385 net.cpp:150] Setting up relu7
I0501 21:23:17.391669 16385 net.cpp:157] Top shape: 1 4096 (4096)
I0501 21:23:17.391669 16385 net.cpp:165] Memory required for data: 117060308
I0501 21:23:17.391671 16385 layer_factory.hpp:77] Creating layer fc7_relu7_0_split
I0501 21:23:17.391675 16385 net.cpp:106] Creating Layer fc7_relu7_0_split
I0501 21:23:17.391679 16385 net.cpp:454] fc7_relu7_0_split <- fc7
I0501 21:23:17.391680 16385 net.cpp:411] fc7_relu7_0_split -> fc7_relu7_0_split_0
I0501 21:23:17.391686 16385 net.cpp:411] fc7_relu7_0_split -> fc7_relu7_0_split_1
I0501 21:23:17.391708 16385 net.cpp:150] Setting up fc7_relu7_0_split
I0501 21:23:17.391711 16385 net.cpp:157] Top shape: 1 4096 (4096)
I0501 21:23:17.391713 16385 net.cpp:157] Top shape: 1 4096 (4096)
I0501 21:23:17.391715 16385 net.cpp:165] Memory required for data: 117093076
I0501 21:23:17.391716 16385 layer_factory.hpp:77] Creating layer cls_score
I0501 21:23:17.391719 16385 net.cpp:106] Creating Layer cls_score
I0501 21:23:17.391721 16385 net.cpp:454] cls_score <- fc7_relu7_0_split_0
I0501 21:23:17.391723 16385 net.cpp:411] cls_score -> cls_score
I0501 21:23:17.391788 16385 net.cpp:150] Setting up cls_score
I0501 21:23:17.391791 16385 net.cpp:157] Top shape: 1 6 (6)
I0501 21:23:17.391793 16385 net.cpp:165] Memory required for data: 117093100
I0501 21:23:17.391795 16385 layer_factory.hpp:77] Creating layer bbox_pred
I0501 21:23:17.391798 16385 net.cpp:106] Creating Layer bbox_pred
I0501 21:23:17.391799 16385 net.cpp:454] bbox_pred <- fc7_relu7_0_split_1
I0501 21:23:17.391801 16385 net.cpp:411] bbox_pred -> bbox_pred
I0501 21:23:17.392447 16385 net.cpp:150] Setting up bbox_pred
I0501 21:23:17.392453 16385 net.cpp:157] Top shape: 1 24 (24)
I0501 21:23:17.392454 16385 net.cpp:165] Memory required for data: 117093196
I0501 21:23:17.392472 16385 layer_factory.hpp:77] Creating layer cls_prob
I0501 21:23:17.392475 16385 net.cpp:106] Creating Layer cls_prob
I0501 21:23:17.392477 16385 net.cpp:454] cls_prob <- cls_score
I0501 21:23:17.392479 16385 net.cpp:411] cls_prob -> cls_prob
I0501 21:23:17.392513 16385 net.cpp:150] Setting up cls_prob
I0501 21:23:17.392516 16385 net.cpp:157] Top shape: 1 6 (6)
I0501 21:23:17.392518 16385 net.cpp:165] Memory required for data: 117093220
I0501 21:23:17.392519 16385 net.cpp:228] cls_prob does not need backward computation.
I0501 21:23:17.392520 16385 net.cpp:228] bbox_pred does not need backward computation.
I0501 21:23:17.392523 16385 net.cpp:228] cls_score does not need backward computation.
I0501 21:23:17.392524 16385 net.cpp:228] fc7_relu7_0_split does not need backward computation.
…
