…
snapshot: 0
snapshot_prefix: "vgg16_rpn"
average_loss: 100
I0430 18:49:31.749205  3957 solver.cpp:81] Creating training net from train_net file: models/pascal_voc/VGG16/faster_rcnn_alt_opt/stage1_rpn_train.pt
I0430 18:49:31.749572  3957 net.cpp:49] Initializing net from parameters: 
name: "VGG_ILSVRC_16_layers"
state {
  phase: TRAIN
}
layer {
  name: "input-data"
  type: "Python"
  top: "data"
  top: "im_info"
  top: "gt_boxes"
  python_param {
    module: "roi_data_layer.layer"
    layer: "RoIDataLayer"
    param_str: "\'num_classes\': 6"
  }
}
layer {
  name: "conv1_1"
  type: "Convolution"
  bottom: "data"
  top: "conv1_1"
  param {
    lr_mult: 0
    decay_mult: 0
  }
  param {
    lr_mult: 0
    decay_mult: 0
  }
  convolution_param {
    num_output: 64
    pad: 1
    kernel_size: 3
  }
}
layer {
  name: "relu1_1"
  type: "ReLU"
  bottom: "conv1_1"
  top: "conv1_1"
}
layer {
  name: "conv1_2"
  type: "Convolution"
  bottom: "conv1_1"
  top: "conv1_2"
  param {
    lr_mult: 0
    decay_mult: 0
  }
  param {
    lr_mult: 0
    decay_mult: 0
  }
  convolution_param {
    num_output: 64
    pad: 1
    kernel_size: 3
  }
}
layer {
  name: "relu1_2"
  type: "ReLU"
  bottom: "conv1_2"
  top: "conv1_2"
}
layer {
  name: "pool1"
  type: "Pooling"
  bottom: "conv1_2"
  top: "pool1"
  pooling_param {
    pool: MAX
    kernel_size: 2
    stride: 2
  }
}
layer {
  name: "conv2_1"
  type: "Convolution"
  bottom: "pool1"
  top: "conv2_1"
  param {
    lr_mult: 0
    decay_mult: 0
  }
  param {
    lr_mult: 0
    decay_mult: 0
  }
  convolution_param {
    num_output: 128
    pad: 1
    kernel_size: 3
  }
}
layer {
  name: "relu2_1"
  type: "ReLU"
  bottom: "conv2_1"
  top: "conv2_1"
}
layer {
  name: "conv2_2"
  type: "Convolution"
  bottom: "conv2_1"
  top: "conv2_2"
  param {
    lr_mult: 0
    decay_mult: 0
  }
  param {
    lr_mult: 0
    decay_mult: 0
  }
  convolution_param {
    num_output: 128
    pad: 1
    kernel_size: 3
  }
}
layer {
  name: "relu2_2"
  type: "ReLU"
  bottom: "conv2_2"
  top: "conv2_2"
}
layer {
  name: "pool2"
  type: "Pooling"
  bottom: "conv2_2"
  top: "pool2"
  pooling_param {
    pool: MAX
    kernel_size: 2
    stride: 2
  }
}
layer {
  name: "conv3_1"
  type: "Convolution"
  bottom: "pool2"
  top: "conv3_1"
  param {
    lr_mult: 1
  }
  param {
    lr_mult: 2
  }
  convolution_param {
    num_output: 256
    pad: 1
    kernel_size: 3
  }
}
layer {
  name: "relu3_1"
  type: "ReLU"
  bottom: "conv3_1"
  top: "conv3_1"
}
layer {
  name: "conv3_2"
  type: "Convolution"
  bottom: "conv3_1"
  top: "conv3_2"
  param {
    lr_mult: 1
  }
  param {
    lr_mult: 2
  }
  convolution_param {
    num_output: 256
    pad: 1
    kernel_size: 3
  }
}
layer {
  name: "relu3_2"
  type: "ReLU"
  bottom: "conv3_2"
  top: "conv3_2"
}
layer {
  name: "conv3_3"
  type: "Convolution"
  bottom: "conv3_2"
  top: "conv3_3"
  param {
    lr_mult: 1
  }
  param {
    lr_mult: 2
  }
  convolution_param {
    num_output: 256
    pad: 1
    kernel_size: 3
  }
}
layer {
  name: "relu3_3"
  type: "ReLU"
  bottom: "conv3_3"
  top: "conv3_3"
}
layer {
  name: "pool3"
  type: "Pooling"
  bottom: "conv3_3"
  top: "pool3"
  pooling_param {
    pool: MAX
    kernel_size: 2
    stride: 2
  }
}
layer {
  name: "conv4_1"
  type: "Convolution"
  bottom: "pool3"
  top: "conv4_1"
  param {
    lr_mult: 1
  }
  param {
    lr_mult: 2
  }
  convolution_param {
    num_output: 512
    pad: 1
    kernel_size: 3
  }
}
layer {
  name: "relu4_1"
  type: "ReLU"
  bottom: "conv4_1"
  top: "conv4_1"
}
layer {
  name: "conv4_2"
  type: "Convolution"
  bottom: "conv4_1"
  top: "conv4_2"
  param {
    lr_mult: 1
  }
  param {
    lr_mult: 2
  }
  convolution_param {
    num_output: 512
    pad: 1
    kernel_size: 3
  }
}
layer {
  name: "relu4_2"
  type: "ReLU"
  bottom: "conv4_2"
  top: "conv4_2"
}
layer {
  name: "conv4_3"
  type: "Convolution"
  bottom: "conv4_2"
  top: "conv4_3"
  param {
    lr_mult: 1
  }
  param {
    lr_mult: 2
  }
  convolution_param {
    num_output: 512
    pad: 1
    kernel_size: 3
  }
}
layer {
  name: "relu4_3"
  type: "ReLU"
  bottom: "conv4_3"
  top: "conv4_3"
}
layer {
  name: "pool4"
  type: "Pooling"
  bottom: "conv4_3"
  top: "pool4"
  pooling_param {
    pool: MAX
    kernel_size: 2
    stride: 2
  }
}
layer {
  name: "conv5_1"
  type: "Convolution"
  bottom: "pool4"
  top: "conv5_1"
  param {
    lr_mult: 1
  }
  param {
    lr_mult: 2
  }
  convolution_param {
    num_output: 512
    pad: 1
    kernel_size: 3
  }
}
layer {
  name: "relu5_1"
  type: "ReLU"
  bottom: "conv5_1"
  top: "conv5_1"
}
layer {
  name: "conv5_2"
  type: "Convolution"
  bottom: "conv5_1"
  top: "conv5_2"
  param {
    lr_mult: 1
  }
  param {
    lr_mult: 2
  }
  convolution_param {
    num_output: 512
    pad: 1
    kernel_size: 3
  }
}
layer {
  name: "relu5_2"
  type: "ReLU"
  bottom: "conv5_2"
  top: "conv5_2"
}
layer {
  name: "conv5_3"
  type: "Convolution"
  bottom: "conv5_2"
  top: "conv5_3"
  param {
    lr_mult: 1
  }
  param {
    lr_mult: 2
  }
  convolution_param {
    num_output: 512
    pad: 1
    kernel_size: 3
  }
}
layer {
  name: "relu5_3"
  type: "ReLU"
  bottom: "conv5_3"
  top: "conv5_3"
}
layer {
  name: "rpn_conv/3x3"
  type: "Convolution"
  bottom: "conv5_3"
  top: "rpn/output"
  param {
    lr_mult: 1
  }
  param {
    lr_mult: 2
  }
  convolution_param {
    num_output: 512
    pad: 1
    kernel_size: 3
    stride: 1
    weight_filler {
      type: "gaussian"
      std: 0.01
    }
    bias_filler {
      type: "constant"
      value: 0
    }
  }
}
layer {
  name: "rpn_relu/3x3"
  type: "ReLU"
  bottom: "rpn/output"
  top: "rpn/output"
}
layer {
  name: "rpn_cls_score"
  type: "Convolution"
  bottom: "rpn/output"
  top: "rpn_cls_score"
  param {
    lr_mult: 1
  }
  param {
    lr_mult: 2
  }
  convolution_param {
    num_output: 18
    pad: 0
    kernel_size: 1
    stride: 1
    weight_filler {
      type: "gaussian"
      std: 0.01
    }
    bias_filler {
      type: "constant"
      value: 0
    }
  }
}
layer {
  name: "rpn_bbox_pred"
  type: "Convolution"
  bottom: "rpn/output"
  top: "rpn_bbox_pred"
  param {
    lr_mult: 1
  }
  param {
    lr_mult: 2
  }
  convolution_param {
    num_output: 36
    pad: 0
    kernel_size: 1
    stride: 1
    weight_filler {
      type: "gaussian"
      std: 0.01
    }
    bias_filler {
      type: "constant"
      value: 0
    }
  }
}
layer {
  name: "rpn_cls_score_reshape"
  type: "Reshape"
  bottom: "rpn_cls_score"
  top: "rpn_cls_score_reshape"
  reshape_param {
    shape {
      dim: 0
      dim: 2
      dim: -1
      dim: 0
    }
  }
}
layer {
  name: "rpn-data"
  type: "Python"
  bottom: "rpn_cls_score"
  bottom: "gt_boxes"
  bottom: "im_info"
  bottom: "data"
  top: "rpn_labels"
  top: "rpn_bbox_targets"
  top: "rpn_bbox_inside_weights"
  top: "rpn_bbox_outside_weights"
  python_param {
    module: "rpn.anchor_target_layer"
    layer: "AnchorTargetLayer"
    param_str: "\'feat_stride\': 16"
  }
}
layer {
  name: "rpn_loss_cls"
  type: "SoftmaxWithLoss"
  bottom: "rpn_cls_score_reshape"
  bottom: "rpn_labels"
  top: "rpn_cls_loss"
  loss_weight: 1
  propagate_down: true
  propagate_down: false
  loss_param {
    ignore_label: -1
    normalize: true
  }
}
layer {
  name: "rpn_loss_bbox"
  type: "SmoothL1Loss"
  bottom: "rpn_bbox_pred"
  bottom: "rpn_bbox_targets"
  bottom: "rpn_bbox_inside_weights"
  bottom: "rpn_bbox_outside_weights"
  top: "rpn_loss_bbox"
  loss_weight: 1
  smooth_l1_loss_param {
    sigma: 3
  }
}
layer {
  name: "dummy_roi_pool_conv5"
  type: "DummyData"
  top: "dummy_roi_pool_conv5"
  dummy_data_param {
    data_filler {
      type: "constant"
      value: 0
    }
    shape {
      dim: 1
      dim: 25088
    }
  }
}
layer {
  name: "fc6"
  type: "InnerProduct"
  bottom: "dummy_roi_pool_conv5"
  top: "fc6"
  param {
    lr_mult: 0
    decay_mult: 0
  }
  param {
    lr_mult: 0
    decay_mult: 0
  }
  inner_product_param {
    num_output: 4096
  }
}
layer {
  name: "relu6"
  type: "ReLU"
  bottom: "fc6"
  top: "fc6"
}
layer {
  name: "drop6"
  type: "Dropout"
  bottom: "fc6"
  top: "fc6"
  dropout_param {
    dropout_ratio: 0.5
  }
}
layer {
  name: "fc7"
  type: "InnerProduct"
  bottom: "fc6"
  top: "fc7"
  param {
    lr_mult: 0
    decay_mult: 0
  }
  param {
    lr_mult: 0
    decay_mult: 0
  }
  inner_product_param {
    num_output: 4096
  }
}
layer {
  name: "silence_fc7"
  type: "Silence"
  bottom: "fc7"
}
I0430 18:49:31.749709  3957 layer_factory.hpp:77] Creating layer input-data
I0430 18:49:31.750010  3957 net.cpp:106] Creating Layer input-data
I0430 18:49:31.750032  3957 net.cpp:411] input-data -> data
I0430 18:49:31.750037  3957 net.cpp:411] input-data -> im_info
I0430 18:49:31.750041  3957 net.cpp:411] input-data -> gt_boxes
RoiDataLayer: name_to_top: {'gt_boxes': 2, 'data': 0, 'im_info': 1}
I0430 18:49:31.758872  3957 net.cpp:150] Setting up input-data
I0430 18:49:31.758894  3957 net.cpp:157] Top shape: 1 3 600 1000 (1800000)
I0430 18:49:31.758898  3957 net.cpp:157] Top shape: 1 3 (3)
I0430 18:49:31.758898  3957 net.cpp:157] Top shape: 1 4 (4)
I0430 18:49:31.758899  3957 net.cpp:165] Memory required for data: 7200028
I0430 18:49:31.758918  3957 layer_factory.hpp:77] Creating layer data_input-data_0_split
I0430 18:49:31.758927  3957 net.cpp:106] Creating Layer data_input-data_0_split
I0430 18:49:31.758929  3957 net.cpp:454] data_input-data_0_split <- data
I0430 18:49:31.758934  3957 net.cpp:411] data_input-data_0_split -> data_input-data_0_split_0
I0430 18:49:31.758939  3957 net.cpp:411] data_input-data_0_split -> data_input-data_0_split_1
I0430 18:49:31.758960  3957 net.cpp:150] Setting up data_input-data_0_split
I0430 18:49:31.758963  3957 net.cpp:157] Top shape: 1 3 600 1000 (1800000)
I0430 18:49:31.758965  3957 net.cpp:157] Top shape: 1 3 600 1000 (1800000)
I0430 18:49:31.758966  3957 net.cpp:165] Memory required for data: 21600028
I0430 18:49:31.758968  3957 layer_factory.hpp:77] Creating layer conv1_1
I0430 18:49:31.758973  3957 net.cpp:106] Creating Layer conv1_1
I0430 18:49:31.758975  3957 net.cpp:454] conv1_1 <- data_input-data_0_split_0
I0430 18:49:31.758977  3957 net.cpp:411] conv1_1 -> conv1_1
I0430 18:49:31.760213  3957 net.cpp:150] Setting up conv1_1
I0430 18:49:31.760236  3957 net.cpp:157] Top shape: 1 64 600 1000 (38400000)
I0430 18:49:31.760237  3957 net.cpp:165] Memory required for data: 175200028
I0430 18:49:31.760244  3957 layer_factory.hpp:77] Creating layer relu1_1
I0430 18:49:31.760249  3957 net.cpp:106] Creating Layer relu1_1
I0430 18:49:31.760251  3957 net.cpp:454] relu1_1 <- conv1_1
I0430 18:49:31.760255  3957 net.cpp:397] relu1_1 -> conv1_1 (in-place)
I0430 18:49:31.760259  3957 net.cpp:150] Setting up relu1_1
I0430 18:49:31.760262  3957 net.cpp:157] Top shape: 1 64 600 1000 (38400000)
I0430 18:49:31.760262  3957 net.cpp:165] Memory required for data: 328800028
I0430 18:49:31.760264  3957 layer_factory.hpp:77] Creating layer conv1_2
I0430 18:49:31.760268  3957 net.cpp:106] Creating Layer conv1_2
I0430 18:49:31.760270  3957 net.cpp:454] conv1_2 <- conv1_1
I0430 18:49:31.760273  3957 net.cpp:411] conv1_2 -> conv1_2
I0430 18:49:31.761543  3957 net.cpp:150] Setting up conv1_2
I0430 18:49:31.761550  3957 net.cpp:157] Top shape: 1 64 600 1000 (38400000)
I0430 18:49:31.761553  3957 net.cpp:165] Memory required for data: 482400028
I0430 18:49:31.761557  3957 layer_factory.hpp:77] Creating layer relu1_2
I0430 18:49:31.761561  3957 net.cpp:106] Creating Layer relu1_2
I0430 18:49:31.761564  3957 net.cpp:454] relu1_2 <- conv1_2
I0430 18:49:31.761569  3957 net.cpp:397] relu1_2 -> conv1_2 (in-place)
I0430 18:49:31.761572  3957 net.cpp:150] Setting up relu1_2
I0430 18:49:31.761574  3957 net.cpp:157] Top shape: 1 64 600 1000 (38400000)
I0430 18:49:31.761576  3957 net.cpp:165] Memory required for data: 636000028
I0430 18:49:31.761577  3957 layer_factory.hpp:77] Creating layer pool1
I0430 18:49:31.761580  3957 net.cpp:106] Creating Layer pool1
I0430 18:49:31.761582  3957 net.cpp:454] pool1 <- conv1_2
I0430 18:49:31.761586  3957 net.cpp:411] pool1 -> pool1
I0430 18:49:31.761615  3957 net.cpp:150] Setting up pool1
I0430 18:49:31.761618  3957 net.cpp:157] Top shape: 1 64 300 500 (9600000)
I0430 18:49:31.761620  3957 net.cpp:165] Memory required for data: 674400028
I0430 18:49:31.761620  3957 layer_factory.hpp:77] Creating layer conv2_1
I0430 18:49:31.761626  3957 net.cpp:106] Creating Layer conv2_1
I0430 18:49:31.761627  3957 net.cpp:454] conv2_1 <- pool1
I0430 18:49:31.761631  3957 net.cpp:411] conv2_1 -> conv2_1
I0430 18:49:31.762280  3957 net.cpp:150] Setting up conv2_1
I0430 18:49:31.762286  3957 net.cpp:157] Top shape: 1 128 300 500 (19200000)
I0430 18:49:31.762289  3957 net.cpp:165] Memory required for data: 751200028
I0430 18:49:31.762293  3957 layer_factory.hpp:77] Creating layer relu2_1
I0430 18:49:31.762300  3957 net.cpp:106] Creating Layer relu2_1
I0430 18:49:31.762302  3957 net.cpp:454] relu2_1 <- conv2_1
I0430 18:49:31.762305  3957 net.cpp:397] relu2_1 -> conv2_1 (in-place)
I0430 18:49:31.762307  3957 net.cpp:150] Setting up relu2_1
I0430 18:49:31.762310  3957 net.cpp:157] Top shape: 1 128 300 500 (19200000)
I0430 18:49:31.762312  3957 net.cpp:165] Memory required for data: 828000028
I0430 18:49:31.762313  3957 layer_factory.hpp:77] Creating layer conv2_2
I0430 18:49:31.762316  3957 net.cpp:106] Creating Layer conv2_2
I0430 18:49:31.762318  3957 net.cpp:454] conv2_2 <- conv2_1
I0430 18:49:31.762321  3957 net.cpp:411] conv2_2 -> conv2_2
I0430 18:49:31.762549  3957 net.cpp:150] Setting up conv2_2
I0430 18:49:31.762553  3957 net.cpp:157] Top shape: 1 128 300 500 (19200000)
I0430 18:49:31.762555  3957 net.cpp:165] Memory required for data: 904800028
I0430 18:49:31.762557  3957 layer_factory.hpp:77] Creating layer relu2_2
I0430 18:49:31.762560  3957 net.cpp:106] Creating Layer relu2_2
I0430 18:49:31.762562  3957 net.cpp:454] relu2_2 <- conv2_2
I0430 18:49:31.762565  3957 net.cpp:397] relu2_2 -> conv2_2 (in-place)
I0430 18:49:31.762568  3957 net.cpp:150] Setting up relu2_2
I0430 18:49:31.762570  3957 net.cpp:157] Top shape: 1 128 300 500 (19200000)
I0430 18:49:31.762572  3957 net.cpp:165] Memory required for data: 981600028
I0430 18:49:31.762573  3957 layer_factory.hpp:77] Creating layer pool2
I0430 18:49:31.762576  3957 net.cpp:106] Creating Layer pool2
I0430 18:49:31.762578  3957 net.cpp:454] pool2 <- conv2_2
I0430 18:49:31.762581  3957 net.cpp:411] pool2 -> pool2
I0430 18:49:31.762600  3957 net.cpp:150] Setting up pool2
I0430 18:49:31.762603  3957 net.cpp:157] Top shape: 1 128 150 250 (4800000)
I0430 18:49:31.762604  3957 net.cpp:165] Memory required for data: 1000800028
I0430 18:49:31.762605  3957 layer_factory.hpp:77] Creating layer conv3_1
I0430 18:49:31.762609  3957 net.cpp:106] Creating Layer conv3_1
I0430 18:49:31.762611  3957 net.cpp:454] conv3_1 <- pool2
I0430 18:49:31.762614  3957 net.cpp:411] conv3_1 -> conv3_1
I0430 18:49:31.763294  3957 net.cpp:150] Setting up conv3_1
I0430 18:49:31.763301  3957 net.cpp:157] Top shape: 1 256 150 250 (9600000)
I0430 18:49:31.763303  3957 net.cpp:165] Memory required for data: 1039200028
I0430 18:49:31.763309  3957 layer_factory.hpp:77] Creating layer relu3_1
I0430 18:49:31.763312  3957 net.cpp:106] Creating Layer relu3_1
I0430 18:49:31.763315  3957 net.cpp:454] relu3_1 <- conv3_1
I0430 18:49:31.763317  3957 net.cpp:397] relu3_1 -> conv3_1 (in-place)
I0430 18:49:31.763321  3957 net.cpp:150] Setting up relu3_1
I0430 18:49:31.763324  3957 net.cpp:157] Top shape: 1 256 150 250 (9600000)
I0430 18:49:31.763325  3957 net.cpp:165] Memory required for data: 1077600028
I0430 18:49:31.763326  3957 layer_factory.hpp:77] Creating layer conv3_2
I0430 18:49:31.763331  3957 net.cpp:106] Creating Layer conv3_2
I0430 18:49:31.763334  3957 net.cpp:454] conv3_2 <- conv3_1
I0430 18:49:31.763335  3957 net.cpp:411] conv3_2 -> conv3_2
I0430 18:49:31.764163  3957 net.cpp:150] Setting up conv3_2
I0430 18:49:31.764170  3957 net.cpp:157] Top shape: 1 256 150 250 (9600000)
I0430 18:49:31.764173  3957 net.cpp:165] Memory required for data: 1116000028
I0430 18:49:31.764175  3957 layer_factory.hpp:77] Creating layer relu3_2
I0430 18:49:31.764179  3957 net.cpp:106] Creating Layer relu3_2
I0430 18:49:31.764181  3957 net.cpp:454] relu3_2 <- conv3_2
I0430 18:49:31.764184  3957 net.cpp:397] relu3_2 -> conv3_2 (in-place)
I0430 18:49:31.764189  3957 net.cpp:150] Setting up relu3_2
I0430 18:49:31.764191  3957 net.cpp:157] Top shape: 1 256 150 250 (9600000)
I0430 18:49:31.764192  3957 net.cpp:165] Memory required for data: 1154400028
I0430 18:49:31.764194  3957 layer_factory.hpp:77] Creating layer conv3_3
I0430 18:49:31.764199  3957 net.cpp:106] Creating Layer conv3_3
I0430 18:49:31.764201  3957 net.cpp:454] conv3_3 <- conv3_2
I0430 18:49:31.764204  3957 net.cpp:411] conv3_3 -> conv3_3
I0430 18:49:31.765043  3957 net.cpp:150] Setting up conv3_3
I0430 18:49:31.765050  3957 net.cpp:157] Top shape: 1 256 150 250 (9600000)
I0430 18:49:31.765053  3957 net.cpp:165] Memory required for data: 1192800028
I0430 18:49:31.765055  3957 layer_factory.hpp:77] Creating layer relu3_3
I0430 18:49:31.765058  3957 net.cpp:106] Creating Layer relu3_3
I0430 18:49:31.765060  3957 net.cpp:454] relu3_3 <- conv3_3
I0430 18:49:31.765064  3957 net.cpp:397] relu3_3 -> conv3_3 (in-place)
I0430 18:49:31.765067  3957 net.cpp:150] Setting up relu3_3
I0430 18:49:31.765069  3957 net.cpp:157] Top shape: 1 256 150 250 (9600000)
I0430 18:49:31.765071  3957 net.cpp:165] Memory required for data: 1231200028
I0430 18:49:31.765072  3957 layer_factory.hpp:77] Creating layer pool3
I0430 18:49:31.765075  3957 net.cpp:106] Creating Layer pool3
I0430 18:49:31.765079  3957 net.cpp:454] pool3 <- conv3_3
I0430 18:49:31.765081  3957 net.cpp:411] pool3 -> pool3
I0430 18:49:31.765102  3957 net.cpp:150] Setting up pool3
I0430 18:49:31.765106  3957 net.cpp:157] Top shape: 1 256 75 125 (2400000)
I0430 18:49:31.765108  3957 net.cpp:165] Memory required for data: 1240800028
I0430 18:49:31.765110  3957 layer_factory.hpp:77] Creating layer conv4_1
I0430 18:49:31.765112  3957 net.cpp:106] Creating Layer conv4_1
I0430 18:49:31.765115  3957 net.cpp:454] conv4_1 <- pool3
I0430 18:49:31.765118  3957 net.cpp:411] conv4_1 -> conv4_1
I0430 18:49:31.767465  3957 net.cpp:150] Setting up conv4_1
I0430 18:49:31.767482  3957 net.cpp:157] Top shape: 1 512 75 125 (4800000)
I0430 18:49:31.767484  3957 net.cpp:165] Memory required for data: 1260000028
I0430 18:49:31.767490  3957 layer_factory.hpp:77] Creating layer relu4_1
I0430 18:49:31.767498  3957 net.cpp:106] Creating Layer relu4_1
I0430 18:49:31.767500  3957 net.cpp:454] relu4_1 <- conv4_1
I0430 18:49:31.767504  3957 net.cpp:397] relu4_1 -> conv4_1 (in-place)
I0430 18:49:31.767510  3957 net.cpp:150] Setting up relu4_1
I0430 18:49:31.767513  3957 net.cpp:157] Top shape: 1 512 75 125 (4800000)
I0430 18:49:31.767514  3957 net.cpp:165] Memory required for data: 1279200028
I0430 18:49:31.767515  3957 layer_factory.hpp:77] Creating layer conv4_2
I0430 18:49:31.767520  3957 net.cpp:106] Creating Layer conv4_2
I0430 18:49:31.767523  3957 net.cpp:454] conv4_2 <- conv4_1
I0430 18:49:31.767525  3957 net.cpp:411] conv4_2 -> conv4_2
I0430 18:49:31.770205  3957 net.cpp:150] Setting up conv4_2
I0430 18:49:31.770223  3957 net.cpp:157] Top shape: 1 512 75 125 (4800000)
I0430 18:49:31.770226  3957 net.cpp:165] Memory required for data: 1298400028
I0430 18:49:31.770236  3957 layer_factory.hpp:77] Creating layer relu4_2
I0430 18:49:31.770241  3957 net.cpp:106] Creating Layer relu4_2
I0430 18:49:31.770243  3957 net.cpp:454] relu4_2 <- conv4_2
I0430 18:49:31.770248  3957 net.cpp:397] relu4_2 -> conv4_2 (in-place)
I0430 18:49:31.770254  3957 net.cpp:150] Setting up relu4_2
I0430 18:49:31.770256  3957 net.cpp:157] Top shape: 1 512 75 125 (4800000)
I0430 18:49:31.770257  3957 net.cpp:165] Memory required for data: 1317600028
I0430 18:49:31.770259  3957 layer_factory.hpp:77] Creating layer conv4_3
I0430 18:49:31.770264  3957 net.cpp:106] Creating Layer conv4_3
I0430 18:49:31.770267  3957 net.cpp:454] conv4_3 <- conv4_2
I0430 18:49:31.770269  3957 net.cpp:411] conv4_3 -> conv4_3
I0430 18:49:31.772992  3957 net.cpp:150] Setting up conv4_3
I0430 18:49:31.773010  3957 net.cpp:157] Top shape: 1 512 75 125 (4800000)
I0430 18:49:31.773011  3957 net.cpp:165] Memory required for data: 1336800028
I0430 18:49:31.773016  3957 layer_factory.hpp:77] Creating layer relu4_3
I0430 18:49:31.773021  3957 net.cpp:106] Creating Layer relu4_3
I0430 18:49:31.773025  3957 net.cpp:454] relu4_3 <- conv4_3
I0430 18:49:31.773027  3957 net.cpp:397] relu4_3 -> conv4_3 (in-place)
I0430 18:49:31.773033  3957 net.cpp:150] Setting up relu4_3
I0430 18:49:31.773036  3957 net.cpp:157] Top shape: 1 512 75 125 (4800000)
I0430 18:49:31.773036  3957 net.cpp:165] Memory required for data: 1356000028
I0430 18:49:31.773038  3957 layer_factory.hpp:77] Creating layer pool4
I0430 18:49:31.773042  3957 net.cpp:106] Creating Layer pool4
I0430 18:49:31.773044  3957 net.cpp:454] pool4 <- conv4_3
I0430 18:49:31.773047  3957 net.cpp:411] pool4 -> pool4
I0430 18:49:31.773072  3957 net.cpp:150] Setting up pool4
I0430 18:49:31.773074  3957 net.cpp:157] Top shape: 1 512 38 63 (1225728)
I0430 18:49:31.773077  3957 net.cpp:165] Memory required for data: 1360902940
I0430 18:49:31.773077  3957 layer_factory.hpp:77] Creating layer conv5_1
I0430 18:49:31.773083  3957 net.cpp:106] Creating Layer conv5_1
I0430 18:49:31.773085  3957 net.cpp:454] conv5_1 <- pool4
I0430 18:49:31.773088  3957 net.cpp:411] conv5_1 -> conv5_1
I0430 18:49:31.775833  3957 net.cpp:150] Setting up conv5_1
I0430 18:49:31.775853  3957 net.cpp:157] Top shape: 1 512 38 63 (1225728)
I0430 18:49:31.775854  3957 net.cpp:165] Memory required for data: 1365805852
I0430 18:49:31.775859  3957 layer_factory.hpp:77] Creating layer relu5_1
I0430 18:49:31.775867  3957 net.cpp:106] Creating Layer relu5_1
I0430 18:49:31.775871  3957 net.cpp:454] relu5_1 <- conv5_1
I0430 18:49:31.775874  3957 net.cpp:397] relu5_1 -> conv5_1 (in-place)
I0430 18:49:31.775879  3957 net.cpp:150] Setting up relu5_1
I0430 18:49:31.775882  3957 net.cpp:157] Top shape: 1 512 38 63 (1225728)
I0430 18:49:31.775883  3957 net.cpp:165] Memory required for data: 1370708764
I0430 18:49:31.775884  3957 layer_factory.hpp:77] Creating layer conv5_2
I0430 18:49:31.775889  3957 net.cpp:106] Creating Layer conv5_2
I0430 18:49:31.775892  3957 net.cpp:454] conv5_2 <- conv5_1
I0430 18:49:31.775894  3957 net.cpp:411] conv5_2 -> conv5_2
I0430 18:49:31.778656  3957 net.cpp:150] Setting up conv5_2
I0430 18:49:31.778676  3957 net.cpp:157] Top shape: 1 512 38 63 (1225728)
I0430 18:49:31.778676  3957 net.cpp:165] Memory required for data: 1375611676
I0430 18:49:31.778681  3957 layer_factory.hpp:77] Creating layer relu5_2
I0430 18:49:31.778687  3957 net.cpp:106] Creating Layer relu5_2
I0430 18:49:31.778690  3957 net.cpp:454] relu5_2 <- conv5_2
I0430 18:49:31.778695  3957 net.cpp:397] relu5_2 -> conv5_2 (in-place)
I0430 18:49:31.778702  3957 net.cpp:150] Setting up relu5_2
I0430 18:49:31.778703  3957 net.cpp:157] Top shape: 1 512 38 63 (1225728)
I0430 18:49:31.778705  3957 net.cpp:165] Memory required for data: 1380514588
I0430 18:49:31.778707  3957 layer_factory.hpp:77] Creating layer conv5_3
I0430 18:49:31.778712  3957 net.cpp:106] Creating Layer conv5_3
I0430 18:49:31.778713  3957 net.cpp:454] conv5_3 <- conv5_2
I0430 18:49:31.778717  3957 net.cpp:411] conv5_3 -> conv5_3
I0430 18:49:31.781457  3957 net.cpp:150] Setting up conv5_3
I0430 18:49:31.781476  3957 net.cpp:157] Top shape: 1 512 38 63 (1225728)
I0430 18:49:31.781477  3957 net.cpp:165] Memory required for data: 1385417500
I0430 18:49:31.781483  3957 layer_factory.hpp:77] Creating layer relu5_3
I0430 18:49:31.781497  3957 net.cpp:106] Creating Layer relu5_3
I0430 18:49:31.781500  3957 net.cpp:454] relu5_3 <- conv5_3
I0430 18:49:31.781504  3957 net.cpp:397] relu5_3 -> conv5_3 (in-place)
I0430 18:49:31.781510  3957 net.cpp:150] Setting up relu5_3
I0430 18:49:31.781512  3957 net.cpp:157] Top shape: 1 512 38 63 (1225728)
I0430 18:49:31.781514  3957 net.cpp:165] Memory required for data: 1390320412
I0430 18:49:31.781515  3957 layer_factory.hpp:77] Creating layer rpn_conv/3x3
I0430 18:49:31.781525  3957 net.cpp:106] Creating Layer rpn_conv/3x3
I0430 18:49:31.781527  3957 net.cpp:454] rpn_conv/3x3 <- conv5_3
I0430 18:49:31.781532  3957 net.cpp:411] rpn_conv/3x3 -> rpn/output
I0430 18:49:31.798372  3957 net.cpp:150] Setting up rpn_conv/3x3
I0430 18:49:31.798390  3957 net.cpp:157] Top shape: 1 512 38 63 (1225728)
I0430 18:49:31.798393  3957 net.cpp:165] Memory required for data: 1395223324
I0430 18:49:31.798398  3957 layer_factory.hpp:77] Creating layer rpn_relu/3x3
I0430 18:49:31.798403  3957 net.cpp:106] Creating Layer rpn_relu/3x3
I0430 18:49:31.798406  3957 net.cpp:454] rpn_relu/3x3 <- rpn/output
I0430 18:49:31.798411  3957 net.cpp:397] rpn_relu/3x3 -> rpn/output (in-place)
I0430 18:49:31.798416  3957 net.cpp:150] Setting up rpn_relu/3x3
I0430 18:49:31.798419  3957 net.cpp:157] Top shape: 1 512 38 63 (1225728)
I0430 18:49:31.798420  3957 net.cpp:165] Memory required for data: 1400126236
I0430 18:49:31.798422  3957 layer_factory.hpp:77] Creating layer rpn/output_rpn_relu/3x3_0_split
I0430 18:49:31.798425  3957 net.cpp:106] Creating Layer rpn/output_rpn_relu/3x3_0_split
I0430 18:49:31.798427  3957 net.cpp:454] rpn/output_rpn_relu/3x3_0_split <- rpn/output
I0430 18:49:31.798430  3957 net.cpp:411] rpn/output_rpn_relu/3x3_0_split -> rpn/output_rpn_relu/3x3_0_split_0
I0430 18:49:31.798435  3957 net.cpp:411] rpn/output_rpn_relu/3x3_0_split -> rpn/output_rpn_relu/3x3_0_split_1
I0430 18:49:31.798458  3957 net.cpp:150] Setting up rpn/output_rpn_relu/3x3_0_split
I0430 18:49:31.798461  3957 net.cpp:157] Top shape: 1 512 38 63 (1225728)
I0430 18:49:31.798463  3957 net.cpp:157] Top shape: 1 512 38 63 (1225728)
I0430 18:49:31.798466  3957 net.cpp:165] Memory required for data: 1409932060
I0430 18:49:31.798467  3957 layer_factory.hpp:77] Creating layer rpn_cls_score
I0430 18:49:31.798475  3957 net.cpp:106] Creating Layer rpn_cls_score
I0430 18:49:31.798478  3957 net.cpp:454] rpn_cls_score <- rpn/output_rpn_relu/3x3_0_split_0
I0430 18:49:31.798481  3957 net.cpp:411] rpn_cls_score -> rpn_cls_score
I0430 18:49:31.798671  3957 net.cpp:150] Setting up rpn_cls_score
I0430 18:49:31.798676  3957 net.cpp:157] Top shape: 1 18 38 63 (43092)
I0430 18:49:31.798677  3957 net.cpp:165] Memory required for data: 1410104428
I0430 18:49:31.798679  3957 layer_factory.hpp:77] Creating layer rpn_cls_score_rpn_cls_score_0_split
I0430 18:49:31.798684  3957 net.cpp:106] Creating Layer rpn_cls_score_rpn_cls_score_0_split
I0430 18:49:31.798686  3957 net.cpp:454] rpn_cls_score_rpn_cls_score_0_split <- rpn_cls_score
I0430 18:49:31.798689  3957 net.cpp:411] rpn_cls_score_rpn_cls_score_0_split -> rpn_cls_score_rpn_cls_score_0_split_0
I0430 18:49:31.798692  3957 net.cpp:411] rpn_cls_score_rpn_cls_score_0_split -> rpn_cls_score_rpn_cls_score_0_split_1
I0430 18:49:31.798712  3957 net.cpp:150] Setting up rpn_cls_score_rpn_cls_score_0_split
I0430 18:49:31.798715  3957 net.cpp:157] Top shape: 1 18 38 63 (43092)
I0430 18:49:31.798717  3957 net.cpp:157] Top shape: 1 18 38 63 (43092)
I0430 18:49:31.798719  3957 net.cpp:165] Memory required for data: 1410449164
I0430 18:49:31.798720  3957 layer_factory.hpp:77] Creating layer rpn_bbox_pred
I0430 18:49:31.798724  3957 net.cpp:106] Creating Layer rpn_bbox_pred
I0430 18:49:31.798727  3957 net.cpp:454] rpn_bbox_pred <- rpn/output_rpn_relu/3x3_0_split_1
I0430 18:49:31.798730  3957 net.cpp:411] rpn_bbox_pred -> rpn_bbox_pred
I0430 18:49:31.798979  3957 net.cpp:150] Setting up rpn_bbox_pred
I0430 18:49:31.798982  3957 net.cpp:157] Top shape: 1 36 38 63 (86184)
I0430 18:49:31.798985  3957 net.cpp:165] Memory required for data: 1410793900
I0430 18:49:31.798988  3957 layer_factory.hpp:77] Creating layer rpn_cls_score_reshape
I0430 18:49:31.798998  3957 net.cpp:106] Creating Layer rpn_cls_score_reshape
I0430 18:49:31.799000  3957 net.cpp:454] rpn_cls_score_reshape <- rpn_cls_score_rpn_cls_score_0_split_0
I0430 18:49:31.799005  3957 net.cpp:411] rpn_cls_score_reshape -> rpn_cls_score_reshape
I0430 18:49:31.799018  3957 net.cpp:150] Setting up rpn_cls_score_reshape
I0430 18:49:31.799021  3957 net.cpp:157] Top shape: 1 2 342 63 (43092)
I0430 18:49:31.799023  3957 net.cpp:165] Memory required for data: 1410966268
I0430 18:49:31.799024  3957 layer_factory.hpp:77] Creating layer rpn-data
I0430 18:49:31.799291  3957 net.cpp:106] Creating Layer rpn-data
I0430 18:49:31.799296  3957 net.cpp:454] rpn-data <- rpn_cls_score_rpn_cls_score_0_split_1
I0430 18:49:31.799299  3957 net.cpp:454] rpn-data <- gt_boxes
I0430 18:49:31.799302  3957 net.cpp:454] rpn-data <- im_info
I0430 18:49:31.799304  3957 net.cpp:454] rpn-data <- data_input-data_0_split_1
I0430 18:49:31.799307  3957 net.cpp:411] rpn-data -> rpn_labels
I0430 18:49:31.799312  3957 net.cpp:411] rpn-data -> rpn_bbox_targets
I0430 18:49:31.799317  3957 net.cpp:411] rpn-data -> rpn_bbox_inside_weights
I0430 18:49:31.799324  3957 net.cpp:411] rpn-data -> rpn_bbox_outside_weights
I0430 18:49:31.799784  3957 net.cpp:150] Setting up rpn-data
I0430 18:49:31.799792  3957 net.cpp:157] Top shape: 1 1 342 63 (21546)
I0430 18:49:31.799794  3957 net.cpp:157] Top shape: 1 36 38 63 (86184)
I0430 18:49:31.799796  3957 net.cpp:157] Top shape: 1 36 38 63 (86184)
I0430 18:49:31.799798  3957 net.cpp:157] Top shape: 1 36 38 63 (86184)
I0430 18:49:31.799800  3957 net.cpp:165] Memory required for data: 1412086660
I0430 18:49:31.799803  3957 layer_factory.hpp:77] Creating layer rpn_loss_cls
I0430 18:49:31.799809  3957 net.cpp:106] Creating Layer rpn_loss_cls
I0430 18:49:31.799811  3957 net.cpp:454] rpn_loss_cls <- rpn_cls_score_reshape
I0430 18:49:31.799814  3957 net.cpp:454] rpn_loss_cls <- rpn_labels
I0430 18:49:31.799818  3957 net.cpp:411] rpn_loss_cls -> rpn_cls_loss
…
I0430 18:49:31.800266  3957 net.cpp:150] Setting up rpn_loss_bbox
I0430 18:49:31.800269  3957 net.cpp:157] Top shape: (1)
I0430 18:49:31.800271  3957 net.cpp:160]     with loss weight 1
I0430 18:49:31.800274  3957 net.cpp:165] Memory required for data: 1412086668
I0430 18:49:31.800276  3957 layer_factory.hpp:77] Creating layer dummy_roi_pool_conv5
I0430 18:49:31.800282  3957 net.cpp:106] Creating Layer dummy_roi_pool_conv5
I0430 18:49:31.800285  3957 net.cpp:411] dummy_roi_pool_conv5 -> dummy_roi_pool_conv5
I0430 18:49:31.800321  3957 net.cpp:150] Setting up dummy_roi_pool_conv5
I0430 18:49:31.800324  3957 net.cpp:157] Top shape: 1 25088 (25088)
I0430 18:49:31.800325  3957 net.cpp:165] Memory required for data: 1412187020
I0430 18:49:31.800328  3957 layer_factory.hpp:77] Creating layer fc6
I0430 18:49:31.800333  3957 net.cpp:106] Creating Layer fc6
I0430 18:49:31.800334  3957 net.cpp:454] fc6 <- dummy_roi_pool_conv5
I0430 18:49:31.800338  3957 net.cpp:411] fc6 -> fc6
I0430 18:49:31.903049  3957 net.cpp:150] Setting up fc6
I0430 18:49:31.903066  3957 net.cpp:157] Top shape: 1 4096 (4096)
I0430 18:49:31.903069  3957 net.cpp:165] Memory required for data: 1412203404
I0430 18:49:31.903079  3957 layer_factory.hpp:77] Creating layer relu6
I0430 18:49:31.903085  3957 net.cpp:106] Creating Layer relu6
I0430 18:49:31.903089  3957 net.cpp:454] relu6 <- fc6
I0430 18:49:31.903092  3957 net.cpp:397] relu6 -> fc6 (in-place)
I0430 18:49:31.903098  3957 net.cpp:150] Setting up relu6
I0430 18:49:31.903100  3957 net.cpp:157] Top shape: 1 4096 (4096)
I0430 18:49:31.903101  3957 net.cpp:165] Memory required for data: 1412219788
I0430 18:49:31.903102  3957 layer_factory.hpp:77] Creating layer drop6
I0430 18:49:31.903106  3957 net.cpp:106] Creating Layer drop6
I0430 18:49:31.903107  3957 net.cpp:454] drop6 <- fc6
I0430 18:49:31.903110  3957 net.cpp:397] drop6 -> fc6 (in-place)
I0430 18:49:31.903126  3957 net.cpp:150] Setting up drop6
I0430 18:49:31.903128  3957 net.cpp:157] Top shape: 1 4096 (4096)
I0430 18:49:31.903129  3957 net.cpp:165] Memory required for data: 1412236172
I0430 18:49:31.903131  3957 layer_factory.hpp:77] Creating layer fc7
I0430 18:49:31.903134  3957 net.cpp:106] Creating Layer fc7
I0430 18:49:31.903136  3957 net.cpp:454] fc7 <- fc6
I0430 18:49:31.903138  3957 net.cpp:411] fc7 -> fc7
I0430 18:49:31.919961  3957 net.cpp:150] Setting up fc7
I0430 18:49:31.919991  3957 net.cpp:157] Top shape: 1 4096 (4096)
I0430 18:49:31.919993  3957 net.cpp:165] Memory required for data: 1412252556
I0430 18:49:31.919999  3957 layer_factory.hpp:77] Creating layer silence_fc7
I0430 18:49:31.920006  3957 net.cpp:106] Creating Layer silence_fc7
I0430 18:49:31.920008  3957 net.cpp:454] silence_fc7 <- fc7
I0430 18:49:31.920012  3957 net.cpp:150] Setting up silence_fc7
I0430 18:49:31.920014  3957 net.cpp:165] Memory required for data: 1412252556
…
           'SCALES': [600],
           'SNAPSHOT_INFIX': 'stage1',
           'SNAPSHOT_ITERS': 10000,
           'USE_FLIPPED': True,
           'USE_PREFETCH': False},
 'USE_GPU_NMS': True}
Loaded dataset `voc_2007_trainval` for proposal generation
WARNING: Logging before InitGoogleLogging() is written to STDERR
I0430 22:03:29.184473  5111 net.cpp:49] Initializing net from parameters: 
name: "VGG_ILSVRC_16_layers"
input: "data"
input: "im_info"
state {
  phase: TEST
}
input_shape {
  dim: 1
  dim: 3
  dim: 224
  dim: 224
}
input_shape {
  dim: 1
  dim: 3
}
layer {
  name: "conv1_1"
  type: "Convolution"
  bottom: "data"
  top: "conv1_1"
  convolution_param {
    num_output: 64
    pad: 1
    kernel_size: 3
  }
}
layer {
  name: "relu1_1"
  type: "ReLU"
  bottom: "conv1_1"
  top: "conv1_1"
}
layer {
  name: "conv1_2"
  type: "Convolution"
  bottom: "conv1_1"
  top: "conv1_2"
  convolution_param {
    num_output: 64
    pad: 1
    kernel_size: 3
  }
}
layer {
  name: "relu1_2"
  type: "ReLU"
  bottom: "conv1_2"
  top: "conv1_2"
}
layer {
  name: "pool1"
  type: "Pooling"
  bottom: "conv1_2"
  top: "pool1"
  pooling_param {
    pool: MAX
    kernel_size: 2
    stride: 2
  }
}
layer {
  name: "conv2_1"
  type: "Convolution"
  bottom: "pool1"
  top: "conv2_1"
  convolution_param {
    num_output: 128
    pad: 1
    kernel_size: 3
  }
}
layer {
  name: "relu2_1"
  type: "ReLU"
  bottom: "conv2_1"
  top: "conv2_1"
}
layer {
  name: "conv2_2"
  type: "Convolution"
  bottom: "conv2_1"
  top: "conv2_2"
  convolution_param {
    num_output: 128
    pad: 1
    kernel_size: 3
  }
}
layer {
  name: "relu2_2"
  type: "ReLU"
  bottom: "conv2_2"
  top: "conv2_2"
}
layer {
  name: "pool2"
  type: "Pooling"
  bottom: "conv2_2"
  top: "pool2"
  pooling_param {
    pool: MAX
    kernel_size: 2
    stride: 2
  }
}
layer {
  name: "conv3_1"
  type: "Convolution"
  bottom: "pool2"
  top: "conv3_1"
  convolution_param {
    num_output: 256
    pad: 1
    kernel_size: 3
  }
}
layer {
  name: "relu3_1"
  type: "ReLU"
  bottom: "conv3_1"
  top: "conv3_1"
}
layer {
  name: "conv3_2"
  type: "Convolution"
  bottom: "conv3_1"
  top: "conv3_2"
  convolution_param {
    num_output: 256
    pad: 1
    kernel_size: 3
  }
}
layer {
  name: "relu3_2"
  type: "ReLU"
  bottom: "conv3_2"
  top: "conv3_2"
}
layer {
  name: "conv3_3"
  type: "Convolution"
  bottom: "conv3_2"
  top: "conv3_3"
  convolution_param {
    num_output: 256
    pad: 1
    kernel_size: 3
  }
}
layer {
  name: "relu3_3"
  type: "ReLU"
  bottom: "conv3_3"
  top: "conv3_3"
}
layer {
  name: "pool3"
  type: "Pooling"
  bottom: "conv3_3"
  top: "pool3"
  pooling_param {
    pool: MAX
    kernel_size: 2
    stride: 2
  }
}
layer {
  name: "conv4_1"
  type: "Convolution"
  bottom: "pool3"
  top: "conv4_1"
  convolution_param {
    num_output: 512
    pad: 1
    kernel_size: 3
  }
}
layer {
  name: "relu4_1"
  type: "ReLU"
  bottom: "conv4_1"
  top: "conv4_1"
}
layer {
  name: "conv4_2"
  type: "Convolution"
  bottom: "conv4_1"
  top: "conv4_2"
  convolution_param {
    num_output: 512
    pad: 1
    kernel_size: 3
  }
}
layer {
  name: "relu4_2"
  type: "ReLU"
  bottom: "conv4_2"
  top: "conv4_2"
}
layer {
  name: "conv4_3"
  type: "Convolution"
  bottom: "conv4_2"
  top: "conv4_3"
  convolution_param {
    num_output: 512
    pad: 1
    kernel_size: 3
  }
}
layer {
  name: "relu4_3"
  type: "ReLU"
  bottom: "conv4_3"
  top: "conv4_3"
}
layer {
  name: "pool4"
  type: "Pooling"
  bottom: "conv4_3"
  top: "pool4"
  pooling_param {
    pool: MAX
    kernel_size: 2
    stride: 2
  }
}
layer {
  name: "conv5_1"
  type: "Convolution"
  bottom: "pool4"
  top: "conv5_1"
  convolution_param {
    num_output: 512
    pad: 1
    kernel_size: 3
  }
}
layer {
  name: "relu5_1"
  type: "ReLU"
  bottom: "conv5_1"
  top: "conv5_1"
}
layer {
  name: "conv5_2"
  type: "Convolution"
  bottom: "conv5_1"
  top: "conv5_2"
  convolution_param {
    num_output: 512
    pad: 1
    kernel_size: 3
  }
}
layer {
  name: "relu5_2"
  type: "ReLU"
  bottom: "conv5_2"
  top: "conv5_2"
}
layer {
  name: "conv5_3"
  type: "Convolution"
  bottom: "conv5_2"
  top: "conv5_3"
  convolution_param {
    num_output: 512
    pad: 1
    kernel_size: 3
  }
}
layer {
  name: "relu5_3"
  type: "ReLU"
  bottom: "conv5_3"
  top: "conv5_3"
}
layer {
  name: "rpn_conv/3x3"
  type: "Convolution"
  bottom: "conv5_3"
  top: "rpn/output"
  convolution_param {
    num_output: 512
    pad: 1
    kernel_size: 3
    stride: 1
  }
}
layer {
  name: "rpn_relu/3x3"
  type: "ReLU"
  bottom: "rpn/output"
  top: "rpn/output"
}
layer {
  name: "rpn_cls_score"
  type: "Convolution"
  bottom: "rpn/output"
  top: "rpn_cls_score"
  convolution_param {
    num_output: 18
    pad: 0
    kernel_size: 1
    stride: 1
  }
}
layer {
  name: "rpn_bbox_pred"
  type: "Convolution"
  bottom: "rpn/output"
  top: "rpn_bbox_pred"
  convolution_param {
    num_output: 36
    pad: 0
    kernel_size: 1
    stride: 1
  }
}
layer {
  name: "rpn_cls_score_reshape"
  type: "Reshape"
  bottom: "rpn_cls_score"
  top: "rpn_cls_score_reshape"
  reshape_param {
    shape {
      dim: 0
      dim: 2
      dim: -1
      dim: 0
    }
  }
}
layer {
  name: "rpn_cls_prob"
  type: "Softmax"
  bottom: "rpn_cls_score_reshape"
  top: "rpn_cls_prob"
}
layer {
  name: "rpn_cls_prob_reshape"
  type: "Reshape"
  bottom: "rpn_cls_prob"
  top: "rpn_cls_prob_reshape"
  reshape_param {
    shape {
      dim: 0
      dim: 18
      dim: -1
      dim: 0
    }
  }
}
layer {
  name: "proposal"
  type: "Python"
  bottom: "rpn_cls_prob_reshape"
  bottom: "rpn_bbox_pred"
  bottom: "im_info"
  top: "rois"
  top: "scores"
  python_param {
    module: "rpn.proposal_layer"
    layer: "ProposalLayer"
    param_str: "\'feat_stride\': 16"
  }
}
I0430 22:03:29.184581  5111 net.cpp:413] Input 0 -> data
I0430 22:03:29.193140  5111 net.cpp:413] Input 1 -> im_info
I0430 22:03:29.193186  5111 layer_factory.hpp:77] Creating layer conv1_1
I0430 22:03:29.193197  5111 net.cpp:106] Creating Layer conv1_1
I0430 22:03:29.193199  5111 net.cpp:454] conv1_1 <- data
I0430 22:03:29.193203  5111 net.cpp:411] conv1_1 -> conv1_1
I0430 22:03:29.194254  5111 net.cpp:150] Setting up conv1_1
I0430 22:03:29.194278  5111 net.cpp:157] Top shape: 1 64 224 224 (3211264)
I0430 22:03:29.194279  5111 net.cpp:165] Memory required for data: 12845056
I0430 22:03:29.194286  5111 layer_factory.hpp:77] Creating layer relu1_1
I0430 22:03:29.194290  5111 net.cpp:106] Creating Layer relu1_1
I0430 22:03:29.194293  5111 net.cpp:454] relu1_1 <- conv1_1
I0430 22:03:29.194295  5111 net.cpp:397] relu1_1 -> conv1_1 (in-place)
I0430 22:03:29.194300  5111 net.cpp:150] Setting up relu1_1
I0430 22:03:29.194303  5111 net.cpp:157] Top shape: 1 64 224 224 (3211264)
I0430 22:03:29.194303  5111 net.cpp:165] Memory required for data: 25690112
I0430 22:03:29.194305  5111 layer_factory.hpp:77] Creating layer conv1_2
I0430 22:03:29.194309  5111 net.cpp:106] Creating Layer conv1_2
I0430 22:03:29.194310  5111 net.cpp:454] conv1_2 <- conv1_1
I0430 22:03:29.194314  5111 net.cpp:411] conv1_2 -> conv1_2
I0430 22:03:29.194471  5111 net.cpp:150] Setting up conv1_2
I0430 22:03:29.194475  5111 net.cpp:157] Top shape: 1 64 224 224 (3211264)
I0430 22:03:29.194476  5111 net.cpp:165] Memory required for data: 38535168
I0430 22:03:29.194495  5111 layer_factory.hpp:77] Creating layer relu1_2
I0430 22:03:29.194499  5111 net.cpp:106] Creating Layer relu1_2
I0430 22:03:29.194500  5111 net.cpp:454] relu1_2 <- conv1_2
I0430 22:03:29.194502  5111 net.cpp:397] relu1_2 -> conv1_2 (in-place)
I0430 22:03:29.194504  5111 net.cpp:150] Setting up relu1_2
I0430 22:03:29.194506  5111 net.cpp:157] Top shape: 1 64 224 224 (3211264)
I0430 22:03:29.194509  5111 net.cpp:165] Memory required for data: 51380224
I0430 22:03:29.194509  5111 layer_factory.hpp:77] Creating layer pool1
I0430 22:03:29.194514  5111 net.cpp:106] Creating Layer pool1
I0430 22:03:29.194516  5111 net.cpp:454] pool1 <- conv1_2
I0430 22:03:29.194519  5111 net.cpp:411] pool1 -> pool1
I0430 22:03:29.194540  5111 net.cpp:150] Setting up pool1
I0430 22:03:29.194543  5111 net.cpp:157] Top shape: 1 64 112 112 (802816)
I0430 22:03:29.194545  5111 net.cpp:165] Memory required for data: 54591488
I0430 22:03:29.194546  5111 layer_factory.hpp:77] Creating layer conv2_1
I0430 22:03:29.194562  5111 net.cpp:106] Creating Layer conv2_1
I0430 22:03:29.194563  5111 net.cpp:454] conv2_1 <- pool1
I0430 22:03:29.194566  5111 net.cpp:411] conv2_1 -> conv2_1
I0430 22:03:29.195555  5111 net.cpp:150] Setting up conv2_1
I0430 22:03:29.195560  5111 net.cpp:157] Top shape: 1 128 112 112 (1605632)
I0430 22:03:29.195562  5111 net.cpp:165] Memory required for data: 61014016
I0430 22:03:29.195581  5111 layer_factory.hpp:77] Creating layer relu2_1
I0430 22:03:29.195585  5111 net.cpp:106] Creating Layer relu2_1
I0430 22:03:29.195586  5111 net.cpp:454] relu2_1 <- conv2_1
I0430 22:03:29.195590  5111 net.cpp:397] relu2_1 -> conv2_1 (in-place)
I0430 22:03:29.195592  5111 net.cpp:150] Setting up relu2_1
I0430 22:03:29.195595  5111 net.cpp:157] Top shape: 1 128 112 112 (1605632)
I0430 22:03:29.195596  5111 net.cpp:165] Memory required for data: 67436544
I0430 22:03:29.195597  5111 layer_factory.hpp:77] Creating layer conv2_2
I0430 22:03:29.195601  5111 net.cpp:106] Creating Layer conv2_2
I0430 22:03:29.195603  5111 net.cpp:454] conv2_2 <- conv2_1
I0430 22:03:29.195606  5111 net.cpp:411] conv2_2 -> conv2_2
I0430 22:03:29.195785  5111 net.cpp:150] Setting up conv2_2
I0430 22:03:29.195789  5111 net.cpp:157] Top shape: 1 128 112 112 (1605632)
I0430 22:03:29.195804  5111 net.cpp:165] Memory required for data: 73859072
I0430 22:03:29.195807  5111 layer_factory.hpp:77] Creating layer relu2_2
I0430 22:03:29.195811  5111 net.cpp:106] Creating Layer relu2_2
I0430 22:03:29.195813  5111 net.cpp:454] relu2_2 <- conv2_2
I0430 22:03:29.195816  5111 net.cpp:397] relu2_2 -> conv2_2 (in-place)
I0430 22:03:29.195819  5111 net.cpp:150] Setting up relu2_2
I0430 22:03:29.195822  5111 net.cpp:157] Top shape: 1 128 112 112 (1605632)
I0430 22:03:29.195823  5111 net.cpp:165] Memory required for data: 80281600
I0430 22:03:29.195825  5111 layer_factory.hpp:77] Creating layer pool2
I0430 22:03:29.195827  5111 net.cpp:106] Creating Layer pool2
I0430 22:03:29.195829  5111 net.cpp:454] pool2 <- conv2_2
I0430 22:03:29.195832  5111 net.cpp:411] pool2 -> pool2
I0430 22:03:29.195850  5111 net.cpp:150] Setting up pool2
I0430 22:03:29.195853  5111 net.cpp:157] Top shape: 1 128 56 56 (401408)
I0430 22:03:29.195854  5111 net.cpp:165] Memory required for data: 81887232
I0430 22:03:29.195857  5111 layer_factory.hpp:77] Creating layer conv3_1
I0430 22:03:29.195873  5111 net.cpp:106] Creating Layer conv3_1
I0430 22:03:29.195873  5111 net.cpp:454] conv3_1 <- pool2
I0430 22:03:29.195875  5111 net.cpp:411] conv3_1 -> conv3_1
I0430 22:03:29.196117  5111 net.cpp:150] Setting up conv3_1
I0430 22:03:29.196121  5111 net.cpp:157] Top shape: 1 256 56 56 (802816)
I0430 22:03:29.196122  5111 net.cpp:165] Memory required for data: 85098496
I0430 22:03:29.196141  5111 layer_factory.hpp:77] Creating layer relu3_1
I0430 22:03:29.196144  5111 net.cpp:106] Creating Layer relu3_1
I0430 22:03:29.196146  5111 net.cpp:454] relu3_1 <- conv3_1
I0430 22:03:29.196147  5111 net.cpp:397] relu3_1 -> conv3_1 (in-place)
I0430 22:03:29.196151  5111 net.cpp:150] Setting up relu3_1
I0430 22:03:29.196154  5111 net.cpp:157] Top shape: 1 256 56 56 (802816)
I0430 22:03:29.196156  5111 net.cpp:165] Memory required for data: 88309760
I0430 22:03:29.196156  5111 layer_factory.hpp:77] Creating layer conv3_2
I0430 22:03:29.196161  5111 net.cpp:106] Creating Layer conv3_2
I0430 22:03:29.196162  5111 net.cpp:454] conv3_2 <- conv3_1
I0430 22:03:29.196164  5111 net.cpp:411] conv3_2 -> conv3_2
I0430 22:03:29.196964  5111 net.cpp:150] Setting up conv3_2
I0430 22:03:29.196969  5111 net.cpp:157] Top shape: 1 256 56 56 (802816)
I0430 22:03:29.196985  5111 net.cpp:165] Memory required for data: 91521024
I0430 22:03:29.196988  5111 layer_factory.hpp:77] Creating layer relu3_2
I0430 22:03:29.196991  5111 net.cpp:106] Creating Layer relu3_2
I0430 22:03:29.196992  5111 net.cpp:454] relu3_2 <- conv3_2
I0430 22:03:29.196995  5111 net.cpp:397] relu3_2 -> conv3_2 (in-place)
I0430 22:03:29.197000  5111 net.cpp:150] Setting up relu3_2
I0430 22:03:29.197002  5111 net.cpp:157] Top shape: 1 256 56 56 (802816)
I0430 22:03:29.197003  5111 net.cpp:165] Memory required for data: 94732288
I0430 22:03:29.197005  5111 layer_factory.hpp:77] Creating layer conv3_3
I0430 22:03:29.197010  5111 net.cpp:106] Creating Layer conv3_3
I0430 22:03:29.197010  5111 net.cpp:454] conv3_3 <- conv3_2
I0430 22:03:29.197013  5111 net.cpp:411] conv3_3 -> conv3_3
I0430 22:03:29.197850  5111 net.cpp:150] Setting up conv3_3
I0430 22:03:29.197871  5111 net.cpp:157] Top shape: 1 256 56 56 (802816)
I0430 22:03:29.197872  5111 net.cpp:165] Memory required for data: 97943552
I0430 22:03:29.197875  5111 layer_factory.hpp:77] Creating layer relu3_3
I0430 22:03:29.197878  5111 net.cpp:106] Creating Layer relu3_3
I0430 22:03:29.197880  5111 net.cpp:454] relu3_3 <- conv3_3
I0430 22:03:29.197883  5111 net.cpp:397] relu3_3 -> conv3_3 (in-place)
I0430 22:03:29.197887  5111 net.cpp:150] Setting up relu3_3
I0430 22:03:29.197891  5111 net.cpp:157] Top shape: 1 256 56 56 (802816)
I0430 22:03:29.197892  5111 net.cpp:165] Memory required for data: 101154816
I0430 22:03:29.197893  5111 layer_factory.hpp:77] Creating layer pool3
I0430 22:03:29.197898  5111 net.cpp:106] Creating Layer pool3
I0430 22:03:29.197901  5111 net.cpp:454] pool3 <- conv3_3
I0430 22:03:29.197903  5111 net.cpp:411] pool3 -> pool3
I0430 22:03:29.197924  5111 net.cpp:150] Setting up pool3
I0430 22:03:29.197927  5111 net.cpp:157] Top shape: 1 256 28 28 (200704)
I0430 22:03:29.197929  5111 net.cpp:165] Memory required for data: 101957632
I0430 22:03:29.197931  5111 layer_factory.hpp:77] Creating layer conv4_1
I0430 22:03:29.197934  5111 net.cpp:106] Creating Layer conv4_1
I0430 22:03:29.197935  5111 net.cpp:454] conv4_1 <- pool3
I0430 22:03:29.197938  5111 net.cpp:411] conv4_1 -> conv4_1
I0430 22:03:29.199772  5111 net.cpp:150] Setting up conv4_1
I0430 22:03:29.199800  5111 net.cpp:157] Top shape: 1 512 28 28 (401408)
I0430 22:03:29.199801  5111 net.cpp:165] Memory required for data: 103563264
I0430 22:03:29.199806  5111 layer_factory.hpp:77] Creating layer relu4_1
I0430 22:03:29.199811  5111 net.cpp:106] Creating Layer relu4_1
I0430 22:03:29.199815  5111 net.cpp:454] relu4_1 <- conv4_1
I0430 22:03:29.199818  5111 net.cpp:397] relu4_1 -> conv4_1 (in-place)
I0430 22:03:29.199825  5111 net.cpp:150] Setting up relu4_1
I0430 22:03:29.199827  5111 net.cpp:157] Top shape: 1 512 28 28 (401408)
I0430 22:03:29.199828  5111 net.cpp:165] Memory required for data: 105168896
I0430 22:03:29.199829  5111 layer_factory.hpp:77] Creating layer conv4_2
I0430 22:03:29.199833  5111 net.cpp:106] Creating Layer conv4_2
I0430 22:03:29.199836  5111 net.cpp:454] conv4_2 <- conv4_1
I0430 22:03:29.199839  5111 net.cpp:411] conv4_2 -> conv4_2
I0430 22:03:29.202502  5111 net.cpp:150] Setting up conv4_2
I0430 22:03:29.202520  5111 net.cpp:157] Top shape: 1 512 28 28 (401408)
I0430 22:03:29.202522  5111 net.cpp:165] Memory required for data: 106774528
I0430 22:03:29.202531  5111 layer_factory.hpp:77] Creating layer relu4_2
I0430 22:03:29.202538  5111 net.cpp:106] Creating Layer relu4_2
I0430 22:03:29.202540  5111 net.cpp:454] relu4_2 <- conv4_2
I0430 22:03:29.202543  5111 net.cpp:397] relu4_2 -> conv4_2 (in-place)
I0430 22:03:29.202548  5111 net.cpp:150] Setting up relu4_2
I0430 22:03:29.202550  5111 net.cpp:157] Top shape: 1 512 28 28 (401408)
I0430 22:03:29.202551  5111 net.cpp:165] Memory required for data: 108380160
I0430 22:03:29.202553  5111 layer_factory.hpp:77] Creating layer conv4_3
I0430 22:03:29.202558  5111 net.cpp:106] Creating Layer conv4_3
I0430 22:03:29.202558  5111 net.cpp:454] conv4_3 <- conv4_2
I0430 22:03:29.202561  5111 net.cpp:411] conv4_3 -> conv4_3
I0430 22:03:29.205278  5111 net.cpp:150] Setting up conv4_3
I0430 22:03:29.205294  5111 net.cpp:157] Top shape: 1 512 28 28 (401408)
I0430 22:03:29.205296  5111 net.cpp:165] Memory required for data: 109985792
I0430 22:03:29.205302  5111 layer_factory.hpp:77] Creating layer relu4_3
I0430 22:03:29.205307  5111 net.cpp:106] Creating Layer relu4_3
I0430 22:03:29.205310  5111 net.cpp:454] relu4_3 <- conv4_3
I0430 22:03:29.205314  5111 net.cpp:397] relu4_3 -> conv4_3 (in-place)
I0430 22:03:29.205320  5111 net.cpp:150] Setting up relu4_3
I0430 22:03:29.205323  5111 net.cpp:157] Top shape: 1 512 28 28 (401408)
I0430 22:03:29.205324  5111 net.cpp:165] Memory required for data: 111591424
I0430 22:03:29.205325  5111 layer_factory.hpp:77] Creating layer pool4
I0430 22:03:29.205328  5111 net.cpp:106] Creating Layer pool4
I0430 22:03:29.205330  5111 net.cpp:454] pool4 <- conv4_3
I0430 22:03:29.205333  5111 net.cpp:411] pool4 -> pool4
I0430 22:03:29.205356  5111 net.cpp:150] Setting up pool4
I0430 22:03:29.205359  5111 net.cpp:157] Top shape: 1 512 14 14 (100352)
I0430 22:03:29.205360  5111 net.cpp:165] Memory required for data: 111992832
I0430 22:03:29.205363  5111 layer_factory.hpp:77] Creating layer conv5_1
I0430 22:03:29.205368  5111 net.cpp:106] Creating Layer conv5_1
I0430 22:03:29.205370  5111 net.cpp:454] conv5_1 <- pool4
I0430 22:03:29.205373  5111 net.cpp:411] conv5_1 -> conv5_1
I0430 22:03:29.208103  5111 net.cpp:150] Setting up conv5_1
I0430 22:03:29.208122  5111 net.cpp:157] Top shape: 1 512 14 14 (100352)
I0430 22:03:29.208124  5111 net.cpp:165] Memory required for data: 112394240
I0430 22:03:29.208130  5111 layer_factory.hpp:77] Creating layer relu5_1
I0430 22:03:29.208135  5111 net.cpp:106] Creating Layer relu5_1
I0430 22:03:29.208138  5111 net.cpp:454] relu5_1 <- conv5_1
I0430 22:03:29.208143  5111 net.cpp:397] relu5_1 -> conv5_1 (in-place)
I0430 22:03:29.208149  5111 net.cpp:150] Setting up relu5_1
I0430 22:03:29.208151  5111 net.cpp:157] Top shape: 1 512 14 14 (100352)
I0430 22:03:29.208153  5111 net.cpp:165] Memory required for data: 112795648
I0430 22:03:29.208154  5111 layer_factory.hpp:77] Creating layer conv5_2
I0430 22:03:29.208158  5111 net.cpp:106] Creating Layer conv5_2
I0430 22:03:29.208160  5111 net.cpp:454] conv5_2 <- conv5_1
I0430 22:03:29.208163  5111 net.cpp:411] conv5_2 -> conv5_2
I0430 22:03:29.210903  5111 net.cpp:150] Setting up conv5_2
I0430 22:03:29.210922  5111 net.cpp:157] Top shape: 1 512 14 14 (100352)
I0430 22:03:29.210924  5111 net.cpp:165] Memory required for data: 113197056
I0430 22:03:29.210929  5111 layer_factory.hpp:77] Creating layer relu5_2
I0430 22:03:29.210935  5111 net.cpp:106] Creating Layer relu5_2
I0430 22:03:29.210938  5111 net.cpp:454] relu5_2 <- conv5_2
I0430 22:03:29.210942  5111 net.cpp:397] relu5_2 -> conv5_2 (in-place)
I0430 22:03:29.210947  5111 net.cpp:150] Setting up relu5_2
I0430 22:03:29.210950  5111 net.cpp:157] Top shape: 1 512 14 14 (100352)
I0430 22:03:29.210952  5111 net.cpp:165] Memory required for data: 113598464
I0430 22:03:29.210953  5111 layer_factory.hpp:77] Creating layer conv5_3
I0430 22:03:29.210958  5111 net.cpp:106] Creating Layer conv5_3
I0430 22:03:29.210958  5111 net.cpp:454] conv5_3 <- conv5_2
I0430 22:03:29.210963  5111 net.cpp:411] conv5_3 -> conv5_3
I0430 22:03:29.213717  5111 net.cpp:150] Setting up conv5_3
I0430 22:03:29.213732  5111 net.cpp:157] Top shape: 1 512 14 14 (100352)
I0430 22:03:29.213733  5111 net.cpp:165] Memory required for data: 113999872
I0430 22:03:29.213738  5111 layer_factory.hpp:77] Creating layer relu5_3
I0430 22:03:29.213743  5111 net.cpp:106] Creating Layer relu5_3
I0430 22:03:29.213747  5111 net.cpp:454] relu5_3 <- conv5_3
I0430 22:03:29.213750  5111 net.cpp:397] relu5_3 -> conv5_3 (in-place)
I0430 22:03:29.213755  5111 net.cpp:150] Setting up relu5_3
I0430 22:03:29.213758  5111 net.cpp:157] Top shape: 1 512 14 14 (100352)
I0430 22:03:29.213759  5111 net.cpp:165] Memory required for data: 114401280
I0430 22:03:29.213762  5111 layer_factory.hpp:77] Creating layer rpn_conv/3x3
I0430 22:03:29.213766  5111 net.cpp:106] Creating Layer rpn_conv/3x3
I0430 22:03:29.213768  5111 net.cpp:454] rpn_conv/3x3 <- conv5_3
I0430 22:03:29.213771  5111 net.cpp:411] rpn_conv/3x3 -> rpn/output
I0430 22:03:29.216506  5111 net.cpp:150] Setting up rpn_conv/3x3
I0430 22:03:29.216524  5111 net.cpp:157] Top shape: 1 512 14 14 (100352)
I0430 22:03:29.216526  5111 net.cpp:165] Memory required for data: 114802688
I0430 22:03:29.216531  5111 layer_factory.hpp:77] Creating layer rpn_relu/3x3
I0430 22:03:29.216538  5111 net.cpp:106] Creating Layer rpn_relu/3x3
I0430 22:03:29.216542  5111 net.cpp:454] rpn_relu/3x3 <- rpn/output
I0430 22:03:29.216545  5111 net.cpp:397] rpn_relu/3x3 -> rpn/output (in-place)
I0430 22:03:29.216550  5111 net.cpp:150] Setting up rpn_relu/3x3
I0430 22:03:29.216553  5111 net.cpp:157] Top shape: 1 512 14 14 (100352)
I0430 22:03:29.216554  5111 net.cpp:165] Memory required for data: 115204096
I0430 22:03:29.216555  5111 layer_factory.hpp:77] Creating layer rpn/output_rpn_relu/3x3_0_split
I0430 22:03:29.216568  5111 net.cpp:106] Creating Layer rpn/output_rpn_relu/3x3_0_split
I0430 22:03:29.216570  5111 net.cpp:454] rpn/output_rpn_relu/3x3_0_split <- rpn/output
I0430 22:03:29.216573  5111 net.cpp:411] rpn/output_rpn_relu/3x3_0_split -> rpn/output_rpn_relu/3x3_0_split_0
I0430 22:03:29.216578  5111 net.cpp:411] rpn/output_rpn_relu/3x3_0_split -> rpn/output_rpn_relu/3x3_0_split_1
I0430 22:03:29.216603  5111 net.cpp:150] Setting up rpn/output_rpn_relu/3x3_0_split
I0430 22:03:29.216606  5111 net.cpp:157] Top shape: 1 512 14 14 (100352)
I0430 22:03:29.216609  5111 net.cpp:157] Top shape: 1 512 14 14 (100352)
I0430 22:03:29.216609  5111 net.cpp:165] Memory required for data: 116006912
I0430 22:03:29.216611  5111 layer_factory.hpp:77] Creating layer rpn_cls_score
I0430 22:03:29.216619  5111 net.cpp:106] Creating Layer rpn_cls_score
I0430 22:03:29.216621  5111 net.cpp:454] rpn_cls_score <- rpn/output_rpn_relu/3x3_0_split_0
I0430 22:03:29.216624  5111 net.cpp:411] rpn_cls_score -> rpn_cls_score
I0430 22:03:29.216753  5111 net.cpp:150] Setting up rpn_cls_score
I0430 22:03:29.216758  5111 net.cpp:157] Top shape: 1 18 14 14 (3528)
I0430 22:03:29.216758  5111 net.cpp:165] Memory required for data: 116021024
I0430 22:03:29.216761  5111 layer_factory.hpp:77] Creating layer rpn_bbox_pred
I0430 22:03:29.216765  5111 net.cpp:106] Creating Layer rpn_bbox_pred
I0430 22:03:29.216768  5111 net.cpp:454] rpn_bbox_pred <- rpn/output_rpn_relu/3x3_0_split_1
I0430 22:03:29.216770  5111 net.cpp:411] rpn_bbox_pred -> rpn_bbox_pred
I0430 22:03:29.216899  5111 net.cpp:150] Setting up rpn_bbox_pred
I0430 22:03:29.216903  5111 net.cpp:157] Top shape: 1 36 14 14 (7056)
I0430 22:03:29.216904  5111 net.cpp:165] Memory required for data: 116049248
I0430 22:03:29.216907  5111 layer_factory.hpp:77] Creating layer rpn_cls_score_reshape
I0430 22:03:29.216917  5111 net.cpp:106] Creating Layer rpn_cls_score_reshape
I0430 22:03:29.216918  5111 net.cpp:454] rpn_cls_score_reshape <- rpn_cls_score
I0430 22:03:29.216922  5111 net.cpp:411] rpn_cls_score_reshape -> rpn_cls_score_reshape
I0430 22:03:29.216935  5111 net.cpp:150] Setting up rpn_cls_score_reshape
I0430 22:03:29.216938  5111 net.cpp:157] Top shape: 1 2 126 14 (3528)
I0430 22:03:29.216940  5111 net.cpp:165] Memory required for data: 116063360
I0430 22:03:29.216943  5111 layer_factory.hpp:77] Creating layer rpn_cls_prob
I0430 22:03:29.216946  5111 net.cpp:106] Creating Layer rpn_cls_prob
I0430 22:03:29.216948  5111 net.cpp:454] rpn_cls_prob <- rpn_cls_score_reshape
I0430 22:03:29.216951  5111 net.cpp:411] rpn_cls_prob -> rpn_cls_prob
I0430 22:03:29.216984  5111 net.cpp:150] Setting up rpn_cls_prob
I0430 22:03:29.216987  5111 net.cpp:157] Top shape: 1 2 126 14 (3528)
I0430 22:03:29.216989  5111 net.cpp:165] Memory required for data: 116077472
I0430 22:03:29.216989  5111 layer_factory.hpp:77] Creating layer rpn_cls_prob_reshape
I0430 22:03:29.216994  5111 net.cpp:106] Creating Layer rpn_cls_prob_reshape
I0430 22:03:29.216995  5111 net.cpp:454] rpn_cls_prob_reshape <- rpn_cls_prob
I0430 22:03:29.216998  5111 net.cpp:411] rpn_cls_prob_reshape -> rpn_cls_prob_reshape
I0430 22:03:29.217010  5111 net.cpp:150] Setting up rpn_cls_prob_reshape
I0430 22:03:29.217012  5111 net.cpp:157] Top shape: 1 18 14 14 (3528)
I0430 22:03:29.217015  5111 net.cpp:165] Memory required for data: 116091584
I0430 22:03:29.217015  5111 layer_factory.hpp:77] Creating layer proposal
I0430 22:03:29.217835  5111 net.cpp:106] Creating Layer proposal
I0430 22:03:29.217844  5111 net.cpp:454] proposal <- rpn_cls_prob_reshape
I0430 22:03:29.217846  5111 net.cpp:454] proposal <- rpn_bbox_pred
I0430 22:03:29.217849  5111 net.cpp:454] proposal <- im_info
I0430 22:03:29.217852  5111 net.cpp:411] proposal -> rois
I0430 22:03:29.217856  5111 net.cpp:411] proposal -> scores
I0430 22:03:29.218600  5111 net.cpp:150] Setting up proposal
I0430 22:03:29.218607  5111 net.cpp:157] Top shape: 1 5 (5)
I0430 22:03:29.218611  5111 net.cpp:157] Top shape: 1 1 1 1 (1)
I0430 22:03:29.218612  5111 net.cpp:165] Memory required for data: 116091608
I0430 22:03:29.218614  5111 net.cpp:228] proposal does not need backward computation.
I0430 22:03:29.218617  5111 net.cpp:228] rpn_cls_prob_reshape does not need backward computation.
I0430 22:03:29.218619  5111 net.cpp:228] rpn_cls_prob does not need backward computation.
I0430 22:03:29.218621  5111 net.cpp:228] rpn_cls_score_reshape does not need backward computation.
…
